run_dataset/pancreas_result/dec_weight.pth (torch, 267611 bytes, 5 tensors)

encoder.0.linear.weight f4 [64, 1000]
0	0xbc1935da	-0.009351218
1	0x3cbf6c56	0.023367088
2	0xbc7e7550	-0.015530899
3	0xbd2fe384	-0.042941585
4	0xbd0d566f	-0.034506258
5	0x3d159af0	0.036524713
6	0x3c590a5f	0.013247102
7	0x3ce6e652	0.028185997
8	0x3d19a2f1	0.03750891
9	0x3d252522	0.040318616
10	0xbbfb82c8	-0.0076755024
11	0xbca7fff9	-0.0205078
12	0x3c8daea2	0.017295185
13	0x3c570318	0.013123296
14	0xbce37385	-0.027765045
15	0xbc9ce50d	-0.019152189
16	0x3d73838d	0.05945163
17	0x3d3770eb	0.04478542
18	0x3a5e755b	0.0008486115
19	0x3c53fee8	0.012939192
20	0x3c51f024	0.012813602
21	0xba721061	-0.0009234008
22	0xbb7797f1	-0.0037779773
23	0x3d2fbba9	0.042903576
24	0x3c45f2b2	0.012081789
25	0x3b3b72a4	0.0028602267
26	0x3d0c4b07	0.03425124
27	0x3bb90b68	0.0056471117
28	0xbd157476	-0.03648802
29	0x3a85d17f	0.001020953
30	0x3c392450	0.0113001615
31	0xbbd9099a	-0.006623459
32	0xbca9c39c	-0.020723157
33	0xbd3d0c88	-0.04615453
34	0x3d394e05	0.04524042
35	0x3b52cd8a	0.0032165968
36	0x3cb4e3fb	0.022081366
37	0x3d209f59	0.039214466
38	0x3c679ea1	0.014136941
39	0x3c90bc8c	0.017668031
40	0x3c8a9b7d	0.016919846
41	0x3d1b708e	0.037949137
42	0x3bbc4a5c	0.005746169
43	0x3cfeff97	0.031127734
44	0x3cc11398	0.023568913
45	0x3c192abb	0.009348567
46	0xbcb30c73	-0.021856522
47	0x3cc7538b	0.024331829
48	0x3d002e53	0.03129418
49	0x3bff1f97	0.007785748
50	0xbd18fb5e	-0.037349097
51	0x3b425cbe	0.002965733
52	0xbd204975	-0.039132554
53	0xbd06a642	-0.0328734
54	0x3c0088f2	0.00784515
55	0x3bbb8e0d	0.005723721
56	0x3caa4cc5	0.02078856
57	0x3c343c70	0.011000738
58	0xbd0c4777	-0.03424784
59	0xbcbc8bd9	-0.023015903
60	0x3c7bc375	0.015366425
61	0x3c503322	0.0127075035
62	0x3cac234a	0.02101292
63	0x3d7f1e05	0.06228449
64	0xbc61a975	-0.013773312
65	0x3bf84f17	0.0075777876
66	0xbc6472db	-0.013943399
67	0xbc40820a	-0.011749754
68	0xbd6582bf	-0.056032892
69	0x3cb6ef2f	0.022330849
70	0xbc336a0f	-0.010950579
71	0xbd0c9383	-0.034320366
72	0xbbc40460	-0.005981967
73	0x3d7d83ac	0.06189315
74	0x3c48e941	0.012262643
75	0xbd5c9d48	-0.053860933
76	0xbcdeec2e	-0.027212229
77	0xbb48cf80	-0.0030641258
78	0x3b462fab	0.0030240815
79	0x3ca04689	0.019564884
80	0x3c71970a	0.014745483
81	0xbd7e5f6a	-0.062102713
82	0xbd068f2b	-0.03285138
83	0xbd7ce20b	-0.06173901
84	0x3d0e00f6	0.034668885
85	0x3c0619d0	0.008184865
86	0x3ce9cd5a	0.028540302
87	0xbd52db80	-0.051478863
88	0x3c9ad5cd	0.018900776
89	0x3bdba72f	0.0067032794
90	0x3ca01842	0.019542817
91	0xbb3899ad	-0.002816777
92	0x3ca57ea5	0.02020199
93	0x3cf81ad7	0.030286236
94	0xbd28166e	-0.041037016
95	0xbd00c0c9	-0.031433854
96	0xbd15c0c7	-0.0365608
97	0x39f45ee8	0.00046610017
98	0xbcd933ad	-0.026513899
99	0x3ceb693e	0.028736707
100	0x3c2de877	0.010614506
101	0x3c58d906	0.013235336
102	0xbc2caa26	-0.010538613
103	0x3b9822a9	0.0046428037
104	0x3b61ff36	0.0034484393
105	0x3ca64ff8	0.020301804
106	0xbd5c3d75	-0.053769547
107	0xbd0c2108	-0.03421119
108	0x3c5a9852	0.01334198
109	0x3aac7350	0.0013156924
110	0xbd836006	-0.064147994
111	0xbb6829bd	-0.0035425269
112	0xbba41636	-0.0050075306
113	0x3cba589d	0.022747332
114	0x3c799b1e	0.015234737
115	0x3cea4e40	0.028601766
116	0x3bfb5caa	0.0076709585
117	0xbd71e16b	-0.059052866
118	0xbc0ff8e2	-0.008787366
119	0x3ced0ec7	0.02893771
120	0x3d4ee931	0.050515357
121	0x3ca78b3d	0.020452136
122	0x3cb5e9ed	0.022206271
123	0x3ba81739	0.0051297215
124	0xbc548c2a	-0.012972871
125	0xbcf35cb3	-0.029707288
126	0xbd40c26b	-0.04706041
127	0x3d3da099	0.046295736
128	0x3cd96b9d	0.026540572
129	0x3d1cdb9b	0.03829537
130	0x3cd17765	0.025569627
131	0xbb5f31d7	-0.0034056806
132	0xbca9a385	-0.020707855
133	0xbd58635e	-0.05282914
134	0x3c19cedd	0.009387699
135	0x3d1c6600	0.038183212
136	0x3d11085b	0.03540836
137	0x3cee7e9c	0.029113106
138	0x3d0dbc1a	0.034603216
139	0xbaeeb26c	-0.0018211133
140	0xbd02b705	-0.031912822
141	0xbbd02eeb	-0.0063532493
142	0xbb3b2ce1	-0.0028560685
143	0xbd0056e7	-0.031332877
144	0x3c3aebb6	0.011408737
145	0x3c5993c2	0.013279857
146	0x3bd050a4	0.0063572694
147	0xbd24f83a	-0.04027579
148	0x3d12423c	0.035707697
149	0xbc7eb4bf	-0.015546023
150	0x3cabf480	0.02099061
151	0xbc2f3b80	-0.010695338
152	0x3bdcfa95	0.006743739
153	0x3b90cd7e	0.004419028
154	0x3d27f1e8	0.041002184
155	0xbc9546b1	-0.018222185
156	0xbc04f28a	-0.008114466
157	0x3cf305ee	0.029665913
158	0xbccd3870	-0.025051326
159	0xbc0b349c	-0.00849643
160	0xbd0113ea	-0.031513132
161	0x3d5946e2	0.053046115
162	0xbd1ffc43	-0.039058935
163	0xbcec57af	-0.028850405
164	0xbcd6e700	-0.026233196
165	0xbd4d295c	-0.05008827
166	0xbbaeefb5	-0.005338634
167	0x3d5d78e8	0.054070383
168	0x3c8b1746	0.016978871
169	0xbba8bc62	-0.00514941
170	0xbd83530d	-0.06412325
171	0x3c30e7a4	0.010797415
172	0x3cc3860f	0.023867635
173	0xbd4e6cd9	-0.050396774
174	0x3cc5e347	0.024156226
175	0x3ce27ff6	0.027648907
176	0x3cb47af1	0.02203128
177	0x3c904ff5	0.017616251
178	0x3d85d612	0.06534971
179	0x3d5ceea6	0.05393853
180	0xbc275b8d	-0.0102146985
181	0x3d4ea79a	0.050452806
182	0x3cc13c2b	0.02358826
183	0x3ceee66b	0.029162606
184	0x3c88c2d8	0.016694471
185	0x3da19531	0.07889784
186	0x3d445bc0	0.047939062
187	0x3c3905a5	0.01129285
188	0x3ac4a8c3	0.0015003908
189	0xbc16e590	-0.009210005
190	0x3c9e7d2f	0.019346802
191	0x3ca1b4e5	0.019739578
192	0xbd40dfc5	-0.047088403
193	0x3bf63d8d	0.0075146616
194	0x3c131ef3	0.008979547
195	0xbc87122f	-0.016488163
196	0x3d005f01	0.031340603
197	0xbc3d00ed	-0.011535865
198	0x3c9edbef	0.019391982
199	0xbce9e3e9	-0.028551059
200	0xbd79a2e3	-0.060946357
201	0xbc54132d	-0.012944025
202	0xbc6bac97	-0.01438441
203	0xb9ae2a3e	-0.0003321934
204	0x3d093b46	0.033503793
205	0xbba87bce	-0.005141712
206	0xbc3305d0	-0.010926679
207	0x3d5183e8	0.051151186
208	0xbc7d100c	-0.01544572
209	0x3b63e632	0.0034774658
210	0xbd5c60ca	-0.053803243
211	0x3c5c24c8	0.013436504
212	0xbd4465ad	-0.047948528
213	0xbc66101e	-0.014041929
214	0xb780d3f4	-1.5357487e-05
215	0x3d314bbe	0.043285124
216	0xbd07900f	-0.03309637
217	0xbaa2a82d	-0.001240974
218	0x3c9ec456	0.01938073
219	0x3d16977e	0.036765568
220	0x3cf4acee	0.029867616
221	0x3d7339be	0.05938124
222	0x3cfd37bd	0.030910367
223	0xbaaa18f7	-0.0012977411
224	0x3d694740	0.056952715
225	0xbc44fae1	-0.012022705
226	0x3d2a3343	0.041552793
227	0xbd0d20f4	-0.034455255
228	0xbca23582	-0.019800905
229	0xbbf2ad5c	-0.00740592
230	0xbc77dbc8	-0.0151280835
231	0x3b9cbb34	0.0047830585
232	0xbbbe9b8f	-0.005816884
233	0xbc9b8180	-0.018982649
234	0xbd939f64	-0.07208136
235	0x3ca350b8	0.01993595
236	0xbc459ee8	-0.012061812
237	0x3d0bda94	0.034144
238	0x3d1e1a77	0.038599458
239	0x3d039824	0.032127514
240	0xbd12cef3	-0.035841893
241	0x3cf02b43	0.029317504
242	0x3c168bb4	0.009188581
243	0x3d4f3d11	0.050595347
244	0x3be4527e	0.0069678416
245	0xbc9a691d	-0.01884895
246	0xbb8ee175	-0.0043603727
247	0xbd44cc04	-0.048046127
248	0xbc5e3451	-0.013562278
249	0x3c237f15	0.009979029
250	0xbbbf6796	-0.005841206
251	0xbbbcd498	-0.005762648
252	0x3d53e84e	0.051735215
253	0xbbcd377f	-0.006262719
254	0xbc045d27	-0.00807885
255	0x3c23115a	0.009952867

encoder.0.linear.bias f4 [64]
0	0xbe8b7cfd	-0.27243796
1	0xbe861d5e	-0.2619428
2	0xbe3195e9	-0.17342342
3	0xbe0c829f	-0.13721703
4	0xbe8ff173	-0.281139
5	0xbccd5bf9	-0.02506827
6	0xbecf23ee	-0.404571
7	0xbd9445f2	-0.072399035
8	0xbe27736f	-0.16352628
9	0xbe36c110	-0.17847085
10	0xbe122250	-0.14270902
11	0x3d2194b0	0.03944844
12	0xbed27839	-0.41107348
13	0xbe88a055	-0.26684824
14	0xbe6adf0b	-0.22936647
15	0xbea5a721	-0.32354072
16	0xbe5961df	-0.21228741
17	0xbe4cd2a6	-0.20002231
18	0xbb3857d7	-0.0028128529
19	0xbd39d042	-0.045364626
20	0x3d893a3b	0.0670056
21	0xbe5a9e1d	-0.21349378
22	0xbe532836	-0.20620808
23	0xbe7c4be6	-0.24638328
24	0xbdcff24a	-0.10153635
25	0xbdcb8cf6	-0.099389955
26	0xbdcfa608	-0.1013909
27	0x3d119e3f	0.035551306
28	0xbd9e769b	-0.07737466
29	0xbe38c177	-0.18042551
30	0xbe357e97	-0.17724071
31	0xbdf6e49a	-0.12055321
32	0xbe4a152f	-0.19734643
33	0xbc769ba8	-0.01505176
34	0xbcb4a39c	-0.022050671
35	0xbdbab405	-0.09116367
36	0xbeadb602	-0.33927923
37	0x3dab6d3c	0.08370444
38	0xbea7cbab	-0.32772574
39	0xbe2bb210	-0.16767144
40	0xbca45a06	-0.020062458
41	0xbe9807dc	-0.29693496
42	0xbcb58657	-0.022158785
43	0xbe658e6a	-0.22417608
44	0xbdd3b811	-0.10337842
45	0x3d2a237c	0.041537747
46	0xbd88e7b6	-0.0668482
47	0x3d1ea668	0.038732916
48	0xbe881177	-0.26575825
49	0xbe932647	-0.2874014
50	0xbdbdd9c4	-0.09270051
51	0x3c0390c3	0.008030119
52	0xbd9087b3	-0.070571326
53	0xbd97472c	-0.07386622
54	0xbe06003a	-0.13086024
55	0xbe88faa9	-0.2675374
56	0xbc51eae4	-0.01281235
57	0xbe266ed9	-0.16253223
58	0xbe2c7d22	-0.1684461
59	0xbe10b2b4	-0.1413067
60	0xbe492141	-0.19641592
61	0xbd64c503	-0.055851948
62	0xbdf66c2c	-0.12032351
63	0xbd8cf75b	-0.06883117

encoder.1.linear.weight f4 [32, 64]
0	0x3c98bb4c	0.018643998
1	0xbdad085c	-0.0844886
2	0x3c9100e7	0.017700626
3	0xbc28d254	-0.010304052
4	0xbdbbd1a6	-0.09170847
5	0xbce114e7	-0.027475787
6	0xbdeec9c5	-0.11659578
7	0x3e56d247	0.20978652
8	0x3db4b25f	0.08823084
9	0xbd18587f	-0.03719377
10	0x3d5cb79e	0.05388605
11	0x3dc297ee	0.095016345
12	0xbb824586	-0.003975573
13	0x3c5351bd	0.012897906
14	0xbd772629	-0.060339127
15	0x3e205c0d	0.15660115
16	0xbdb5d618	-0.08878726
17	0x3d5a55c8	0.053304464
18	0xbd5cc3d9	-0.053897712
19	0xbdcb88d5	-0.09938208
20	0x3e1d9c23	0.15391593
21	0xbdf31416	-0.118690655
22	0x3ca8e6db	0.020617893
23	0x3d27b46a	0.04094354
24	0x3cf202d3	0.029542362
25	0xbe4799d6	-0.19492278
26	0x3c801c4a	0.01563849
27	0xbb8d3e14	-0.004310379
28	0x3cdca7ce	0.026935484
29	0xbd0f1b30	-0.034938037
30	0x3d19cc02	0.037548073
31	0x3d440317	0.04785451
32	0x3d52232a	0.051303066
33	0x3bb09b44	0.005389603
34	0xbd399e8b	-0.045317214
35	0x3dfce50f	0.12348377
36	0x3e62494b	0.22098272
37	0x3d055355	0.032550175
38	0x3e4412ea	0.1914784
39	0xbbae6f3f	-0.00532332
40	0xbb8a70a9	-0.004224856
41	0x3d8c29bd	0.068438984
42	0xbdd51eb8	-0.1040625
43	0xbb02b31f	-0.001994319
44	0xbd29b36c	-0.041430876
45	0xbdd7bf9c	-0.105345935
46	0x3c9ebae2	0.019376222
47	0xbc507bf7	-0.012724868
48	0xbd96a608	-0.07355887
49	0xbe180420	-0.14845324
50	0x3da193d5	0.07889525
51	0xbdbe9fc2	-0.09307815
52	0x3c2d80d8	0.010589801
53	0xbcce2f0c	-0.025168918
54	0x3bc03382	0.005865515
55	0xbd1314fd	-0.035908688
56	0xbc8e072f	-0.01733741
57	0xbd666916	-0.05625256
58	0xbccf616c	-0.025315009
59	0xbcb8f304	-0.022576816
60	0xbaf191e2	-0.0018430317
61	0x3d19bf50	0.037535965
62	0xbc811262	-0.015755836
63	0xbd78ff85	-0.060790557
64	0xbe1c217d	-0.1524715
65	0xbcbed3ff	-0.023294447
66	0xbd8fd6d9	-0.07023401
67	0xbded392b	-0.115831695
68	0xba0a4852	-0.0005275059
69	0x3de3f609	0.11130912
70	0xbc4afc89	-0.012389311
71	0x3d598f19	0.053114984
72	0xbd980efb	-0.07424732
73	0x3d316373	0.043307733
74	0x3cbd1a5d	0.02308386
75	0xbda63ab9	-0.08116669
76	0x3d8f8c96	0.070092365
77	0xbe16784a	-0.14694324
78	0xbdf993bc	-0.12186381
79	0xbe09411e	-0.13403746
80	0x3e1a5b44	0.15073878
81	0xbd35aca4	-0.044354096
82	0x3b133c25	0.002246627
83	0xbd87e226	-0.06634931
84	0xbd44bac0	-0.04802966
85	0x3d8ba5b3	0.06818714
86	0x3e138917	0.14407764
87	0xbdc14045	-0.094360866
88	0xbab24cc1	-0.0013603197
89	0xbcbbd765	-0.022929857
90	0x3d475c1a	0.04867182
91	0xbdb80df6	-0.08987038
92	0x3e14340f	0.14472984
93	0xbc2f7c29	-0.010710754
94	0x3ce9547a	0.028482664
95	0x3c065911	0.008199946
96	0xbd44760d	-0.047964144
97	0x3dab88c6	0.08375697
98	0x3dce4687	0.10072046
99	0xbda4f780	-0.080550194
100	0x3db8b849	0.090195246
101	0xbd86f1cc	-0.06589088
102	0xbd6f9c3c	-0.058498606
103	0x3db813c7	0.08988147
104	0xbd5fb299	-0.054613683
105	0x3e58c91c	0.21170467
106	0x3cc44582	0.023958925
107	0xbd4da9bf	-0.05021071
108	0xbdd7f564	-0.105448514
109	0x3c8ee1ca	0.017441649
110	0x3cbb2d92	0.022848878
111	0xb9aaed4b	-0.00032601724
112	0xbc4ef94e	-0.012632681
113	0x3bd331b6	0.006445135
114	0x3c9e5945	0.019329676
115	0x3be9c1ce	0.007133699
116	0x3d21e9fb	0.03952978
117	0xbd0b25a9	-0.033971462
118	0x3d101b21	0.035182122
119	0xbd996e29	-0.074917145
120	0xbdc6d344	-0.097082645
121	0xbe00fda0	-0.1259675
122	0xbdc05d0e	-0.09392749
123	0xbdb37f24	-0.087644845
124	0xbd2007ec	-0.039070055
125	0xbd0d5ed3	-0.03451426
126	0x3e2aadfb	0.16667931
127	0xbc134d03	-0.008990529
128	0xbd2be06e	-0.04196208
129	0x3d40c8a1	0.047066335
130	0xbcacdee7	-0.021102382
131	0xbdca0cf0	-0.09865749
132	0xbe037688	-0.12838185
133	0x3cb013fd	0.021493906
134	0xbe342ab1	-0.1759441
135	0x3ea6a6d7	0.32549164
136	0xbd7c5002	-0.06159974
137	0xbe3ab0f1	-0.1823156
138	0xbe007c4d	-0.12547417
139	0xbc7680c8	-0.015045352
140	0x3cc2786f	0.023739068
141	0x3d712d34	0.058881
142	0x3cbf30a2	0.02333862
143	0x3dd3e113	0.10345664
144	0x3cadee0f	0.02123168
145	0x3d87010e	0.06591998
146	0xba4f2813	-0.0007902395
147	0x3c7d4747	0.015458888
148	0x3d936dbc	0.071986645
149	0xbca237ce	-0.019802
150	0xbd5a44ba	-0.0532882
151	0xbd05f31f	-0.03270256
152	0xbd5fadf8	-0.05460927
153	0xbde9cf06	-0.1141644
154	0xbd8bd7d2	-0.06828274
155	0xbd409335	-0.047015388
156	0x3d1ac93b	0.037789565
157	0x3d860396	0.06543653
158	0x3d4c18cc	0.049828336
159	0xbe2edd40	-0.17076588
160	0x3db2dbe1	0.08733345
161	0xbc86d8bb	-0.016460767
162	0x3da839cc	0.08214149
163	0xbe1c143d	-0.15242095
164	0xbe0a120a	-0.13483444
165	0xbdb1e6f8	-0.08686632
166	0x3c016dd8	0.007899724
167	0x3e134165	0.14380415
168	0xbdb65f67	-0.08904915
169	0xbde2dee7	-0.110776715
170	0x3b19b7d8	0.0023455527
171	0x3d950015	0.07275406
172	0xbd289c54	-0.04116471
173	0xbc9721df	-0.018448768
174	0x3dae9989	0.08525378
175	0x3d84c127	0.064821534
176	0xbe1a79c6	-0.15085515
177	0x3d73d40c	0.059528396
178	0x3bafd0c1	0.0053654616
179	0xbba47df7	-0.005019899
180	0x3d96a5ae	0.0735582
181	0xbdf9b79a	-0.12193222
182	0x3d168205	0.03674509
183	0xbe12853f	-0.14308642
184	0xbd8ccd9a	-0.06875153
185	0x3d30a2c5	0.04312398
186	0x3dc03d74	0.09386721
187	0xbe1db756	-0.15401968
188	0x3c02b8a3	0.007978591
189	0x3d1a53c0	0.037677526
190	0x3d926e2a	0.071499184
191	0x3d196c9f	0.037457105
192	0x3c954088	0.018219247
193	0xbe1a7358	-0.15083063
194	0x3d87ba08	0.066272795
195	0x3e21da80	0.15806007
196	0x3db51c3c	0.08843276
197	0xbd0c2516	-0.034215055
198	0x3c73328a	0.014843592
199	0xbd5a3660	-0.053274512
200	0xbe038cf8	-0.12846744
201	0xbe89f8de	-0.26947683
202	0x3e550ea3	0.20806365
203	0x3c811c61	0.015760602
204	0x3d8cdc1c	0.0687792
205	0xbe733259	-0.23749675
206	0x3d1e4117	0.038636293
207	0xbd7693c7	-0.060199525
208	0xbe61948f	-0.22029327
209	0xbc8eccb3	-0.017431593
210	0xbe10bb33	-0.14133911
211	0x3df146e0	0.117810965
212	0x3dbfb4d4	0.09360662
213	0xbe2eda21	-0.17075397
214	0xbd56f552	-0.05248005
215	0xbe6f6850	-0.23379636
216	0xbdb54afe	-0.08852194
217	0xbd93a914	-0.072099835
218	0xbde87922	-0.11351229
219	0xbd311f38	-0.043242663
220	0xbc2395d0	-0.009984449
221	0x3d0612de	0.032732837
222	0x3a67b6af	0.00088391727
223	0xbc8c45cf	-0.017123131
224	0x3d0c3bc1	0.034236673
225	0x3decc9fb	0.11561962
226	0xbdd1921e	-0.10232948
227	0xbc6a98f2	-0.014318692
228	0x3d1b4b88	0.03791383
229	0xbcfd2652	-0.030902062
230	0xbde89dd1	-0.11358226
231	0xbdfa5e15	-0.12224976
232	0xbc9ac1bb	-0.018891206
233	0x3cef7172	0.0292289
234	0xbba67b66	-0.005080628
235	0xbd0676ba	-0.03282807
236	0xbd9d0337	-0.07666629
237	0x3bb07d05	0.0053859972
238	0x3b269d85	0.0025423479
239	0x3e20561e	0.15657851
240	0x3e016f47	0.12640105
241	0xbe34fefe	-0.17675397
242	0xbdf68512	-0.120371
243	0x3ba071b7	0.0048963684
244	0xbbd92ebb	-0.006627885
245	0xbd32ae6e	-0.04362338
246	0x3e8c1fb9	0.27367952
247	0x3d39265f	0.04520261
248	0xbdad194d	-0.08452091
249	0x3e1dc4a1	0.15407039
250	0x3e46ee55	0.19426854
251	0xbdf5782d	-0.11985812
252	0xbd3cb01d	-0.046066392
253	0xbe0ace59	-0.13555278
254	0xbd8e9a6b	-0.06963047
255	0xbc41b441	-0.011822761

encoder.1.linear.bias f4 [32]
0	0xbea6f8d8	-0.32611728
1	0x3d6d1ecc	0.0578907
2	0x3c991e5e	0.018691238
3	0xbdc4e2d6	-0.09613578
4	0x3e1aebf1	0.15129067
5	0xbe7389a8	-0.2378298
6	0x3b94c066	0.0045395372
7	0xbd221412	-0.03956992
8	0xbd00a8ce	-0.031410985
9	0xbe2259e6	-0.15854606
10	0xbd8ed6e5	-0.06974582
11	0xbe67ba39	-0.22629632
12	0xbe57a37a	-0.21058455
13	0x3bdf1651	0.0068080802
14	0xbddab0a1	-0.106782205
15	0x3d85a5c1	0.06525756
16	0x3d523ed9	0.051329467
17	0xbe30588b	-0.17221276
18	0xbe2b519b	-0.16730349
19	0xbe42817f	-0.18994711
20	0xbde5328f	-0.11191284
21	0xbd76fbd7	-0.060298767
22	0xbde13e6d	-0.10998235
23	0x3bd2d374	0.0064338986
24	0x3c9ef2d7	0.019402904
25	0xbe37e248	-0.17957413
26	0x3bc9bba3	0.0061564012
27	0xbe2aa299	-0.16663589
28	0xbdf28dd2	-0.11843456
29	0xbd0d5c9e	-0.034512155
30	0x3c154c7b	0.009112473
31	0xbe33be55	-0.17553075

assignment.cluster_centers f4 [9, 32]
0	0xbf125f72	-0.5717689
1	0xbead3f45	-0.33837333
2	0xbf1f70f8	-0.6228175
3	0xbf5def63	-0.866934
4	0xbdaa45fa	-0.08314128
5	0xbf6410b0	-0.89087963
6	0xbd026f4f	-0.031844433
7	0xbf4a63b6	-0.79058397
8	0x3e1088cf	0.14114688
9	0xbf7d77f6	-0.9901117
10	0x3d0dee35	0.034651
11	0xbf4271b9	-0.75954777
12	0x3f7fa3d3	0.9985935
13	0x3dfff84e	0.12498532
14	0x3e93b0df	0.2884588
15	0x3f2028b5	0.62562114
16	0x3e42f6cb	0.19039457
17	0xbf7afa30	-0.98038006
18	0xbd3b0c0c	-0.045665786
19	0xbd1e4add	-0.038645614
20	0xbf0f49d4	-0.5597203
21	0x3f2bd8e7	0.6712784
22	0xbed82a20	-0.4221964
23	0xbdb3cb2b	-0.087789856
24	0xbf6a9aa1	-0.91642195
25	0x3f83fe5b	1.0311998
26	0xbf1ecd64	-0.6203215
27	0xbf7d0d14	-0.9884808
28	0xbf6a3ca4	-0.9149878
29	0xbf5c6560	-0.86092186
30	0x3ec65c55	0.3874232
31	0xbf74a35a	-0.95561755
32	0xbf1afe91	-0.6054469
33	0x3f040cf6	0.51582277
34	0x3e3e0abe	0.18558785
35	0xbf42d2c2	-0.7610284
36	0xbc81a6ca	-0.015826602
37	0x3f867475	1.050429
38	0x3e5ce2a2	0.21570829
39	0xbf5c69fb	-0.86099213
40	0xbf14d187	-0.58132213
41	0xbf7c32fc	-0.98515296
42	0x3d68c4a4	0.056828156
43	0xbf5513fa	-0.83233607
44	0x3ebbcb4d	0.36678544
45	0xbda56313	-0.080755375
46	0x3daafd1a	0.083490565
47	0x3d73d70e	0.059531264
48	0x3c6df97c	0.014524814
49	0xbf79b7f2	-0.97546303
50	0x3eba03a4	0.36330903
51	0xbdcd3cbc	-0.1002135
52	0xbf5ab5d2	-0.85433686
53	0xbe15214c	-0.14563483
54	0x3e7d87b5	0.247588
55	0x3f4924e3	0.7857191
56	0xbf630ee9	-0.88694626
57	0xbf859e36	-1.0438907
58	0xbf61b584	-0.88167596
59	0x3f889c3f	1.0672683
60	0xbf6bb03b	-0.9206578
61	0xbf720c5a	-0.94550097
62	0x3e869ad0	0.26289988
63	0xbf721fc2	-0.9457971
64	0xbf0c7ccf	-0.5487794
65	0xbee431a9	-0.44569138
66	0x3e8e5a9f	0.27803513
67	0x3f85e7f8	1.0461416
68	0x3e6a1d7d	0.22862811
69	0xbf3bebd0	-0.73406696
70	0x3f59df2c	0.8510616
71	0x3d94fbde	0.07274602
72	0x3f7e5a58	0.99356604
73	0x3ea9c47d	0.3315772
74	0xbf31c501	-0.6944123
75	0xbe9501ba	-0.2910288
76	0xbf5e9396	-0.8694395
77	0xbe968b89	-0.29403332
78	0xbedcf07a	-0.4315222
79	0xbf32eecc	-0.69895625
80	0xbf01d71e	-0.5071887
81	0xbf7de829	-0.99182373
82	0xbe775f69	-0.2415749
83	0xbf332d78	-0.69991255
84	0x3f029d35	0.5102113
85	0xbe8e7747	-0.27825376
86	0xbf3b21f3	-0.7309868
87	0xbd4a4c96	-0.049389444
88	0x3f85d0f6	1.0454395
89	0xbf6f0839	-0.9337192
90	0x3e8517e5	0.25994793
91	0xbf7e5903	-0.9935457
92	0xbf80b235	-1.0054384
93	0xbe8e405c	-0.27783477
94	0xbf41f2f6	-0.75761354
95	0xbf3d9648	-0.74057436
96	0x3d57232e	0.052523784
97	0xbeda4911	-0.4263387
98	0x3c80ea48	0.015736714
99	0xbf27e42b	-0.6558253
100	0x3f8352a0	1.025959
101	0xbf397504	-0.72444177
102	0xbf448b97	-0.767755
103	0xbd2f6b92	-0.042827196
104	0xbe70641a	-0.23475686
105	0x3e9b255e	0.30301946
106	0xbdee7b0c	-0.11644563
107	0xbf3988e0	-0.7247448
108	0xbf1d6c6b	-0.6149356
109	0xbe1780b3	-0.14795189
110	0xbd72e278	-0.05929801
111	0xbf80d757	-1.0065717
112	0x3f1092cc	0.56473994
113	0xbf7189de	-0.94350994
114	0xbed294eb	-0.4112924
115	0xbee91835	-0.4552628
116	0xbdd01d7e	-0.10161875
117	0xbeb79dd2	-0.35862595
118	0x3f3babb1	0.73308855
119	0x3dc5c7f3	0.09657278
120	0xbf4e7f25	-0.8066276
121	0xbf06ea5e	-0.52701366
122	0x3f864125	1.048863
123	0xbf804470	-1.0020885
124	0x3f8b374f	1.0876254
125	0x3f7de6f0	0.9918051
126	0x3debaee5	0.11507968
127	0xbf75dc7a	-0.96039546
128	0x3f6179ab	0.88076276
129	0x3e9b086e	0.3027987
130	0x3f626ff9	0.88452107
131	0xbf1c3143	-0.6101267
132	0x3e2e0eba	0.16997805
133	0xbf572da8	-0.8405404
134	0xbebc9bed	-0.36837712
135	0xbf3a25c6	-0.7271389
136	0xbf115724	-0.5677359
137	0xbf7d35b1	-0.9891005
138	0x3edc0f3c	0.42980373
139	0x3f6fcc65	0.93671256
140	0x3f39f409	0.72637993
141	0x3d352bfb	0.044231396
142	0x3e887e41	0.26658824
143	0x3f2bc0f9	0.6709133
144	0x3db6a75b	0.08918639
145	0xbf7860e5	-0.9702285
146	0xbf29355b	-0.6609704
147	0x3f69e51e	0.9136523
148	0xbf3b25a9	-0.7310434
149	0xbf088f44	-0.53343606
150	0x3ec41af9	0.38301829
151	0xbf3eae69	-0.7448488
152	0xbf2228e1	-0.63343626
153	0xbf80172a	-1.0007069
154	0x3c937117	0.017998261
155	0x3f84218e	1.032274
156	0xbf610a69	-0.8790651
157	0xbf68dba5	-0.9096015
158	0xbf0033b1	-0.50078875
159	0xbf3801c2	-0.7187768
160	0xbf26b952	-0.65126526
161	0x3d6fe568	0.05856839
162	0xbf415d31	-0.75532824
163	0xbf53c491	-0.8272181
164	0xbf041900	-0.51600647
165	0xbea70be9	-0.32626274
166	0xbee3aa8c	-0.44466054
167	0xbe5e2c79	-0.21696652
168	0xbf3462db	-0.7046334
169	0xbf7c0dbe	-0.9845847
170	0xbd8e0bd7	-0.06935852
171	0x3f8f554f	1.1197909
172	0x3f5fb9ef	0.8739309
173	0x3f5267f8	0.82189894
174	0x3ec1c02b	0.37841925
175	0xbf16e9bf	-0.5895042
176	0xbed16c0e	-0.40902752
177	0xbf77c2f9	-0.9678188
178	0xbdb5f254	-0.08884111
179	0x3f6b90fa	0.9201809
180	0xbf17923b	-0.59207505
181	0x3f1fbdeb	0.62399167
182	0x3ed0b7e1	0.40765288
183	0xbdc6a7cf	-0.09699976
184	0xbf4c4941	-0.79799277
185	0xbf7c62c6	-0.98588216
186	0xbf3703ce	-0.7149018
187	0xbf6f9c90	-0.9359827
188	0xbf5e779e	-0.8690127
189	0xbf517bc2	-0.81829464
190	0x3e6c8f04	0.23101431
191	0xbf745b29	-0.954516
192	0xbad50dad	-0.0016254686
193	0xbf552292	-0.83255875
194	0xbf7fe4ff	-0.99958795
195	0xbf83e518	-1.0304289
196	0xbf3de8d9	-0.7418342
197	0xbf65c9b6	-0.8976091
198	0x3f62992f	0.8851499
199	0x3f17fc27	0.5936913
200	0xbf750b09	-0.95719963
201	0x3f542375	0.82866603
202	0xbf28cd1a	-0.6593796
203	0xbf7afcb8	-0.9804187
204	0xbed9f236	-0.42567605
205	0xbf6d57c6	-0.92712057
206	0xbf3e807d	-0.7441481
207	0xbf79ebfa	-0.97625697
208	0xbf3b6778	-0.73204756
209	0x3f8ea1aa	1.1143086
210	0xbf85f643	-1.0465778
211	0xbf8208b7	-1.015891
212	0xbf7a3970	-0.9774389
213	0xbf640c93	-0.89081687
214	0x3ec84994	0.39118636
215	0xbf852f6e	-1.0405099
216	0xbf7eeefd	-0.9958342
217	0xbf7463c7	-0.9546475
218	0xbf80ed85	-1.0072485
219	0x3f8a45a3	1.0802501
220	0xbf7a697a	-0.97817194
221	0x3f745b52	0.95451844
222	0xbf74f7f5	-0.9569085
223	0x3f8dd7b8	1.1081457
224	0x3f83941f	1.0279578
225	0xbf37f8e0	-0.7186413
226	0xbf828510	-1.0196857
227	0xbf81b528	-1.013341
228	0xbf7eeae6	-0.99577177
229	0xbf7d56e3	-0.98960704
230	0xbf8885fb	-1.0665888
231	0xbf51d6fe	-0.8196868
232	0xbf7d8cf6	-0.99043214
233	0xbf838a88	-1.0276651
234	0xbf72c520	-0.9483204
235	0xbf3a4589	-0.7276235
236	0xbf7bf311	-0.98417765
237	0xbf714c12	-0.942567
238	0xbedfaddd	-0.43687335
239	0x3f8009ad	1.0002953
240	0x3f34b7ed	0.7059315
241	0x3f7b5c42	0.9818765
242	0x3f820eb6	1.016074
243	0xbf594902	-0.84877026
244	0x3f890b20	1.070652
245	0xbe410c7a	-0.18852416
246	0xbf81579d	-1.0104862
247	0xbf707ffd	-0.93945295
248	0x3f8504f7	1.039214
249	0xbeed1580	-0.46305466
250	0xbf529ccc	-0.82270503
251	0x3f804ad0	1.0022831
252	0xbf7f2001	-0.9965821
253	0x3f8b032e	1.0860345
254	0xbf441e0e	-0.7660836
255	0xbf62a51b	-0.8853318
