run_dataset/paul15_result/ae_weights.pth (torch, 535695 bytes, 8 tensors)

encoder.0.linear.weight f4 [64, 1000]
0	0xbd3d1e2d	-0.046171356
1	0x3d2411a8	0.0400559
2	0xbc4b1065	-0.0123940455
3	0x3cba0b96	0.022710603
4	0xbd232637	-0.039831366
5	0x3c522123	0.012825283
6	0x3d486155	0.048920948
7	0x3cc3a060	0.023880184
8	0x3d23cb0d	0.039988566
9	0x3d7e0f7d	0.06202649
10	0x3bf1a0c4	0.007373901
11	0x3c6fc37c	0.014634009
12	0x3befef39	0.0073222187
13	0x3cf5ac0f	0.02998927
14	0xbccc950f	-0.02497342
15	0xbd05f53e	-0.032704584
16	0x3d403c67	0.046932604
17	0x3d102706	0.035193466
18	0xbc99aa32	-0.018757913
19	0x3c0fee88	0.008784898
20	0x3ceecf9d	0.029151732
21	0xbc44498b	-0.011980425
22	0xbd050a27	-0.032480385
23	0x3d3b2e70	0.045698583
24	0x3c820f3d	0.015876407
25	0x3d6182fd	0.05505656
26	0x3b6e8de3	0.003640049
27	0x3b36aa0c	0.0027872352
28	0xbb6c9286	-0.0036098077
29	0x3c953ad3	0.018216526
30	0x3ca43667	0.020045472
31	0x3cdb91f6	0.026802998
32	0x3b4459a7	0.0029960664
33	0x3c7a00d7	0.015258989
34	0x3d59104e	0.052994065
35	0xbcca35c1	-0.024683835
36	0x3c6fdc9f	0.0146400025
37	0x3d319357	0.043353405
38	0x3ca1169a	0.019664098
39	0x3d12ed15	0.03587063
40	0xbba8f221	-0.005155817
41	0x3d86cd9b	0.06582185
42	0xbd204be0	-0.03913486
43	0x3d2aa2e4	0.04165925
44	0x3c77dcca	0.015128324
45	0xbc9acf85	-0.018897781
46	0xbd11c8c6	-0.035591863
47	0x3d7bf483	0.06151248
48	0x3c75e753	0.015008765
49	0xbca317e7	-0.019908858
50	0xbd1daa18	-0.038492292
51	0x3d04768c	0.032339618
52	0xbcc7f959	-0.02441089
53	0xbd5d64b0	-0.0540511
54	0x3d01f7dd	0.03173052
55	0x3d30a060	0.043121696
56	0xbcdbc32e	-0.026826467
57	0xbd11036e	-0.03540366
58	0xbd5dbe8f	-0.05413681
59	0xbd5c5d77	-0.053800073
60	0xbcb8b2d1	-0.022546204
61	0xbaf7cde0	-0.001890596
62	0x3d3e4980	0.046456814
63	0x3caee6b0	0.021350235
64	0x3dc51ded	0.096248485
65	0x3d39363b	0.045217734
66	0xbce2b5c1	-0.027674558
67	0xbbbd30c6	-0.0057736365
68	0xbd538673	-0.051641893
69	0x3d53f36f	0.05174583
70	0x3cd7ee83	0.026358848
71	0xbc144074	-0.00904857
72	0xbcd15291	-0.025552066
73	0x3c177922	0.009245189
74	0x3c5992d8	0.013279639
75	0xbd8ba4d7	-0.0681855
76	0xbd361c61	-0.044460658
77	0xbc3c9229	-0.011509457
78	0xbbf71ad4	-0.00754104
79	0xbcf79f15	-0.030227223
80	0x3c80f8b3	0.015743589
81	0x3c513073	0.012767899
82	0x3c859b1a	0.01630931
83	0xbd0fa20f	-0.03506666
84	0x3cfccf6a	0.030860621
85	0xba7b99b1	-0.0009597792
86	0x3b927279	0.0044692126
87	0xbd44d711	-0.048056666
88	0xbc04a8bf	-0.008096873
89	0x3cf3a093	0.029739654
90	0x3c4b2f44	0.012401406
91	0x3d3ad4ac	0.045612976
92	0x3d0cc9fd	0.03437232
93	0x3ca0f513	0.01964811
94	0xbd6480d9	-0.05578694
95	0xbd39aa92	-0.045328684
96	0xbd1e353e	-0.038624994
97	0x3cad833a	0.021180738
98	0xbd08ce23	-0.033399712
99	0x3ce1b12c	0.027550302
100	0xbd3682b7	-0.044558253
101	0x3d805e38	0.06267971
102	0xbd0e5908	-0.034752876
103	0xbcfdbfe6	-0.030975293
104	0x3d78ac5c	0.06071125
105	0x3c8a6cc5	0.016897568
106	0xbd6a8a20	-0.057260633
107	0xbc105583	-0.00880945
108	0x3d807d41	0.0627389
109	0x3b4571a3	0.0030127547
110	0xbbb44b10	-0.005502112
111	0xbd2bba0b	-0.04192547
112	0xbd198136	-0.03747674
113	0x3d5685f9	0.05237386
114	0x3cb07ec6	0.021544825
115	0xbcfd0077	-0.03088401
116	0xbc86bd39	-0.01644765
117	0xbccc2919	-0.02492194
118	0xbcc73336	-0.024316411
119	0x3d3c65fa	0.04599569
120	0x3d32a97e	0.04361867
121	0x3d10be61	0.03533781
122	0x3d20985e	0.03920781
123	0xbc0925e1	-0.008370847
124	0x3c02d996	0.007986447
125	0xbd07cc2d	-0.0331537
126	0xbd0ff266	-0.03514328
127	0x3d45c545	0.048283834
128	0x3c8e30eb	0.01735731
129	0x3d37606a	0.044769682
130	0xbc70d172	-0.014698373
131	0x3c86401c	0.016387992
132	0xbc1cbe79	-0.009566897
133	0xbd53ea14	-0.051736906
134	0x3bc8e06d	0.0061302693
135	0x3ccade2f	0.024764149
136	0xbc4b6e78	-0.0124164745
137	0x3d65e2ee	0.05612462
138	0x3d52981a	0.051414587
139	0x3ca4ceea	0.020118196
140	0xbd3f006c	-0.04663126
141	0x3b0cd991	0.0021491984
142	0xbae22123	-0.0017252307
143	0x3c5b0c77	0.013369671
144	0x3c828084	0.015930422
145	0x3c4fffb5	0.012695243
146	0xbc28435b	-0.010269965
147	0xbd83051c	-0.06397459
148	0x3d9b0f29	0.07571251
149	0xbd06fb58	-0.032954544
150	0x3d276407	0.040866878
151	0xbcb10cc9	-0.021612542
152	0x3cff1660	0.031138599
153	0xbca8b791	-0.020595344
154	0x3d248381	0.040164474
155	0xbbce945f	-0.0063043083
156	0x3cc2eca8	0.023794487
157	0x3d45e1f9	0.048311207
158	0xbcfc2316	-0.030778449
159	0xbd01cacb	-0.03168754
160	0xbd63b43a	-0.0555918
161	0x3d25d474	0.040485814
162	0xbc847c84	-0.016172655
163	0xbc5bc6c5	-0.01341409
164	0xbd0bf944	-0.034173265
165	0xbd095ac1	-0.033533815
166	0x3c6af934	0.014341641
167	0x3d3a7f21	0.045531396
168	0x3a705af9	0.00091688294
169	0x3dd4c8e4	0.10389879
170	0xbd83ebd2	-0.064414635
171	0x3dbe7b13	0.09300818
172	0x3d98eb41	0.07466746
173	0xbdabcb57	-0.08388393
174	0x3d399af3	0.045313787
175	0x3d1b5388	0.03792146
176	0x3d34b836	0.04412099
177	0xbce740e9	-0.028229194
178	0x3ce9b3cb	0.028528115
179	0x3d96b818	0.07359332
180	0x3c9f36c2	0.01943529
181	0x3d961886	0.07328896
182	0x3c2a9f5a	0.010413969
183	0xbc62a3d8	-0.013833009
184	0xbc308d1d	-0.0107758315
185	0x3d843f83	0.064574264
186	0x3caadb6c	0.020856582
187	0xbd18ae30	-0.037275493
188	0xbb8303a0	-0.003998235
189	0xbc8a8613	-0.016909635
190	0x3cee37ec	0.0290794
191	0x3d2c9c1b	0.04214106
192	0xbd89ccae	-0.06728493
193	0xbc15a1fe	-0.00913286
194	0x3d4a33a4	0.049365655
195	0x3ce8bc76	0.028410178
196	0x3d69d6b0	0.057089508
197	0xbd4cde06	-0.050016426
198	0x3c8af272	0.01696131
199	0xbd3568f5	-0.044289548
200	0xbd6a53ab	-0.0572087
201	0xbd4ff87d	-0.050774086
202	0x3bfc091e	0.0076915165
203	0xbd5b36bb	-0.053518992
204	0xbd6594dc	-0.056050166
205	0xbb96716a	-0.0045911567
206	0xbcffdb35	-0.031232456
207	0x3d600494	0.054691866
208	0xbc5d2e8a	-0.013499865
209	0x3cd81210	0.0263758
210	0xbce5edc7	-0.028067483
211	0x3d23627d	0.039888848
212	0xbd5d885f	-0.05408513
213	0x3c153f16	0.009109279
214	0xbd7e2678	-0.062048405
215	0x3d835bd2	0.06413998
216	0xbcb8fd3d	-0.02258169
217	0xbb56a7c9	-0.0032753816
218	0x3cb6dd38	0.022322282
219	0xb85431d4	-5.0591145e-05
220	0x3d6aaf90	0.057296336
221	0x3d8f59e3	0.069995664
222	0x3c7613c0	0.015019357
223	0xbb85b298	-0.004080128
224	0x3d26a073	0.04068036
225	0xbc8279d8	-0.01592724
226	0x3c9fea3d	0.019520873
227	0xbca0cb00	-0.019628048
228	0x3d5bc1f9	0.053651784
229	0x3c18d55e	0.009328214
230	0xbc76896a	-0.0150474105
231	0x3b1e1fc8	0.002412783
232	0xbcaf6d59	-0.021414446
233	0xbca94285	-0.020661602
234	0xbc7e0be3	-0.015505764
235	0xbd3cb74a	-0.046073236
236	0xbbc18b1e	-0.0059064766
237	0xbd0024ae	-0.03128498
238	0x3d8172a9	0.06320698
239	0x3c6f5e2a	0.014609853
240	0x3c2c7c69	0.010527709
241	0x3d850294	0.06494632
242	0x3b335a13	0.002736692
243	0x3cb1f9cc	0.021725558
244	0x3bc705eb	0.0060737035
245	0x3d4a46b5	0.049383838
246	0xbb95ad91	-0.00456781
247	0xbd268b0d	-0.040659953
248	0xbd304234	-0.043031886
249	0x3cae8a7a	0.021306265
250	0xbcdce2b4	-0.02696357
251	0xbbcbc92e	-0.006219051
252	0x3d6b74da	0.057484485
253	0x3c9488f3	0.018131709
254	0xbcc3fd5a	-0.023924518
255	0x3b6268e6	0.0034547388

encoder.0.linear.bias f4 [64]
0	0xbe1cd290	-0.15314698
1	0xbe43a1f4	-0.19104749
2	0xbdf3f9bd	-0.11912868
3	0xbce32a75	-0.027730206
4	0xbdf2d73c	-0.11857459
5	0xbe23f6c0	-0.16012096
6	0xbe3b03b8	-0.18263137
7	0xbe0624dc	-0.13099998
8	0xbdd22df0	-0.10262668
9	0xbe01c0d5	-0.12671216
10	0xbd9dfba3	-0.077140115
11	0xbdd33ff0	-0.103149295
12	0xbe7833e6	-0.24238548
13	0xbe4b3344	-0.19843775
14	0xbe49bdaa	-0.19701257
15	0xbcdf4a36	-0.027257066
16	0xbe2d6c79	-0.1693591
17	0xbe7d174a	-0.24715915
18	0xbe2e6cfa	-0.17033759
19	0xbd6be373	-0.05758996
20	0xbdb4aa0f	-0.088214986
21	0xbe06b13c	-0.13153547
22	0xbe754e37	-0.23955618
23	0xbe5226f3	-0.2052267
24	0xbe1ce375	-0.15321143
25	0xbe19dc10	-0.15025353
26	0xbe2ebe61	-0.17064811
27	0xbe2eb037	-0.17059408
28	0xbdc4c656	-0.09608142
29	0xbe0163c3	-0.12635712
30	0xbe4f4227	-0.20240079
31	0xbdd80fcb	-0.10549887
32	0xbe2f495f	-0.17117833
33	0xbdc8abd5	-0.09798399
34	0xbdaaf4a6	-0.08347444
35	0xbdda4e6e	-0.106594905
36	0xbe0d6fdf	-0.13812207
37	0xbce25f02	-0.027633194
38	0xbe179711	-0.14803721
39	0xbe34c6e1	-0.17653991
40	0xbe3d60c7	-0.18493949
41	0xbe0b3f0d	-0.1359827
42	0xbdeb45b2	-0.11487903
43	0xbddce518	-0.10785884
44	0xbdf56c83	-0.119835876
45	0xbceaba13	-0.02865318
46	0xbe32a99a	-0.1744751
47	0xbdc6a59b	-0.096995555
48	0xbe0ba968	-0.13638842
49	0xbe4f9d6c	-0.20274895
50	0xbdcfafd6	-0.1014096
51	0xbd9c9b7e	-0.07646845
52	0xbe25d4e2	-0.1619449
53	0xbe3a2981	-0.18179895
54	0xbdd25e64	-0.1027191
55	0xbe26fb6a	-0.16306844
56	0xbdad69c7	-0.08467441
57	0xbe26bdb3	-0.16283302
58	0xbe075749	-0.1321689
59	0xbe251669	-0.1612183
60	0xbe00a57c	-0.12563127
61	0xbdc31f42	-0.09527446
62	0xbe295a68	-0.16538393
63	0xbda0a157	-0.07843273

encoder.1.linear.weight f4 [32, 64]
0	0x3dbd74ae	0.092507705
1	0x3e0a672a	0.13515916
2	0xbce388f4	-0.027775265
3	0xbdaf58a5	-0.085618295
4	0xbe182327	-0.1485716
5	0x3de7ef7a	0.113249734
6	0x3d4e3a1f	0.050348397
7	0xbe1dabc7	-0.15397559
8	0x3dec941f	0.11551689
9	0xbe76b833	-0.24093704
10	0xbd9e3061	-0.07724071
11	0x3e0bf5d5	0.13667996
12	0xbd89a0f6	-0.06720154
13	0x3e229f1d	0.1588101
14	0xbe72f667	-0.23726808
15	0x3ca2c02a	0.019867022
16	0xbdb22fda	-0.08700533
17	0xbc7292b3	-0.014805484
18	0xbe71b5a8	-0.23604453
19	0xbe42fa79	-0.1904086
20	0xbe042131	-0.12903287
21	0xbe052beb	-0.13005035
22	0x3e2acfc0	0.16680813
23	0xbda61638	-0.08109707
24	0xbd9a023d	-0.07519958
25	0xbe11f245	-0.14252575
26	0x3e687eb0	0.22704577
27	0x3d8f6fb3	0.07003727
28	0x3e97b64b	0.29631266
29	0x3e322829	0.17398132
30	0xbdd07aaa	-0.10179646
31	0x3d208066	0.03918495
32	0x3e1e7903	0.1547585
33	0x3e516fa2	0.20452741
34	0x3daade44	0.08343175
35	0x3b71eefb	0.0036916125
36	0xbdd924ea	-0.10602744
37	0x3d9cb1ea	0.07651122
38	0xbea4f44a	-0.32217628
39	0x3e057752	0.13033798
40	0xbe170fdb	-0.14752142
41	0xbe767de6	-0.24071464
42	0x3dfbc80e	0.12294017
43	0xbd803353	-0.06259789
44	0xbca2a23e	-0.019852754
45	0xbd71b54c	-0.05901079
46	0x3e2725ee	0.16323063
47	0xbdab28a3	-0.0835736
48	0x3d7e6000	0.06210327
49	0x3e2cbb72	0.1686838
50	0x3dca081b	0.09864827
51	0x3e109ea7	0.14123021
52	0x3d48446e	0.048893385
53	0x3c9e594c	0.01932969
54	0xbe005991	-0.12534167
55	0xbd9cf1d8	-0.076633155
56	0xbc8a352c	-0.016871057
57	0x3e0f5f2d	0.1400115
58	0xbd6f4944	-0.05841948
59	0x3d919517	0.07108515
60	0xbd9ddd93	-0.077082776
61	0x3d605036	0.054763995
62	0xbe3c5eac	-0.1839549
63	0xbcaf6dc8	-0.021414652
64	0xbd7c1b5f	-0.06154954
65	0xbdf262f9	-0.11835284
66	0xbe5f2416	-0.2179111
67	0xbd13a18e	-0.036042742
68	0xbe55dec6	-0.20885763
69	0xbe0a7e1c	-0.1352467
70	0x3d9ed8da	0.07756205
71	0x3e5f2033	0.21789627
72	0x3c33a4a7	0.010964549
73	0xbd8d2c24	-0.06893185
74	0x3df45a77	0.11931317
75	0x3d90d268	0.07071382
76	0xbdc62dcd	-0.096767046
77	0xbdebf998	-0.115222156
78	0xbdb60e26	-0.08889417
79	0x3db759b5	0.08952657
80	0xbe08c4fa	-0.1335639
81	0x3bbdd61a	0.005793345
82	0xbdd5d423	-0.104408525
83	0xbdc06b1f	-0.09395432
84	0x3df4a613	0.11945739
85	0x3d051192	0.03248746
86	0xbc8344f1	-0.016024085
87	0x3b1c16a7	0.0023817213
88	0x3b8e3d07	0.004340771
89	0x3e7dae33	0.24773483
90	0xbcea7496	-0.028620046
91	0x3e35851b	0.17726557
92	0xbcb758d4	-0.022381224
93	0x3d86eca2	0.06588103
94	0x3e7a1dd8	0.24425447
95	0xbdb82716	-0.0899183
96	0xbd7c872f	-0.06165236
97	0x3cbaf994	0.022824086
98	0x3ad5b348	0.001630404
99	0x3d957a69	0.072987385
100	0xbe088c53	-0.1333478
101	0x3a920524	0.0011140448
102	0xbdba17e2	-0.090865865
103	0x3d5b2017	0.0534974
104	0xbe8835b4	-0.26603472
105	0xbce67cda	-0.028135706
106	0xbe110b09	-0.14164366
107	0xbe38b218	-0.18036687
108	0x3de708c8	0.11280972
109	0x3d581f14	0.052764013
110	0xbe1076b4	-0.14107782
111	0xbe44b199	-0.19208373
112	0x3d8adb5c	0.06780121
113	0x3d91cf0f	0.071195714
114	0x3d8cd28e	0.068760976
115	0xbd864253	-0.06555619
116	0x3ddbe6fe	0.10737418
117	0x3de274f5	0.11057464
118	0x3dd6e561	0.10492969
119	0x3e827515	0.25479952
120	0xbd3b6f05	-0.045760173
121	0x3dac79fe	0.08421706
122	0xbdd9fecc	-0.10644302
123	0xbe806d0e	-0.25083202
124	0xbe30f73a	-0.1728181
125	0xbe38daab	-0.18052165
126	0x3ddd039b	0.10791703
127	0xbbf44559	-0.007454556
128	0xbe12d12e	-0.14337608
129	0x3e7e4e4b	0.24834554
130	0x3c84ff45	0.016235003
131	0xbe67abb3	-0.22624092
132	0x3cdb8eba	0.026801456
133	0x3dd8d370	0.105872035
134	0xbc86d5c1	-0.016459348
135	0xbdf7bcc6	-0.120965526
136	0x3d6d73e4	0.05797185
137	0x3de27bd3	0.11058774
138	0x3e503711	0.20333506
139	0xbe0bb403	-0.13642888
140	0x3da61918	0.08110255
141	0xbe0d2d27	-0.13786756
142	0xbc5b6a77	-0.013392082
143	0xbdba8123	-0.09106662
144	0xbadb8828	-0.0016748952
145	0xbded9921	-0.11601473
146	0xbe2c5ce6	-0.16832313
147	0x3d2cf20f	0.042223033
148	0xbe4e9fd1	-0.20178153
149	0xbe2afa2d	-0.16696997
150	0x3c845a09	0.016156213
151	0x3dcf566a	0.10123904
152	0x3dfd3257	0.12363117
153	0xbbe17fdb	-0.0068816966
154	0x3e99ede2	0.30064303
155	0xbe443998	-0.19162595
156	0xbe55fb98	-0.20896757
157	0xbdb0cfad	-0.08633361
158	0x3d239944	0.039941087
159	0xbc0a4ded	-0.0084414305
160	0xbe0c9648	-0.13729203
161	0x3c72eae3	0.014826509
162	0x3e1e892b	0.15482013
163	0x3db46f8b	0.08810338
164	0xbdcbe873	-0.099564455
165	0xbd973905	-0.073839225
166	0xbdd2cdfd	-0.102931954
167	0xbd730996	-0.059335314
168	0xbdf847df	-0.12123083
169	0x3da2fb88	0.07958132
170	0xbe406784	-0.18789488
171	0xbdda5af9	-0.10661883
172	0x3ebd66f0	0.36992598
173	0x3b12e57b	0.0022414613
174	0x3bab567a	0.0052288147
175	0xbe3d089d	-0.18460317
176	0xbc519dbc	-0.012793954
177	0xbe193620	-0.14962053
178	0x3e500fb5	0.20318492
179	0x3d349bd6	0.04409393
180	0x3d69fd72	0.05712647
181	0xbcc549be	-0.024083015
182	0xbd0877cb	-0.03331737
183	0xbd811b16	-0.06303994
184	0x3c437a6d	0.011931044
185	0x3dc7fb2d	0.09764705
186	0x3e9baaea	0.30403835
187	0x3dc86c64	0.09786299
188	0x3e2793f5	0.16365035
189	0xbddc033e	-0.10742806
190	0x3cbf58e1	0.02335781
191	0xbcf7f49a	-0.030268002
192	0x3d78e1e7	0.060762312
193	0xbe098dcf	-0.13433002
194	0xbd25f560	-0.04051721
195	0x3e08467e	0.1330814
196	0x3bc67fc3	0.006057711
197	0x3e5e49d5	0.21707852
198	0x3d7da024	0.0619203
199	0xbdcc8599	-0.09986419
200	0x3ccfdf60	0.025375068
201	0x3e207884	0.15670973
202	0x3ddc17f5	0.10746757
203	0x3e040d7e	0.12895772
204	0xbcd3ab71	-0.025838586
205	0xbe9afebc	-0.30272472
206	0xbdcec15b	-0.100954734
207	0xbd54e462	-0.051975615
208	0x3c699473	0.014256584
209	0xbe99ebf0	-0.3006282
210	0xbe81e360	-0.25368786
211	0xbd73d2f5	-0.059527356
212	0x3cbb0c73	0.022833085
213	0x3e162b4d	0.14664955
214	0x3d8b02ac	0.06787619
215	0x3c664b9b	0.014056112
216	0xbe962900	-0.29328156
217	0xbe8c71ff	-0.27430722
218	0xbc233fc7	-0.009963936
219	0x3dd23827	0.102646165
220	0xbe3b8316	-0.18311724
221	0x3e8a8e3e	0.27061647
222	0xbd9f8ed4	-0.07790914
223	0x3c9e495b	0.019322088
224	0xbcff752a	-0.031183798
225	0xbe81e0ad	-0.25366727
226	0x3c62a8f3	0.013834226
227	0xbe007fcc	-0.1254875
228	0x3cf16ce3	0.029470867
229	0xbe215f54	-0.15759021
230	0x3e5d2c71	0.21598984
231	0x3e8be13a	0.27320272
232	0x3e46c115	0.19409592
233	0xbe9c8377	-0.3056905
234	0xbc8bf064	-0.0170824
235	0xbe6bc967	-0.23026048
236	0xbcf59def	-0.029982535
237	0xbd2dba33	-0.0424139
238	0xbe6baf1d	-0.23016019
239	0x3cbe512c	0.023232065
240	0xbdc37745	-0.09544233
241	0x3dcce7ac	0.100051254
242	0x3c29b794	0.01035871
243	0x3dc159f2	0.09440984
244	0x3dfefde3	0.12450769
245	0xbdf2ead4	-0.11861196
246	0xbe62ae36	-0.22136769
247	0xbeaa33dc	-0.3324269
248	0x3d555b39	0.05208895
249	0x3e87f9ea	0.26557857
250	0xbe752296	-0.23938975
251	0x3dbe406c	0.09289631
252	0x3dede5d7	0.11616104
253	0x3e117fb3	0.1420887
254	0x3dff95a2	0.12479712
255	0x3de2fd51	0.110834725

encoder.1.linear.bias f4 [32]
0	0x3ccb08a9	0.024784403
1	0xbdf416ab	-0.11918386
2	0x3d3f570e	0.04671388
3	0xbd8f3e17	-0.069942646
4	0x3daeb6f0	0.08530986
5	0x3aa222ba	0.0012369968
6	0xbd3b4aa0	-0.045725465
7	0x3e09c1dd	0.13452859
8	0x3e3823a2	0.17982343
9	0xbe104e7c	-0.1409244
10	0x3bf1de75	0.0073812553
11	0xbdaf6429	-0.08564026
12	0xbe48657f	-0.19569968
13	0xbdbecd93	-0.09316554
14	0xbdb17dcb	-0.08666571
15	0xbe9d3eb3	-0.30711898
16	0xbd5664fb	-0.052342396
17	0xbe084ad7	-0.13309799
18	0xbd50dbbd	-0.05099081
19	0xbddb6458	-0.107124984
20	0xbe74f882	-0.23922923
21	0x3d4b178f	0.049583014
22	0xbd338793	-0.043830466
23	0x3e626e60	0.22112417
24	0xbe80b3a4	-0.25137055
25	0xbe1d78ad	-0.15378065
26	0xbd1a90e0	-0.03773582
27	0xbe056344	-0.13026148
28	0xbe065bcc	-0.13120955
29	0xbd223c3c	-0.039608225
30	0xbde099ae	-0.10966812
31	0xbe639433	-0.22224502

decoder.0.linear.weight f4 [64, 32]
0	0x3dad50f1	0.08462704
1	0xbe8e56b0	-0.27800512
2	0xbf1e52ff	-0.6184539
3	0xbe3e6349	-0.18592562
4	0x3d92aa40	0.07161379
5	0x3d8c58ef	0.068529
6	0x3e8ad8fc	0.2711867
7	0xbe981d05	-0.2970964
8	0x3e5d4174	0.21607
9	0x3d41993f	0.047265287
10	0x3e6742bf	0.22584055
11	0xbf2bf9eb	-0.6717822
12	0x3f1d168f	0.61362547
13	0x3d8768b5	0.06611768
14	0x3e822144	0.25416005
15	0x3f23f58d	0.64046556
16	0xbec75013	-0.3892828
17	0xbe894c08	-0.2681582
18	0x3e0b54e4	0.13606602
19	0x3de93fad	0.11389098
20	0x3e9ace97	0.3023574
21	0xbe2385f9	-0.15969075
22	0xbe57eba2	-0.2108598
23	0x3dd611d1	0.10452617
24	0x3eec47ef	0.4614863
25	0xbea4f291	-0.32216313
26	0xbe22f5d7	-0.15914093
27	0x3baffe69	0.005370904
28	0x3e4ed329	0.20197739
29	0xbe558547	-0.20851623
30	0x3e1fc874	0.1560381
31	0xbe588251	-0.21143462
32	0x3f399726	0.7249626
33	0x3e1d68fb	0.15372078
34	0x3f1b6404	0.60699487
35	0xbd98555e	-0.074381575
36	0xbe0d2709	-0.13784422
37	0xbd818be2	-0.06325509
38	0xbe732a84	-0.23746687
39	0x3e5cc5c9	0.21559824
40	0xbe36947d	-0.17830081
41	0xbe9e3f85	-0.30907837
42	0xbe9d3c2e	-0.30709976
43	0xbe7f23dc	-0.24916023
44	0x3e45ed7d	0.19328876
45	0xbe30a792	-0.17251423
46	0x3e0807df	0.13284253
47	0x3df899e9	0.12138731
48	0x3e4ad7a3	0.19808821
49	0x3e7892c7	0.24274741
50	0xbecf90e1	-0.4054022
51	0x3de5e072	0.1122445
52	0xbde91977	-0.1138181
53	0x3d8ed996	0.06975095
54	0x3e30275a	0.17202511
55	0xbe7236d3	-0.23653726
56	0xbde0639d	-0.109565
57	0xbe0d77a4	-0.1381517
58	0xbe39c661	-0.18142082
59	0x3e26e4fb	0.16298287
60	0x3eea30ac	0.4574026
61	0x3f5d9f2f	0.8657102
62	0xbe0b64d2	-0.13612679
63	0xbe1fc8f0	-0.15603995
64	0xbe280605	-0.16408546
65	0xbe9b5cac	-0.3034414
66	0x3e46093c	0.1933946
67	0xbe28642b	-0.16444461
68	0xbeaef739	-0.3417299
69	0xbef06db0	-0.46958685
70	0x3dea1dbd	0.114314534
71	0xbe605ee2	-0.21911195
72	0x3f412390	0.7544489
73	0x3e8a3e3d	0.2700061
74	0xbe9171cc	-0.28407133
75	0xbe641934	-0.22275239
76	0xbca55e7c	-0.020186655
77	0xbe64f75f	-0.2235999
78	0x3e784c80	0.24247932
79	0x3decaa8f	0.11555969
80	0x3d82ccc6	0.06386714
81	0xbea69f6c	-0.32543504
82	0x3ccc06ac	0.024905525
83	0xbec65e3e	-0.38743776
84	0x3f8428b1	1.0324918
85	0x3e83275e	0.25615972
86	0xbe257e26	-0.16161403
87	0xbf329834	-0.69763494
88	0x3f1abc22	0.6044332
89	0xbe9758c0	-0.29559898
90	0xbe0e82d9	-0.13917102
91	0xbddf1cdc	-0.10894176
92	0xbdfd7847	-0.12376457
93	0xbe9afa79	-0.3026922
94	0xbdc5f6fc	-0.09666249
95	0xbe5d6e1b	-0.21624033
96	0xbeaf2c34	-0.34213412
97	0x3c84c713	0.016208207
98	0xbeac15eb	-0.33610472
99	0x3c56e1fc	0.013115402
100	0x3f166ee1	0.5876294
101	0xbe5ee535	-0.21767123
102	0xbdf67401	-0.12033845
103	0xbe868434	-0.26272738
104	0xbe13bf07	-0.1442834
105	0xbdb2f3b0	-0.08737886
106	0xbe2dcdde	-0.16973063
107	0xbdc41fba	-0.09576364
108	0xbd0d1d5d	-0.03445183
109	0x3bf8a3ff	0.007587909
110	0xbd845695	-0.06461827
111	0xbd3f019d	-0.046632398
112	0xbdb179a0	-0.08665776
113	0xbdd1b382	-0.102393165
114	0xbd057523	-0.032582413
115	0x3d948df9	0.07253642
116	0xbe2690e1	-0.16266204
117	0x3d9b2354	0.07575098
118	0x3e38afc6	0.18035802
119	0x3e7e227a	0.2481784
120	0xbda808fb	-0.08204838
121	0xbe22fd90	-0.15917039
122	0x3e98cd72	0.29844242
123	0xbdbc312f	-0.091890685
124	0xbd3aa9de	-0.045572154
125	0xbcb935e2	-0.022608701
126	0x3e702c5f	0.23454426
127	0x3e3b6e16	0.18303713
128	0xbe0c7e97	-0.13720165
129	0xbe7604ff	-0.24025343
130	0xbe4ea98a	-0.20181862
131	0xbe69e147	-0.22839843
132	0xbe44e143	-0.19226556
133	0xbe102fae	-0.14080688
134	0xbef28647	-0.4736807
135	0xbe37fc63	-0.17967372
136	0x3f2f7fbb	0.68554276
137	0xbe414259	-0.18872966
138	0xbe826a6a	-0.25471812
139	0x3dd40fd9	0.10354585
140	0x3e3c8d4f	0.1841328
141	0x3d7c9f35	0.06167527
142	0x3e21adea	0.15788999
143	0x3d71556f	0.058919366
144	0x3e73d584	0.23811918
145	0xbe720467	-0.23634492
146	0xbd2a7b5d	-0.041621555
147	0xbe9f4240	-0.31105232
148	0x3ef659d6	0.48115414
149	0xbe3ad833	-0.18246536
150	0xbde30e3f	-0.110867016
151	0xbe4440b7	-0.19165312
152	0x3f1587ea	0.58410513
153	0x3ea91f4a	0.33031684
154	0xbd6af398	-0.057361215
155	0xbe55ef1a	-0.20891991
156	0xbe12579b	-0.14291231
157	0xbe21d683	-0.15804486
158	0x3e0596ec	0.13045853
159	0xbe08f9b7	-0.13376509
160	0x3e08409c	0.13305897
161	0xbd808fde	-0.062774405
162	0xbd1cda60	-0.038294196
163	0xbd2e8f84	-0.042617336
164	0xbd0e57f4	-0.034751847
165	0x3daa14dd	0.083047606
166	0x3f0276a1	0.50962263
167	0x3d84a093	0.064759396
168	0x3dda1a84	0.10649589
169	0x3db4a50a	0.08820541
170	0xbe253e58	-0.16137064
171	0xbd775ce8	-0.060391337
172	0xbbdfe0f6	-0.0068322374
173	0xbe27fb47	-0.16404448
174	0x3e186cba	0.14885226
175	0xbcfb0572	-0.030642245
176	0x3ec4b503	0.3841935
177	0xbda4f99d	-0.080554225
178	0x3e5cc251	0.21558501
179	0xbe8eb861	-0.27875045
180	0x3cd2e936	0.02574597
181	0x3df8d6f3	0.12150373
182	0xbd8d8431	-0.06909979
183	0x3d9dca40	0.07704592
184	0x3d7e6c46	0.062114976
185	0x3e987fb9	0.29784945
186	0xbd84580b	-0.06462105
187	0xbd9cc558	-0.07654828
188	0x3e9204a1	0.28519157
189	0xbdb1cb64	-0.08681372
190	0xbd05e2d4	-0.032687023
191	0xbd194064	-0.037414923
192	0x3f0f5fb7	0.56005424
193	0x3c81890a	0.015812416
194	0x3e81c123	0.25342664
195	0xbe9704c8	-0.29495835
196	0x3d8537a9	0.06504757
197	0x3d49ef5e	0.049300544
198	0x3e39c27e	0.18140599
199	0x3e538a93	0.2065833
200	0xbdd4bd59	-0.10387678
201	0xbe8da985	-0.27668396
202	0xbe2be89f	-0.16787957
203	0xbea99837	-0.33123943
204	0x3d346ec0	0.044050932
205	0xbe1e99a6	-0.154883
206	0xbdb1fe3b	-0.08691069
207	0x3c1b2577	0.0094693815
208	0xbda5c70f	-0.08094608
209	0x3d473615	0.04863556
210	0x3dffac57	0.12484043
211	0x3e0c52c3	0.13703446
212	0xbca9f8e9	-0.020748572
213	0xbe1d4942	-0.15359977
214	0x3e6dde87	0.23229419
215	0xbe1c54f8	-0.15266788
216	0xbc80aa08	-0.015706077
217	0x3db699f9	0.08916087
218	0xbe1debac	-0.15421933
219	0x3d9cab0d	0.07649813
220	0x3ed300cd	0.41211548
221	0x3f2fe167	0.6870331
222	0xbd604582	-0.054753788
223	0xbe6bfa51	-0.23044707
224	0xbf0a21f1	-0.5395804
225	0x3f0d4aaf	0.55192083
226	0xbee4d29c	-0.44691932
227	0xbe108c56	-0.14116034
228	0xbe9f236e	-0.31081718
229	0xbdf9989f	-0.12187313
230	0x3d910446	0.07080893
231	0x3e08dc0d	0.13365193
232	0xbe493862	-0.19650415
233	0x3f017b1a	0.50578463
234	0xbe0dc06c	-0.13842934
235	0x3ec4fa76	0.38472337
236	0xbe0fab38	-0.14030159
237	0x3e29820d	0.16553517
238	0xbe1e5c8f	-0.15464996
239	0x3e15777b	0.1459636
240	0xbe39a452	-0.1812909
241	0x3f4ee868	0.80823374
242	0x3ea31da0	0.3185854
243	0x3dc0dcee	0.09417139
244	0xbe0586b1	-0.13039662
245	0xbe4496e3	-0.19198184
246	0xbe8bca83	-0.27302942
247	0xbd7b5548	-0.061360627
248	0xbe1cb56f	-0.15303586
249	0x3e4caa53	0.19986849
250	0x3bb734ce	0.0055910116
251	0xbe24b5c0	-0.16084957
252	0x3d5ed01b	0.054397684
253	0xbda5b9a6	-0.0809205
254	0x3ebbcd66	0.36680144
255	0xbdca150e	-0.09867297

decoder.0.linear.bias f4 [64]
0	0x3e67ff2d	0.22655936
1	0x3d932f65	0.07186774
2	0x3ebd74de	0.37003225
3	0x3ecb2a5c	0.39680755
4	0x3e5c09d8	0.2148813
5	0x3e54027c	0.20704073
6	0x3e191c48	0.14952195
7	0x3e376c84	0.17912489
8	0x3e8715fa	0.26383954
9	0x3ecf8209	0.40528896
10	0x3ed42457	0.41433975
11	0x3e6a987a	0.22909728
12	0x3e45d810	0.19320703
13	0x3da31bc0	0.07964277
14	0x3e8bd4e6	0.27310866
15	0x3e0380dd	0.12842126
16	0x3d053d24	0.03252901
17	0x3d48b515	0.04900082
18	0x3e79cc3d	0.24394317
19	0x3e7bd283	0.24592023
20	0x3eadcc59	0.33944967
21	0x3eec657c	0.46171176
22	0x3e6b4b34	0.22977906
23	0x3e0d9bf9	0.1382903
24	0x3e94c7fd	0.2905883
25	0x3e10dc1a	0.14146462
26	0x3eba625a	0.3640316
27	0x3e5b9d9d	0.21446843
28	0x3e9807ce	0.29693455
29	0x3eb8663d	0.36015502
30	0xbd86d05b	-0.065827094
31	0x3e30b638	0.17257011
32	0x3e208f8c	0.15679759
33	0x3e03795f	0.12839268
34	0x3e0c7555	0.13716634
35	0x3e8eda2d	0.2790083
36	0x3e7e3952	0.24826553
37	0x3e967ae3	0.2939063
38	0x3e19b5ed	0.15010805
39	0x3dc955e6	0.09830837
40	0x3e0c06da	0.13674489
41	0x3e4869ed	0.19571657
42	0x3e77d9d1	0.24204184
43	0x3e83dfe0	0.2575674
44	0x3e883942	0.26606184
45	0x3eeb329b	0.45937046
46	0x3e43421c	0.19068187
47	0x3e6b3ca7	0.22972356
48	0x3e8181e8	0.25294423
49	0x3d8a6d4b	0.06759127
50	0x3e8cd82c	0.27508676
51	0x3e84970a	0.25896484
52	0x3dbbd8c0	0.09172201
53	0x3e4485dc	0.19191688
54	0x3e9eaba7	0.30990335
55	0x3e8205e9	0.25395134
56	0x3ebe3143	0.3714696
57	0x3e82b9c0	0.2553234
58	0x3e1c35d6	0.15254912
59	0x3e4539ac	0.19260281
60	0x3e2ebdbc	0.17064565
61	0x3ec177b0	0.37786627
62	0x3e619670	0.22030044
63	0x3e51ce16	0.20488772

decoder.1.linear.weight f4 [1000, 64]
0	0x3b0013c7	0.0019543038
1	0x3df17427	0.117897324
2	0xbc1fb483	-0.009747627
3	0x3b86cb87	0.004113618
4	0x3ce69cee	0.028151002
5	0xbd6ad648	-0.05733326
6	0x3e6697d1	0.22518851
7	0x3c8eadef	0.017416922
8	0xbd1d1ebc	-0.03835939
9	0x3ba642a0	0.0050738603
10	0xbe05cc15	-0.13066132
11	0xbc98c113	-0.018646752
12	0xba0860c6	-0.00052024086
13	0xbb9647c1	-0.0045861905
14	0x3c1a3560	0.00941214
15	0xbd45460f	-0.048162516
16	0xbd48b5da	-0.049001552
17	0x3cc6ca1f	0.0242663
18	0xbb011375	-0.0019695435
19	0x3d09f668	0.033682257
20	0xbd283c16	-0.041072927
21	0x3d177362	0.036975272
22	0x3b0d75f2	0.0021585193
23	0xbc486b6f	-0.012232645
24	0xbcc16ea4	-0.023612328
25	0xbd4d8ef3	-0.050185155
26	0xbc967e14	-0.018370666
27	0x3bb3d694	0.005488226
28	0xbd42a8a1	-0.0475241
29	0xbc89885e	-0.016788658
30	0xbd13b7d5	-0.036063988
31	0x3d4311ce	0.0476244
32	0xbb88ebab	-0.0041784844
33	0x3dd8f16d	0.10592923
34	0x3d5093cf	0.05092221
35	0xbc21cd03	-0.009875539
36	0x3d944b2b	0.072409
37	0x3d1c972e	0.038230114
38	0x3d030098	0.031982988
39	0x3d80ec89	0.062951155
40	0x3aa3f223	0.0012508075
41	0xbbaebf77	-0.005332883
42	0x3c6630c1	0.01404971
43	0xbc16ccb7	-0.009204081
44	0x3d679386	0.056537174
45	0xbd83e11f	-0.06439423
46	0x3bbc0ce9	0.0057388437
47	0xbcadfedf	-0.021239696
48	0xbd73fb1c	-0.05956565
49	0xbcf70613	-0.030154264
50	0x3ba0bf29	0.0049056006
51	0xbbde3a7e	-0.006781875
52	0x3c594d03	0.01326299
53	0x3bdc33ce	0.006720043
54	0x3c77274d	0.015085054
55	0x3c963b44	0.018338807
56	0xbcbc71f5	-0.023003558
57	0xbc79960e	-0.01523353
58	0xbb35c71f	-0.0027737094
59	0xbd30bf3e	-0.043151133
60	0x3a8ced0d	0.0010751799
61	0xbc839433	-0.016061878
62	0x3cd60d6c	0.026129447
63	0x3c0f67f4	0.008752812
64	0x3ad86263	0.0016508814
65	0x3e891da7	0.26780435
66	0x3db416af	0.08793389
67	0xbd84465e	-0.06458734
68	0x3c0309f0	0.007997975
69	0x3c473a77	0.012159935
70	0x3e0ad2d7	0.13556992
71	0xbdb1afc7	-0.08676105
72	0xbd2131dc	-0.03935419
73	0xbd530147	-0.05151489
74	0xbd58898b	-0.052865546
75	0x3d5b9272	0.053606458
76	0xbc46f3d6	-0.012143096
77	0xbd180e19	-0.03712282
78	0x3bc875c0	0.0061175525
79	0xbd639ffa	-0.055572487
80	0xbd27993d	-0.040917624
81	0x3cb5aa2c	0.02217587
82	0x3cd4be40	0.025969625
83	0xbc1de3a4	-0.009636793
84	0x3d6bfcf8	0.057614297
85	0x3acc49d5	0.0015585969
86	0xbc010352	-0.007874327
87	0x3c607a74	0.01370107
88	0xbc66686f	-0.014062985
89	0xbcbffd8e	-0.023436334
90	0xbd637ace	-0.055537038
91	0x3cb1bdad	0.02169689
92	0xbcd3244e	-0.025774147
93	0x3c05471b	0.008134629
94	0x3ce0b711	0.027431043
95	0xbd49b7f7	-0.04924771
96	0xbd276455	-0.04086717
97	0x3ddd7bbc	0.10814616
98	0x3e23b58f	0.15987228
99	0x3de060f3	0.109559916
100	0xbda0528c	-0.078282446
101	0xbb8e1b2e	-0.004336736
102	0x3b808a61	0.003922746
103	0x3d446ead	0.04795711
104	0xbd2a5d09	-0.04159263
105	0x3d9afa4d	0.07567272
106	0xbccb2e12	-0.024802241
107	0x3d2beabe	0.041971914
108	0xb9bd2062	-0.00036073016
109	0x3c20be4e	0.009810997
110	0x3d6c2b1b	0.057658296
111	0xbc4b9d4f	-0.012427642
112	0x3d4fadfd	0.050703038
113	0x3da080c6	0.078370616
114	0xbc97cdba	-0.018530715
115	0x3af94514	0.0019017779
116	0xbccc3747	-0.024928702
117	0xbb4da802	-0.0031380658
118	0xbe20a5cb	-0.15688245
119	0x3dc2130a	0.09476288
120	0xbd8005b2	-0.06251086
121	0xbd3d3963	-0.046197306
122	0xbd85bdab	-0.06530317
123	0x3c8acf88	0.016944662
124	0xbd122fc4	-0.035690084
125	0xbdc898b8	-0.09794754
126	0xbc8facaf	-0.017538397
127	0x3de169e1	0.11006523
128	0xbbd9927e	-0.0066397777
129	0xbb8e4440	-0.004341632
130	0x3e3452b6	0.17609677
131	0xbd89c4b6	-0.06726973
132	0x3e0b3b3c	0.13596815
133	0x3cf2254b	0.029558798
134	0x3d5d0013	0.05395515
135	0xb9362620	-0.00017371075
136	0x3d370ece	0.044691853
137	0x3d2acb61	0.041697863
138	0xbd1bc262	-0.038027175
139	0x3bed672d	0.0072449655
140	0x3d0f4157	0.034974422
141	0x3c8d23fb	0.01722907
142	0x3d9921c9	0.07477147
143	0x3d538671	0.051641885
144	0x3b93f76b	0.0045155785
145	0x3dc99864	0.09843519
146	0xbdab6ea7	-0.08370715
147	0x3c26b4e5	0.010174965
148	0x3ccbacb9	0.024862634
149	0xbd3cef3b	-0.046126585
150	0xbc1c6e6f	-0.009547814
151	0x3d002b49	0.03129128
152	0xbc28e3f7	-0.010308257
153	0xbca1b53e	-0.019739743
154	0x3d37a7ad	0.044837642
155	0xbcd52f7e	-0.026023623
156	0xbc33e3aa	-0.010979572
157	0xbc991103	-0.01868487
158	0xbd8e9343	-0.06961682
159	0xbde1bafe	-0.11021994
160	0xbc01a21b	-0.007912184
161	0x3b61bfcd	0.0034446598
162	0xbc939397	-0.018014712
163	0xb9243f10	-0.00015663751
164	0x3c6b0b55	0.0143459635
165	0x3bf4dcd2	0.007472613
166	0xbb191c82	-0.002336294
167	0xbac290d7	-0.0014844191
168	0x3bab9652	0.0052364254
169	0x3ded8d8b	0.11599263
170	0x3ce5c05b	0.028045824
171	0x3cf165a5	0.029467413
172	0x3bd0f0a6	0.006376344
173	0x3bbc7cfd	0.0057522045
174	0xbc26a2d7	-0.01017066
175	0xbd426c38	-0.047466487
176	0x3c9eaa98	0.019368455
177	0x3dc2c633	0.0951046
178	0xbcb9535f	-0.022622762
179	0xbc10d274	-0.008839238
180	0xbd05fc37	-0.032711234
181	0xbcacb4f6	-0.021082383
182	0xbc85065f	-0.01623839
183	0xbc8b89b8	-0.017033443
184	0xbd7228f6	-0.059121095
185	0xb9385e03	-0.0001758263
186	0xbd156f8f	-0.036483344
187	0x3d5c8e5b	0.0538467
188	0xbadb59e6	-0.0016735166
189	0xbc1c4df2	-0.009540068
190	0x3d025ec9	0.031828675
191	0xbd741130	-0.059586704
192	0x3d2fc72f	0.042914566
193	0xbd3213ce	-0.04347592
194	0x3cc60a86	0.02417494
195	0xbd95975a	-0.07304259
196	0x3dbd6376	0.09247486
197	0x3cb8c6cb	0.02255573
198	0xbd20c9db	-0.039255004
199	0xbbf48f99	-0.0074634072
200	0xbd02b16b	-0.03190748
201	0xbc080055	-0.00830086
202	0x3d1297c9	0.035789285
203	0xbbda1ba3	-0.0066561266
204	0xbc184f94	-0.009296317
205	0x3da20a8c	0.07912168
206	0x3d2eca7a	0.042673565
207	0xbdb62f59	-0.088957496
208	0x3d46686c	0.04843943
209	0x3bb3db72	0.0054888064
210	0x3d0992d9	0.03358731
211	0xbe126e52	-0.14299896
212	0x3d7d05ea	0.06177322
213	0x3cdc7d43	0.026915198
214	0x3d82c878	0.06385893
215	0x3d04b67a	0.032400586
216	0x3bb6e8e3	0.0055819615
217	0x3c7b6026	0.015342748
218	0x3d7e79bf	0.062127825
219	0x3c6f812f	0.014618202
220	0xbdb8b0b4	-0.090180784
221	0xbd0b28d3	-0.03397448
222	0x3c50aaa8	0.012736
223	0xbdd39636	-0.10331385
224	0x3d26a510	0.04068476
225	0x3c955cfa	0.018232811
226	0xbda47506	-0.08030133
227	0xbb18b0de	-0.002329878
228	0xbd23c4ea	-0.039982714
229	0x3c8d7213	0.017266309
230	0x3de7b6d1	0.11314166
231	0x3d7ac26a	0.061220564
232	0x3d178008	0.036987334
233	0x3cc11849	0.02357115
234	0x3d8aed20	0.06783509
235	0x3d7f9106	0.062394165
236	0xbb15cdd4	-0.0022858279
237	0x3b372c8a	0.0027950131
238	0xbd8f0e16	-0.069851086
239	0x3de1a168	0.11017114
240	0x3cffec63	0.031240648
241	0xbd3988f0	-0.04529661
242	0x3ca1f8c8	0.019771948
243	0xbd5f1812	-0.054466315
244	0x3c327d05	0.010894065
245	0x3d953647	0.07285743
246	0xbcba78f3	-0.022762751
247	0x3d994e41	0.07485629
248	0x3c91cf90	0.017799169
249	0xbcd4e124	-0.025986262
250	0x3d547492	0.051868983
251	0xbd2e266c	-0.04251711
252	0xbcdf5830	-0.02726373
253	0xbd048dee	-0.032361917
254	0x3c12da0c	0.008963119
255	0xbcf7c12c	-0.030243479

decoder.1.linear.bias f4 [1000]
0	0xbc42c20e	-0.011887087
1	0xbd041ba8	-0.032252938
2	0xbcf6d696	-0.03013162
3	0xbae03d44	-0.0017108102
4	0xbcd4642e	-0.025926676
5	0xbcd5a0ba	-0.026077617
6	0xbc7722ca	-0.015083978
7	0xbd4d040b	-0.050052684
8	0x3bf6bc89	0.0075297994
9	0x3bb55e42	0.005534918
10	0xbcadf6fd	-0.021235937
11	0xbb6fc088	-0.0036583263
12	0xbd06fd01	-0.032956127
13	0x3bae974e	0.0053280955
14	0xbc34a58d	-0.0110257985
15	0xbd1f1a3d	-0.038843382
16	0xbb5faf9b	-0.0034131769
17	0x3c26ac28	0.010172881
18	0xbc63d23e	-0.013905106
19	0xbccac60f	-0.024752645
20	0xbabaafe2	-0.0014243091
21	0xbd66fb87	-0.05639222
22	0xbd08cb63	-0.03339709
23	0xb8e7f1c5	-0.000110599714
24	0xbbed04c5	-0.0072332346
25	0xbb803ab2	-0.003913247
26	0xbcfeb891	-0.031093867
27	0xbd01baed	-0.031672407
28	0xbc24cc28	-0.01005844
29	0xbc7d2e9c	-0.015453007
30	0xbd184524	-0.037175313
31	0xbba94350	-0.005165495
32	0xbd06edb6	-0.032941543
33	0xbd0d1da5	-0.0344521
34	0xbcffb1e3	-0.031212753
35	0xbd5d4655	-0.054022152
36	0xbcb1c6bc	-0.02170121
37	0xbd3aae4f	-0.04557639
38	0xbbc657eb	-0.006052961
39	0x3be7e200	0.007076502
40	0xbd3dee8a	-0.046370067
41	0xbca55ce2	-0.020185892
42	0xbc4828f3	-0.012216794
43	0xb9639f1e	-0.00021707683
44	0xbc83fa6f	-0.016110627
45	0xbb8fd897	-0.004389833
46	0xbc54b543	-0.012982669
47	0xbb78f208	-0.0037986059
48	0xbcc86038	-0.024459943
49	0xb9bff6c3	-0.0003661421
50	0xbc87ecbc	-0.016592376
51	0xbd10098f	-0.035165366
52	0xbd371d0b	-0.044705432
53	0x3a2388d7	0.0006238347
54	0xbc99bad9	-0.018765854
55	0xbd4f4b44	-0.05060889
56	0xbd21022e	-0.03930872
57	0xbd44ffe7	-0.04809561
58	0x3d2dacd2	0.042401142
59	0xbd00dd92	-0.031461306
60	0x3b1e9307	0.0024196522
61	0xbbed0489	-0.0072332066
62	0xbb5149f3	-0.0031934946
63	0xbc2287a7	-0.009920037
64	0xbd254957	-0.040353145
65	0xbcd461a2	-0.025925461
66	0x3b94ff36	0.004547025
67	0xbd14c3b7	-0.03631946
68	0x3b778d42	0.0037773405
69	0xbd1fdf1f	-0.039031144
70	0xbc32734b	-0.010891746
71	0xbd061c5f	-0.0327419
72	0x3d1357af	0.035972293
73	0xbbcc5211	-0.006235369
74	0xbc48b1dd	-0.012249437
75	0xbcb8ebf5	-0.02257345
76	0xbd5f7e7b	-0.05456398
77	0x3c7d1c53	0.015448648
78	0xb926d4c6	-0.00015910258
79	0x3bd7af04	0.006582143
80	0xbd113546	-0.035451196
81	0xbd78237e	-0.060580723
82	0xbb2c8865	-0.0026326415
83	0xbc726455	-0.014794429
84	0xbc6f192d	-0.014593405
85	0x3d5d464f	0.05402213
86	0x3d612e78	0.054975957
87	0x3d26641d	0.04062282
88	0xbc40f857	-0.011777959
89	0xbd1e3fdc	-0.03863512
90	0xbca0bca5	-0.019621203
91	0xbc6fbc75	-0.014632334
92	0x3c144182	0.009048821
93	0xbc9b93b5	-0.01899133
94	0xbcd68ee7	-0.026191188
95	0xbcd592f8	-0.026071057
96	0xbcdb89f8	-0.026799187
97	0xbc81391b	-0.0157743
98	0x3b4f5761	0.0031637775
99	0x3cb6aca8	0.022299126
100	0xbc9f7366	-0.019464206
101	0xbd0597da	-0.03261552
102	0x3cc56c29	0.024099426
103	0xbcdbc7a4	-0.026828595
104	0xbcca1d1f	-0.02467209
105	0xbc5e3920	-0.013563424
106	0x3c9f7fe1	0.019470157
107	0xbceab895	-0.028652469
108	0xb85127e7	-4.9866645e-05
109	0xbc00cab2	-0.007860826
110	0xbd260b6d	-0.04053824
111	0xbc4c1587	-0.012456304
112	0xbca08cd1	-0.019598396
113	0xbc9f1e55	-0.019423643
114	0xbc9ae6b5	-0.018908838
115	0xbc96bae0	-0.018399656
116	0xbc9225ec	-0.017840348
117	0xbd18f144	-0.037339464
118	0xbcfe86e2	-0.031070177
119	0xbcc0a150	-0.02351442
120	0x3cba1790	0.022716314
121	0xbcc6bd3b	-0.024260154
122	0xbd208142	-0.03918577
123	0x3ce09c7c	0.027418368
124	0xbcd43b2e	-0.025907125
125	0xbd27531c	-0.040850744
126	0x3ccb1651	0.024790915
127	0x3b909505	0.0044122958
128	0xbcc3817c	-0.023865454
129	0xbcd6f69a	-0.026240636
130	0x3b4b7661	0.00310459
131	0x3c0e1327	0.008671558
132	0xbd235e10	-0.039884627
133	0xbb2a59ce	-0.002599347
134	0xbb2f8592	-0.0026782495
135	0x3d17aade	0.037028186
136	0x3c9599a2	0.018261734
137	0xbce00590	-0.027346402
138	0xba8a43cf	-0.0010548773
139	0xbd34ef5f	-0.044173595
140	0xbbaada22	-0.0052139917
141	0xbb0a5d17	-0.0021112615
142	0xbc39b5cd	-0.011334849
143	0xbc70f3a5	-0.014706527
144	0x3cee7ba6	0.029111695
145	0xbd0f1cc7	-0.034939554
146	0xbca686d7	-0.020327969
147	0xbc8723a1	-0.016496481
148	0xbcbae173	-0.02281258
149	0xbbb17295	-0.0054152706
150	0xbbab3ad7	-0.00522552
151	0xbd66bad8	-0.05633053
152	0x3cc58225	0.02410991
153	0x3cc76d1b	0.024344018
154	0x3c884da4	0.016638584
155	0x3d18cbcc	0.03730373
156	0xbba632b0	-0.0050719604
157	0xbce3416f	-0.027741162
158	0xbc8340e2	-0.01602215
159	0x3cf2993a	0.02961408
160	0xbb2f6cd3	-0.0026767745
161	0xbc3d0d8f	-0.011538877
162	0xbbbda62a	-0.0057876306
163	0x3bbf1038	0.005830791
164	0xbcdb69f2	-0.026783917
165	0xbcbcb2c6	-0.023034465
166	0xbd194e8a	-0.037428416
167	0x383b88ad	4.4711564e-05
168	0xbc2d5fdb	-0.010581936
169	0xbcc56c3f	-0.024099467
170	0xbb8dffed	-0.0043334872
171	0xbc0c863c	-0.008576926
172	0xbb4cb010	-0.003123287
173	0xbc8588fa	-0.016300667
174	0xbd02a840	-0.031898737
175	0xb99f5baa	-0.00030395138
176	0xbcb8e7b1	-0.022571417
177	0xbba0d5b5	-0.0049082884
178	0x3cff6081	0.031173946
179	0xbc4f55b5	-0.0126547115
180	0x3bc8be48	0.006126199
181	0xbca20e2a	-0.019782145
182	0xbd0d4a78	-0.034494847
183	0x3bbafaea	0.005706181
184	0xbd467246	-0.048448823
185	0xbce4f00e	-0.027946498
186	0xbc5943a3	-0.013260755
187	0xbc81c714	-0.015841998
188	0xbd9fb980	-0.07799053
189	0xbd4bc49e	-0.049748056
190	0xbc77b28d	-0.015118253
191	0xbd3223f4	-0.04349132
192	0xbd07d749	-0.033164296
193	0x3b22505b	0.0024767134
194	0x3cf8c6e3	0.030368274
195	0xbc5f2683	-0.013620022
196	0xbd057ebf	-0.032591578
197	0xbc911fc5	-0.017715344
198	0xbd05d685	-0.032675285
199	0x3b9f81db	0.004867775
200	0xbd0517e6	-0.032493494
201	0xbadef8d4	-0.0017011412
202	0xbc9495d3	-0.018137848
203	0xbd415d79	-0.047208283
204	0xbd172980	-0.03690481
205	0xbc8096a1	-0.015696825
206	0xbd4f3b13	-0.050593447
207	0xbcbd590c	-0.02311375
208	0xbb5725ff	-0.0032829044
209	0xbd3d5a6b	-0.046228807
210	0xbd04f47b	-0.032459717
211	0xbd1fe265	-0.039034266
212	0xbc24c882	-0.01005757
213	0xbc14127f	-0.009037613
214	0xbcf13b35	-0.029447177
215	0xbc0e9e63	-0.0087047545
216	0xba4c4b45	-0.00077931985
217	0x3b480839	0.003052248
218	0xbbb89ca5	-0.005633908
219	0x3ad034f1	0.0015884918
220	0xbcb540d1	-0.022125633
221	0xbcd6a5a9	-0.02620204
222	0xbd2c6c3d	-0.04209541
223	0xbc1c025b	-0.009522046
224	0xbce17fa8	-0.027526692
225	0xbc154df3	-0.009112823
226	0xbbc8f29b	-0.0061324365
227	0x3c81a34b	0.015824934
228	0x3c2ab32f	0.010418697
229	0x3d23251b	0.03983031
230	0xbd0add38	-0.033902377
231	0xbca72f34	-0.02040825
232	0xbbb3b574	-0.0054842774
233	0x3b3c666d	0.0028747574
234	0xbc5dbb57	-0.013533435
235	0xbcab1362	-0.020883266
236	0x3d144718	0.036200613
237	0xbd00568e	-0.031332545
238	0x3caa4762	0.020785991
239	0x3d6b7337	0.057482924
240	0x3bfbd117	0.0076848376
241	0xbd5c5caf	-0.053799327
242	0xbb430983	-0.0029760308
243	0xbbc01a4a	-0.005862509
244	0xbbd750ab	-0.0065708957
245	0x3ca01b35	0.019544223
246	0xbbd237b7	-0.006415333
247	0xbd1f7310	-0.03892809
248	0x386bb6bd	5.6198554e-05
249	0xbcbf0bb8	-0.023321018
250	0xbc585497	-0.013203762
251	0xbd0f984b	-0.035057347
252	0x3cc99a63	0.02460975
253	0xbc8ff4a3	-0.017572707
254	0x3c77b1d7	0.015118084
255	0xbc704649	-0.014665195
