run_dataset/paul15_result/dec_weight.pth (torch, 267995 bytes, 5 tensors)

encoder.0.linear.weight f4 [64, 1000]
0	0xbd37be8e	-0.04485946
1	0x3d3d825c	0.0462669
2	0x3a2882ad	0.00064281636
3	0x3c491637	0.012273363
4	0xbd277595	-0.04088362
5	0x3c7e0edd	0.015506473
6	0x3d3c76e6	0.046011828
7	0x3cb8532d	0.022500599
8	0x3d2d069f	0.042242642
9	0x3d365d33	0.044522475
10	0x3c373b08	0.011183508
11	0x3c6e8615	0.014558335
12	0x3c90f875	0.017696599
13	0x3cb4874e	0.022037175
14	0xbd248c47	-0.04017284
15	0xbca3ad23	-0.019980019
16	0x3d438441	0.04773355
17	0x3d0cbce9	0.034359846
18	0xbce69860	-0.02814883
19	0x3bb513da	0.005526048
20	0x3cec8ec1	0.028876664
21	0xbc886526	-0.016649794
22	0xbc86540a	-0.016397495
23	0x3d52046f	0.05127376
24	0x3c98b3f9	0.018640505
25	0x3d67783c	0.05651115
26	0x3cb94647	0.022616519
27	0xbb301987	-0.0026870684
28	0xbc953930	-0.018215746
29	0x3cef92d4	0.029244818
30	0x3c93f315	0.018060246
31	0x3cdce5ec	0.026965104
32	0xba23d859	-0.0006250195
33	0x3ccf5296	0.025307935
34	0x3d53b457	0.051685657
35	0xbc16860b	-0.009187232
36	0x3bbcf920	0.0057670027
37	0x3d7570c4	0.059921995
38	0x3d2f3e87	0.04278424
39	0x3cd35842	0.02579892
40	0xbbb0ffb3	-0.0054015755
41	0x3d723ef5	0.05914207
42	0xbd1b2f0f	-0.037886675
43	0x3d3b2626	0.045690678
44	0x3c73327f	0.014843582
45	0xbc890794	-0.016727246
46	0xbcf3d263	-0.029763406
47	0x3d58f224	0.0529653
48	0x3c5eda2b	0.01360182
49	0xbc95db16	-0.018292945
50	0xbd2fdc19	-0.04293451
51	0x3d03719d	0.032090772
52	0xbc753c80	-0.014968038
53	0xbd5fcacb	-0.054636758
54	0x3d19c055	0.037536938
55	0x3d769b8b	0.06020693
56	0xbc607fb1	-0.013702319
57	0xbcca11d8	-0.024666712
58	0xbd79bf87	-0.06097367
59	0xbd645b64	-0.05575122
60	0xbc92db0f	-0.01792672
61	0xbb93f02b	-0.0045147142
62	0x3d4d6300	0.050143242
63	0x3d018fa7	0.03163114
64	0x3db670c6	0.089082286
65	0x3d46b25d	0.048509944
66	0xbd45c723	-0.048285615
67	0xbbb0ab02	-0.0053914795
68	0xbd4c2d27	-0.049847748
69	0x3d0ddb0f	0.03463274
70	0x3cad44dd	0.021151
71	0xbc7f9556	-0.015599569
72	0xbcfe90c4	-0.031074889
73	0x3c91912e	0.017769422
74	0x3c9c6b5b	0.01909416
75	0xbd84131c	-0.06448957
76	0xbd0c609c	-0.03427182
77	0xbc50dd1d	-0.01274803
78	0xbb298057	-0.002586385
79	0xbcc3f43b	-0.02392017
80	0x3c55298f	0.013010397
81	0x3d1cdea5	0.038298268
82	0x3c992811	0.018695863
83	0xbd39e426	-0.045383595
84	0x3cf43c90	0.029814035
85	0xbb937e7f	-0.0045011635
86	0x3a7853d3	0.000947294
87	0xbd5845c4	-0.05280091
88	0x3b90a4f0	0.0044141933
89	0x3d3a0fe1	0.0454253
90	0x3b268666	0.0025409698
91	0x3d3768fb	0.04477785
92	0x3cf260dc	0.029587202
93	0x3c97b036	0.018516641
94	0xbd0f3c1c	-0.034969434
95	0xbd03b183	-0.03215171
96	0xbd22bc1a	-0.03973017
97	0x3ca4c93d	0.02011549
98	0xbd015b3a	-0.03158114
99	0x3c834ef8	0.016028866
100	0xbd242794	-0.040076807
101	0x3d8aa22f	0.06769215
102	0xbd0f4ec2	-0.03498722
103	0xbd0de574	-0.03464265
104	0x3d7a702f	0.061142143
105	0x3c45bf2e	0.012069507
106	0xbd7433dd	-0.059619773
107	0x3c392a74	0.0113016255
108	0x3d272db3	0.040815067
109	0x3bca3582	0.0061709294
110	0xbba07c5d	-0.0048976378
111	0xbcc4294d	-0.023945475
112	0xbd0c3f40	-0.034240007
113	0x3d55f6e2	0.0522374
114	0x3c8526f3	0.016253924
115	0xbca0c2de	-0.01962417
116	0xbc2a5214	-0.0103955455
117	0xbce47fe7	-0.02789302
118	0xbcdf01a2	-0.027222458
119	0x3d32f04f	0.043686207
120	0x3d57a0b0	0.052643478
121	0x3d03c2b5	0.03216811
122	0x3d587399	0.052844618
123	0x3c2148d4	0.009844024
124	0x3cde87c4	0.027164347
125	0xbd0b1066	-0.033951186
126	0xbd2e2d27	-0.04252353
127	0x3d37dbac	0.04488723
128	0x3cac0019	0.02099614
129	0x3d8043e6	0.062629506
130	0xbc3f36d4	-0.011670787
131	0x3beff391	0.0073227366
132	0xb97cb8d9	-0.00024101454
133	0xbd5a79b6	-0.05333873
134	0x3baaac35	0.005208517
135	0x3c957f35	0.018249134
136	0xbc87e50c	-0.01658871
137	0x3d5dd463	0.054157626
138	0x3d6e1943	0.05812956
139	0x3c81329b	0.0157712
140	0xbd40f782	-0.04711104
141	0x3c10f1b2	0.008846687
142	0xba8d7d3c	-0.0010794769
143	0x3c38417c	0.011246081
144	0x3cce2f22	0.025168959
145	0x3bfd7a72	0.007735544
146	0xbc62fe7a	-0.013854617
147	0xbd609df7	-0.054838147
148	0x3db57845	0.0886083
149	0xbd028297	-0.03186282
150	0x3d1481de	0.036256664
151	0x3b57f8ed	0.0032954768
152	0x3cc238d6	0.023708742
153	0xbc93343c	-0.017969243
154	0x3cf2a8d9	0.029621528
155	0xbc62fe66	-0.013854599
156	0x3c43369f	0.011914878
157	0x3d3d2a52	0.046182938
158	0xbcba45b1	-0.02273831
159	0xbd226eff	-0.039656635
160	0xbd64d7c8	-0.055869848
161	0x3d209467	0.039204028
162	0xbca53a06	-0.02016927
163	0xbc81e93e	-0.015858289
164	0xbd12b1f3	-0.035814237
165	0xbd1394a5	-0.03603043
166	0x3c87b6fe	0.01656675
167	0x3d3aa470	0.045566976
168	0x3c8f660a	0.01750471
169	0x3dc0eda8	0.09420329
170	0xbd8b579c	-0.068038195
171	0x3d91f711	0.07127202
172	0x3d563763	0.052298915
173	0xbd88b853	-0.06675782
174	0x3d7c1397	0.06154212
175	0x3d14fe8e	0.036375575
176	0x3d38a172	0.04507584
177	0xbc698fd0	-0.014255479
178	0x3ce798fb	0.028271189
179	0x3d8bd743	0.06828167
180	0x3c169713	0.009191292
181	0x3d744ab6	0.059641562
182	0x3bb155c2	0.0054118345
183	0xbc805818	-0.015667006
184	0x3c5de587	0.013543493
185	0x3d65975f	0.05605256
186	0x3c592698	0.01325383
187	0xbd03ab3d	-0.032145727
188	0x3c49f836	0.0123272445
189	0x394afcd5	0.00019358408
190	0x3d0b42f4	0.0339994
191	0x3d0fd278	0.035112828
192	0xbd833e5f	-0.06408381
193	0x3b8960a5	0.004192429
194	0x3d32cec5	0.043654222
195	0x3cc19fe7	0.023635818
196	0x3d6be766	0.057593726
197	0xbd77a10e	-0.060456328
198	0x3cc4aa39	0.02400695
199	0xbd2f4021	-0.042785767
200	0xbd640b83	-0.05567504
201	0xbd275096	-0.040848337
202	0x3bacae9d	0.005269839
203	0xbd0f0f74	-0.034926847
204	0xbd2a4139	-0.041566107
205	0xbb529587	-0.0032132582
206	0xbcfd6cd6	-0.030935686
207	0x3d4631ed	0.048387457
208	0xbafeaa6a	-0.001942945
209	0x3c8cb8fd	0.017178053
210	0xbc9a74ba	-0.018854488
211	0x3d2d0787	0.042243507
212	0xbd5be3da	-0.053684093
213	0x3bf950d2	0.0076085115
214	0xbd79dd02	-0.061001785
215	0x3d6de394	0.058078364
216	0xbc982af4	-0.01857517
217	0xbaaada0e	-0.0013034956
218	0x3c262a29	0.010141888
219	0x3c0ebfbf	0.008712708
220	0x3d6c5040	0.05769372
221	0x3d7a30ca	0.061081685
222	0x3c77223a	0.015083844
223	0x3c39d12c	0.011341374
224	0x3d1c4be9	0.03815833
225	0xbc1e2d0b	-0.009654294
226	0x3c9b8628	0.01898487
227	0xbcd491f7	-0.025948508
228	0x3d77bd8b	0.060483497
229	0x3bf0f5d3	0.0073535233
230	0xbc343fc6	-0.011001533
231	0x3b62c897	0.0034604424
232	0xbc9e9f09	-0.019362943
233	0xbced77a9	-0.028987722
234	0xbc97de78	-0.018538699
235	0xbd3357e1	-0.04378498
236	0xbc0d9c52	-0.008643227
237	0xbcbae682	-0.022814993
238	0x3d855be8	0.0651167
239	0x3c472e25	0.012156998
240	0xbc22aa4c	-0.009928297
241	0x3d754539	0.05988047
242	0x3b950f7f	0.0045489664
243	0x3ca2ff3e	0.0198971
244	0x39cf6d71	0.00039563657
245	0x3d191026	0.037368916
246	0x3b44181b	0.0029921595
247	0xbd26cd86	-0.040723346
248	0xbd56b335	-0.052417
249	0x3c4ba4e7	0.0124294525
250	0xbccafcca	-0.024778742
251	0x3c0c5743	0.008565727
252	0x3d735041	0.059402708
253	0x3ca713f8	0.020395264
254	0xbc4c7221	-0.012478382
255	0x3baa7fbd	0.005203216

encoder.0.linear.bias f4 [64]
0	0xbe2d08ed	-0.16897936
1	0xbe5ae10d	-0.21374913
2	0xbded16d5	-0.115766205
3	0xbd8bae4d	-0.068203546
4	0xbe1a3cb3	-0.15062217
5	0xbe40f0fe	-0.18841931
6	0xbe57e02c	-0.21081609
7	0xbe20a1e7	-0.15686761
8	0xbdb60e63	-0.08889463
9	0xbe00d712	-0.12582043
10	0xbd937e7b	-0.072018586
11	0xbe499f14	-0.1968959
12	0xbe8d485b	-0.27594265
13	0xbe717f99	-0.23583831
14	0xbe5c090e	-0.21487829
15	0xbd965830	-0.07341039
16	0xbe435ac4	-0.19077593
17	0xbe8aeb92	-0.2713285
18	0xbe7c922c	-0.24665135
19	0xbdfb199f	-0.12260746
20	0xbe047b15	-0.12937577
21	0xbe2112a6	-0.1572977
22	0xbe815a12	-0.2526403
23	0xbe5b2ba9	-0.21403374
24	0xbe17c6a6	-0.14821872
25	0xbe519c7e	-0.20469853
26	0xbe62161e	-0.2207875
27	0xbe47f420	-0.1952672
28	0xbe0548ff	-0.13016127
29	0xbe4f16ca	-0.20223537
30	0xbe7a125a	-0.24421063
31	0xbe2405ae	-0.16017792
32	0xbe5b4053	-0.21411256
33	0xbe09225a	-0.1339201
34	0xbda92f52	-0.08260979
35	0xbdeabed1	-0.114621766
36	0xbe66e6d3	-0.2254899
37	0xbd92c431	-0.07166327
38	0xbe38a991	-0.18033434
39	0xbe54389c	-0.2072472
40	0xbe8351b9	-0.25648287
41	0xbe0ca089	-0.13733114
42	0xbe0061c3	-0.12537293
43	0xbdfb7e5d	-0.12279961
44	0xbe125fa2	-0.14294294
45	0xbdb40a9d	-0.08791087
46	0xbe6eb085	-0.23309524
47	0xbdd2bc74	-0.10289851
48	0xbe1d2dd1	-0.15349509
49	0xbe5a3129	-0.21307816
50	0xbe1a6154	-0.1507619
51	0xbdeed237	-0.11661189
52	0xbe585a77	-0.2112826
53	0xbe54378c	-0.20724314
54	0xbde49e08	-0.111629546
55	0xbe463315	-0.19355424
56	0xbe1a4d56	-0.15068564
57	0xbe3942f2	-0.18091944
58	0xbe4293a7	-0.19001637
59	0xbe416129	-0.1888472
60	0xbe12b17b	-0.14325516
61	0xbdd89a8b	-0.10576352
62	0xbe780b5b	-0.24223082
63	0xbdc8d8c0	-0.09806967

encoder.1.linear.weight f4 [32, 64]
0	0x3d9d23bc	0.076728314
1	0x3e564cad	0.20927687
2	0xbcefcfba	-0.029273856
3	0xbd262cf9	-0.040570233
4	0xbdcd35ff	-0.100200646
5	0x3d669470	0.056293905
6	0x3d984c2c	0.07436404
7	0xbdf61d25	-0.12017278
8	0x3d4ac56f	0.049504694
9	0xbde25b24	-0.1105254
10	0xbd7bced0	-0.06147653
11	0x3d3aa9b3	0.045571994
12	0xbd98fffa	-0.07470699
13	0x3e0a381f	0.13497971
14	0xbe5495b4	-0.20760232
15	0x3a967418	0.001147869
16	0xbe065c43	-0.13121133
17	0xbcc247fc	-0.023715965
18	0xbe4d409d	-0.2004418
19	0xbdda1279	-0.10648055
20	0xbdcd7354	-0.10031763
21	0xbd91b061	-0.0711372
22	0x3deaf82f	0.114731185
23	0xbdbc828f	-0.092045896
24	0xbde42910	-0.111406446
25	0xbdd18d24	-0.102319986
26	0x3e0c3de7	0.13695489
27	0x3d0dd90a	0.034630813
28	0x3e4fa903	0.20279317
29	0x3dfc0a71	0.12306679
30	0xbd8ebaf0	-0.06969249
31	0x3c837895	0.016048709
32	0x3daf5c04	0.085624725
33	0x3e43574f	0.19076274
34	0x3dbdd759	0.0926959
35	0x3d79e521	0.06100953
36	0xbd9b8b09	-0.07594878
37	0x3d85e986	0.06538682
38	0xbe7596c1	-0.2398329
39	0x3dc39f79	0.09551901
40	0xbe09c5d3	-0.1345437
41	0xbe2dba2a	-0.16965547
42	0x3d6923e7	0.056919005
43	0xbdf75b33	-0.12077942
44	0x3c2ced18	0.010554574
45	0x3d2231af	0.039598163
46	0x3dcf38a8	0.10118228
47	0xbd90bf83	-0.07067778
48	0x3db977c4	0.090560466
49	0x3dca9685	0.098919906
50	0x3d8db974	0.06920138
51	0x3dcfaccf	0.101403825
52	0x3ccca04b	0.024978777
53	0x3bc42db2	0.0059868926
54	0xbcc56d5b	-0.024099996
55	0xbd826385	-0.06366638
56	0xbd37cec9	-0.04487494
57	0x3db2a357	0.08722561
58	0xbd2d6c61	-0.042339686
59	0x3d3463c2	0.04404045
60	0xbd94fa0f	-0.072742574
61	0x3d029b4e	0.03188639
62	0xbe163827	-0.14669858
63	0x3d1c9a3e	0.038233034
64	0xbd9c0c49	-0.07619531
65	0xbd5fdbe5	-0.054653067
66	0xbe6edc07	-0.23326121
67	0xbdbc3c0a	-0.09191139
68	0xbe56147e	-0.20906255
69	0xbe1945df	-0.1496806
70	0x3d293426	0.0413095
71	0x3e4295a3	0.19002394
72	0xbda987cf	-0.082778566
73	0xbe0a7605	-0.13521583
74	0x3e23cee2	0.15996888
75	0x3da008bc	0.07814166
76	0xbdd4c5cf	-0.103892915
77	0xbdd4d060	-0.10391307
78	0xbdbca32a	-0.092108086
79	0x3d84c8eb	0.064836346
80	0xbdd8514f	-0.105623834
81	0x3b29a446	0.0025885268
82	0xbdf3d5a0	-0.1190598
83	0xbd349f0d	-0.044096995
84	0x3e168750	0.14700055
85	0x3d9444e6	0.07239704
86	0xbcb97b3f	-0.022641776
87	0x3b4c6268	0.0031186584
88	0xbd496463	-0.049168
89	0x3e6927f3	0.22769146
90	0xbd2d7c90	-0.04235512
91	0x3e1699db	0.14707129
92	0xbbd44435	-0.0064778575
93	0x3d7efb2d	0.06225126
94	0x3e4e96a7	0.20174657
95	0xbda7899b	-0.08180543
96	0xbd78d212	-0.060747214
97	0x3ce2bb10	0.027677089
98	0x3d4c63bb	0.049899798
99	0x3cec4804	0.028842933
100	0xbe17e8a4	-0.14834839
101	0xbb46fcf8	-0.0030363183
102	0xbdcc18c7	-0.099656634
103	0x3d7825a5	0.060582776
104	0xbe892772	-0.26787907
105	0xbd129c77	-0.035793748
106	0xbe33e44e	-0.1756756
107	0xbe555019	-0.20831336
108	0x3e1c4a08	0.15262616
109	0x3d48e0a3	0.049042355
110	0xbe0a40ca	-0.13501278
111	0xbe596d84	-0.21233183
112	0x3dc2897f	0.094988815
113	0x3de68ee7	0.11257725
114	0x3d44bd66	0.048032187
115	0x3c21c348	0.009873219
116	0x3da157bc	0.07878062
117	0x3dc9052c	0.098154396
118	0x3dbcbf6e	0.092162
119	0x3e72e7e6	0.23721275
120	0xbba57158	-0.005048912
121	0x3dcee391	0.101019986
122	0xbdcb500e	-0.099273786
123	0xbe8098aa	-0.25116473
124	0xbe2c81e2	-0.16846421
125	0xbdf871ab	-0.121310554
126	0x3dcce590	0.10004723
127	0x3caf7046	0.02141584
128	0xbdbcafd7	-0.09213226
129	0x3e810b1f	0.25203797
130	0x3b4ddff1	0.0031413997
131	0xbdd25ec9	-0.10271985
132	0x3ce1887e	0.027530905
133	0x3d982244	0.07428411
134	0x3c9c590f	0.019085435
135	0xbdc33c6e	-0.095330104
136	0x3d84d10d	0.06485186
137	0x3d617067	0.055038836
138	0x3d9bb7fd	0.07603452
139	0xbd0a3f87	-0.03375199
140	0x3d275dc9	0.040860925
141	0xbddeb3ca	-0.10874136
142	0xbc6191e6	-0.013767695
143	0xbd8802ba	-0.06641145
144	0xbd818c4a	-0.06325586
145	0xbe03178c	-0.12801951
146	0xbe011b83	-0.12608151
147	0x3bf6f0ce	0.0075360304
148	0xbe0c413a	-0.13696757
149	0xbbbd2988	-0.005772773
150	0xbc91c2e3	-0.017793125
151	0x3d8d2418	0.0689165
152	0x3cdbadde	0.026816305
153	0xbcde6a27	-0.027150227
154	0x3e4a69f9	0.19766988
155	0xbdd010d9	-0.101594634
156	0xbdd53f72	-0.10412492
157	0xbd7a147f	-0.061054703
158	0x3d8fb056	0.07016055
159	0x3c22b28b	0.009930263
160	0xbde283f1	-0.11060322
161	0x3d5fe6dc	0.054663524
162	0x3d2a2a64	0.041544333
163	0x3dc8d069	0.09805376
164	0xbd1b5586	-0.03792336
165	0xbd17a873	-0.03702588
166	0xbdc531da	-0.09628649
167	0xbd54648a	-0.051853694
168	0xbd972505	-0.07380108
169	0x3d41a505	0.047276516
170	0xbdd76419	-0.10517139
171	0xbceee44e	-0.029161599
172	0x3e2e2871	0.17007615
173	0xbcc6cf83	-0.024268871
174	0x3d263236	0.04057523
175	0xbd825e8f	-0.06365692
176	0x3c0a0478	0.008423917
177	0xbc6c19ed	-0.014410478
178	0x3df88734	0.12135163
179	0xbc85a01d	-0.0163117
180	0x3d5dc0ac	0.054138824
181	0xbb614481	-0.0034373107
182	0x3cc447ba	0.023959983
183	0xbd8154a5	-0.06314973
184	0x3b0a56f0	0.0021108948
185	0xbbadf306	-0.0053085117
186	0x3e2846f2	0.16433313
187	0x3da7c32f	0.08191525
188	0x3dd89359	0.10574979
189	0xbd50bc5c	-0.050960883
190	0x3c47f9c1	0.012205542
191	0x3c63ed8d	0.013911617
192	0x3cceecd2	0.02525941
193	0xbe15f5ae	-0.146445
194	0xbd836b67	-0.0641697
195	0x3ceab5b3	0.028651094
196	0x3a0b247e	0.0005307867
197	0x3e291982	0.16513637
198	0x3b8e3b93	0.004340598
199	0xbd804d86	-0.062647864
200	0xbd164fb6	-0.036697112
201	0x3d97eb24	0.074178964
202	0x3dcd80dd	0.10034344
203	0x3de8d93a	0.11369558
204	0xbd22daa4	-0.039759293
205	0xbe94c543	-0.2905675
206	0xbdd9f821	-0.1064303
207	0xbd0513be	-0.03248953
208	0xbc7900a2	-0.015197905
209	0xbe9cb01e	-0.30603117
210	0xbe716026	-0.23571834
211	0xbd6bcc36	-0.057567798
212	0x3d71c259	0.059023235
213	0x3d8b2afd	0.06795309
214	0x3d0a1270	0.03370899
215	0x3b947173	0.0045301258
216	0xbe277d1b	-0.16356318
217	0xbe7e9643	-0.24862008
218	0xbc6b33b3	-0.014355588
219	0x3da80833	0.08204689
220	0xbe169a9d	-0.14707418
221	0x3e5d2a0d	0.21598072
222	0xbd6e3838	-0.058159083
223	0x3c3b3f0e	0.011428608
224	0xbd43534b	-0.047686856
225	0xbe43eccd	-0.19133301
226	0x3d565c95	0.052334387
227	0xbde3d894	-0.111252934
228	0x3c8c8239	0.017151939
229	0xbd56fd27	-0.05248752
230	0x3e3456b9	0.17611207
231	0x3e82e908	0.25568414
232	0x3dd8cce9	0.105859585
233	0xbe987ad0	-0.29781199
234	0x3aefcf8d	0.0018296108
235	0xbe525312	-0.20539501
236	0xbd23e692	-0.04001481
237	0x3d3fb585	0.04680397
238	0xbe4acd58	-0.19804895
239	0xb91df366	-0.0001506336
240	0x3c64adc4	0.013957445
241	0x3dbdd460	0.09269023
242	0x3c06d602	0.008229734
243	0x3da34843	0.07972767
244	0x3e059d8a	0.13048378
245	0xbdeac577	-0.11463445
246	0xbdc48d2b	-0.09597238
247	0xbe9be1bc	-0.3044566
248	0x3d17e995	0.037087996
249	0x3e3b8ec3	0.18316178
250	0xbe561c29	-0.2090918
251	0x3d796aa8	0.06089273
252	0x3dc6eb36	0.09712832
253	0x3bf9c726	0.0076226173
254	0x3de971c8	0.11398655
255	0x3d908d76	0.070582315

encoder.1.linear.bias f4 [32]
0	0x3d0316cf	0.032004174
1	0xbda2fb54	-0.07958093
2	0x3cc037d6	0.023464125
3	0xbd8765e7	-0.06611233
4	0x3c87de08	0.016585365
5	0xbcfa3ca8	-0.030546501
6	0xbd968af7	-0.07350724
7	0x3e14deac	0.14538068
8	0x3e2059dc	0.15659279
9	0xbe2c5c5e	-0.1683211
10	0xbc3a2bd3	-0.011362988
11	0xbd93cb0b	-0.07216462
12	0xbe1d5603	-0.15364842
13	0xbe04dd67	-0.12975083
14	0xbc4b0ca8	-0.012393154
15	0xbe971f32	-0.29515988
16	0xbd910538	-0.070810735
17	0xbdb023a7	-0.0860055
18	0xbcff6824	-0.031177588
19	0xbe03d924	-0.12875801
20	0xbe851206	-0.25990313
21	0x3d5cc5ab	0.05389945
22	0xbd426e2b	-0.047468346
23	0x3e276d21	0.16350223
24	0xbe879129	-0.26477936
25	0xbe29ff62	-0.16601327
26	0xbd61b063	-0.055099856
27	0xbe1bd9c9	-0.15219797
28	0xbdb522e4	-0.088445455
29	0xbda00501	-0.078134544
30	0xbdb9dbfb	-0.09075161
31	0xbe2b575d	-0.16732545

assignment.cluster_centers f4 [12, 32]
0	0xbedabc0c	-0.42721593
1	0xbf843650	-1.0329075
2	0x3e8f3b0d	0.2797474
3	0xbf3562f8	-0.7085414
4	0x3f206157	0.6264853
5	0xbf80e556	-1.0069988
6	0x3e8a9eb1	0.27074197
7	0xbf3fb899	-0.7489105
8	0x3f860f36	1.0473392
9	0xbf230e66	-0.63693845
10	0xbd96dd83	-0.07366469
11	0xb8992054	-7.30163e-05
12	0xbe9c096a	-0.30475932
13	0xbf6c2869	-0.9224916
14	0x3f82756d	1.0192086
15	0xbf6e5d9b	-0.9311158
16	0xbe8e7eee	-0.27831215
17	0xbf838f8b	-1.0278181
18	0x3f85aafe	1.0442808
19	0x3e7e1290	0.24811769
20	0x3f298ac3	0.6622736
21	0x3dfa7e77	0.122311525
22	0x3f1a27dd	0.60217077
23	0x3e57ce76	0.21074852
24	0x3f25d7b3	0.64782256
25	0x3e7a2f90	0.24432206
26	0xbf80dc1e	-1.0067174
27	0xbe43276b	-0.19058006
28	0x3f452427	0.7700829
29	0xbf83a9ed	-1.0286232
30	0x3f4e3e52	0.80563843
31	0xbf85abd5	-1.0443064
32	0xbed4dc57	-0.41574356
33	0x3f5e88e2	0.86927617
34	0xbe31f055	-0.17376836
35	0x3f031392	0.51201737
36	0xbecfde63	-0.40599355
37	0x3d3216dc	0.04347883
38	0xbf7d488b	-0.98938817
39	0x3f83cb7f	1.0296477
40	0xbf68c5e9	-0.90926987
41	0x3f1609d5	0.5860875
42	0xbdfb1292	-0.122594014
43	0x3ef08c32	0.4698196
44	0xbf616014	-0.8803723
45	0xbf39e01f	-0.72607607
46	0xbd602081	-0.0547185
47	0xbea787ee	-0.32720894
48	0xbf2e47d9	-0.6807838
49	0x3f69eda3	0.9137823
50	0xbea913d8	-0.33022952
51	0xbf526734	-0.82188725
52	0xbf811313	-1.0083946
53	0xbeef6cd0	-0.46762705
54	0xbf6e9091	-0.9318934
55	0xbd884e7a	-0.06655593
56	0xbf80eddc	-1.0072589
57	0xbf7b7be9	-0.98235947
58	0xbf5a483c	-0.8526647
59	0xbf7aecf5	-0.9801782
60	0xbf19d449	-0.60089546
61	0xbd65832e	-0.056033306
62	0xbf2024d8	-0.6255622
63	0xbcc4fb02	-0.024045471
64	0xbe972e1a	-0.2952736
65	0xbf64a8c2	-0.89320004
66	0xbe2768e9	-0.16348614
67	0xbe7859df	-0.24253033
68	0x3f7dee99	0.99192196
69	0xbf7097bd	-0.93981534
70	0x3f32d468	0.69855356
71	0xbf498318	-0.7871566
72	0x3f757928	0.95887995
73	0xbd592a92	-0.053019114
74	0xbe52ec48	-0.20597947
75	0x3da81c66	0.082085416
76	0xbca46a0e	-0.020070102
77	0xbf57695d	-0.84145147
78	0x3f638cae	0.88886535
79	0xbf7d1599	-0.9886108
80	0x3e67bc6d	0.22630472
81	0xbf8179dc	-1.0115314
82	0x3f31fa7f	0.6952285
83	0x3ee384de	0.44437307
84	0xbf313355	-0.6921895
85	0x3ec976ef	0.39348552
86	0x3f71a3fa	0.94390833
87	0x3f7273d2	0.9470798
88	0xbec252b1	-0.37953714
89	0xbf2ed15c	-0.6828821
90	0xbead6567	-0.33866426
91	0xbee6a6bb	-0.4504908
92	0xbe4f8ea0	-0.20269251
93	0xbf6924d8	-0.91071844
94	0x3eea5aaa	0.45772296
95	0xbf806a41	-1.0032426
96	0x3e322521	0.17396976
97	0x3c88fd7f	0.016722439
98	0xbeaa305f	-0.3324003
99	0x3e1a345d	0.15059038
100	0x3f80ffe1	1.0078088
101	0xbf77459e	-0.965906
102	0xbeb153dd	-0.34634295
103	0xbdf9e381	-0.12201596
104	0x3f4edbdd	0.80804235
105	0x3f4bdbf7	0.79632515
106	0xbd9f86ca	-0.07789381
107	0x3e449bab	0.19200008
108	0xbe1f0184	-0.15527922
109	0xbf25991f	-0.6468677
110	0x3db52cfa	0.08846469
111	0xbf815fa4	-1.0107312
112	0xbddf3506	-0.10898785
113	0xbf705c98	-0.93891287
114	0xbf229602	-0.63510144
115	0xbe93c021	-0.2885752
116	0xbf6f7cad	-0.93549615
117	0x3f4d9d35	0.80318004
118	0x3f7f7bbc	0.9979818
119	0x3f69c729	0.9131952
120	0xbf72f664	-0.9490721
121	0xbf7e7e5e	-0.9941157
122	0x3f617c38	0.8808017
123	0xbf79aafc	-0.97526526
124	0xbf7bd5fa	-0.9837338
125	0xbeeab985	-0.45844665
126	0xbf621fad	-0.88329583
127	0x3f1a3392	0.6023494
128	0x3f792a21	0.9732991
129	0x3e804345	0.25051323
130	0x3f592d99	0.848352
131	0xbf15224a	-0.58255446
132	0xbeaa1b40	-0.33223915
133	0xbf007968	-0.5018525
134	0xbf7eaa6f	-0.9947881
135	0x3f83d9fa	1.0300896
136	0xbf6de678	-0.9292979
137	0xbeac5f03	-0.33666238
138	0xbf30bcc0	-0.6903801
139	0xbf18a0f1	-0.5962058
140	0xbea1c5c1	-0.31596187
141	0xbf77d912	-0.968156
142	0xbe8e5345	-0.27797905
143	0xbf2e1293	-0.6799709
144	0xbe83cb97	-0.25741264
145	0x3f291632	0.6604949
146	0xbf388397	-0.7207579
147	0xbf6ecbf6	-0.9327997
148	0xbf81a1f8	-1.0127554
149	0xbf1b72c4	-0.60721993
150	0x3f06bbd3	0.52630347
151	0xbebb4be3	-0.36581334
152	0xbf81e353	-1.0147499
153	0xbf7b1168	-0.98073435
154	0xbf77b028	-0.9675317
155	0xbf7a24a9	-0.9771219
156	0x3ee29b9c	0.44259346
157	0x3f879748	1.0593042
158	0xbf7cba52	-0.987218
159	0xbf2da3f6	-0.6782831
160	0xbd3239f4	-0.0435123
161	0x3f528c1d	0.82245046
162	0x3efe8a16	0.49714726
163	0x3ecf3d77	0.4047658
164	0x3e334f9f	0.17510842
165	0x3e28243e	0.16420075
166	0xbf7d3e0d	-0.98922807
167	0x3f7182d4	0.9434025
168	0xbf722771	-0.9459143
169	0xbf261e75	-0.64890224
170	0x3ef7ab00	0.4837265
171	0x3d390714	0.045172766
172	0xbe92ebae	-0.28695434
173	0xbf3b8507	-0.7324986
174	0x3f247a7b	0.6424939
175	0xbef55c4a	-0.47921973
176	0xbf056f94	-0.5212338
177	0x3ee7877b	0.4522055
178	0xbf53aacd	-0.82682496
179	0x3e0552c6	0.13019857
180	0xbf80c093	-1.0058769
181	0x3ed7b76d	0.4213213
182	0xbf6426b1	-0.8912154
183	0xbf0edefa	-0.55808985
184	0xbf815722	-1.0104716
185	0xbf575d78	-0.84126997
186	0x3c409d75	0.011756291
187	0xbf779e5c	-0.9672601
188	0xbf77fbdb	-0.96868676
189	0xbf116e6a	-0.56809103
190	0x3e74cace	0.23905489
191	0x3f486938	0.7828555
192	0x3f5a24fb	0.8521268
193	0x3f32121b	0.69558877
194	0xbe224193	-0.15845327
195	0x3f1dea55	0.6168569
196	0x3f240ac2	0.64078915
197	0xbe66f207	-0.22553264
198	0xbf80f0ed	-1.0073525
199	0x3f7dae7d	0.99094373
200	0xbef937cc	-0.48675382
201	0xbea7722e	-0.327043
202	0xbf11af42	-0.5690805
203	0x3ea55c24	0.3229686
204	0x3e0f699f	0.14005135
205	0xbf6b7be3	-0.9198591
206	0x3edea836	0.4348771
207	0xbf42646c	-0.7593448
208	0x3ea877b4	0.32903826
209	0xbdf926b7	-0.121655874
210	0xbefb5959	-0.49091604
211	0xbea69a21	-0.32539466
212	0xbf818832	-1.0119689
213	0xbc0b21a9	-0.008491912
214	0x3e2170ff	0.15765761
215	0x3e54ed52	0.20793656
216	0xbf828bb7	-1.0198888
217	0xbf6d7f32	-0.9277221
218	0x3d03f439	0.03221533
219	0xbf7f0ece	-0.99631965
220	0xbf762639	-0.96152073
221	0x3ec26a0e	0.37971538
222	0xbf5b6a77	-0.8570933
223	0x3f4dac0a	0.80340636
224	0x3eea7e65	0.45799556
225	0x3f376a70	0.71646786
226	0x3e6aded2	0.22936562
227	0x3eeecd31	0.46640924
228	0x3f5d083a	0.8634068
229	0xbf0b2b49	-0.5436292
230	0xbf7897ce	-0.97106636
231	0x3f6a5c82	0.91547406
232	0xbdc36dd8	-0.095424354
233	0x3e5da7f2	0.21646097
234	0x3ed9f053	0.42566165
235	0x3e093ace	0.13401338
236	0xbed5198c	-0.41621053
237	0xbf187090	-0.59546757
238	0x3ddec337	0.10877078
239	0xbf6c134b	-0.9221694
240	0xbea31775	-0.31853834
241	0xbdc333da	-0.09531374
242	0xbf5bb6cc	-0.858258
243	0xbe07f069	-0.13275303
244	0xbf6eadd3	-0.93233985
245	0x3f188b19	0.59587246
246	0xbd585806	-0.05281832
247	0xbcf72b6c	-0.030172072
248	0xbf7d70cf	-0.9900026
249	0xbf6b6b12	-0.9196025
250	0x3ee6a381	0.4504662
251	0xbf7c869f	-0.98642915
252	0xbf828cd0	-1.0199223
253	0xbec43e96	-0.38329
254	0xbf5e733f	-0.868946
255	0x3f689c5a	0.90863574
