run_dataset/macaque_result/dec_weight.pth (torch, 267867 bytes, 5 tensors)

encoder.0.linear.weight f4 [64, 1000]
-0.073022045 0.05988739 -0.054641403 0.025796631 -0.052930303 0.008537565 0.020507513 0.032338597
0.047358684 0.0018990308 -0.018784845 0.0006693775 0.021413665 0.02438007 -0.03846231 -0.06933918
0.009024058 -0.0055165314 -0.06353475 -0.010710346 0.007614808 -0.023529265 0.006286391 0.0036822318
0.031313404 0.016794408 -0.004105089 -0.036095425 -0.044033825 0.01043261 0.035305962 0.027326614
-0.003545127 -0.018451503 0.04796064 0.006785123 0.004013635 0.00065555924 0.022691801 0.0028347194
0.008532231 -0.0326832 -0.031280424 0.004854826 0.01096284 -0.01927671 0.01749965 -0.029595364
0.023895882 -0.0060420968 -0.060665686 0.04221549 -0.013028693 -0.068410195 0.005080555 0.051783476
0.0064559267 -0.24231584 -0.06608892 0.067506656 0.010808873 -0.105505906 -0.018690528 0.055037826
0.023510942 -0.00774907 -0.075185716 0.03226872 -0.064348 -0.11697019 -0.03968793 -0.0142247835
-0.053479295 0.033458058 0.027495055 -0.04820033 -0.06504396 -0.011898574 -0.0358978 -0.003349075
-0.0016651457 -0.013333063 -0.0771088 -0.02570738 0.03078832 0.047854874 0.014283175 -0.044428065
-0.0031355247 0.052148223 -0.00088654907 -0.024778098 0.017234465 0.032901343 -0.05809082 0.008466432
-0.0038839602 -0.010162201 -0.05115653 -0.024166953 -0.04420967 0.047266707 -0.010867109 -0.05552172
0.0628799 -0.0045964248 -0.07060295 0.023554 0.030227706 -0.0135820005 -0.07307566 -0.010676821
-0.017638225 0.058221206 0.012210176 -0.043622155 -0.036287624 -0.03287702 -0.017499736 -0.030678831
0.03541109 0.054994658 -0.0065341443 -0.0016211297 0.007986875 -0.057228833 -0.03549865 0.029189695
0.00324101 0.004377889 0.05647632 -0.034935284 0.008075626 -0.050724618 0.0057408493 0.014848924
0.019843807 0.05204393 0.024137223 0.011570897 -0.036220744 -0.008061934 -0.00942803 -0.0068960562
0.04729792 -0.0013946899 0.018306365 -0.033444628 -0.037472043 0.005870026 -0.0077402303 0.003935491
-0.022917015 -0.012378117 0.03571807 -0.023778107 -0.0349215 0.017270083 -0.054186292 -0.027549054
-0.07226012 0.0080210045 0.015370119 -0.01636671 0.017102694 -0.038894445 -0.014019848 -9.504089e-05
-0.0027336332 0.046459313 -0.06856544 -0.0073005254 0.061876044 -0.07235119 0.004486239 0.054579485
0.026699841 0.023302969 0.008934644 0.017833302 -0.0048155896 -0.0034938995 0.0142614385 -0.025602221
0.0043947585 0.035609018 0.0031849481 -0.06122261 -0.06318626 0.0048934235 0.0048157787 -0.0086394735
-0.04222061 0.015208673 -0.036263328 0.13408193 0.03224451 -0.048527993 -0.03634518 -0.102294475
-0.03826049 -0.0062624775 0.013861642 0.040738013 -0.04893075 0.013581392 -0.042015035 0.03819811
0.00143387 0.057767928 -0.058366876 0.025421578 -0.06976532 -0.0199673 -0.030081494 0.039432622
-0.021046778 0.0014819772 -0.0028902662 0.018849071 0.05187804 0.069637075 -0.00780437 0.0049024383
0.0487555 0.010043573 0.018237298 -0.05852146 0.00203747 -0.040547486 -0.036226492 0.021423804
0.012894694 -0.051085044 -0.0062175845 -0.059830815 -0.034351222 -0.032144662 0.01745499 0.00041060318
-0.017660627 0.021735769 -0.038242538 0.052861053 -0.02098895 0.02244864 -0.011245383 -0.030375866
-0.058548495 0.0061964793 0.01294199 -0.013092352 0.026492914 0.06053276 -0.04587477 0.0071513485
00000000: 958c 95bd 7b4c 753d aacf 5fbd 7553 d33c
00000010: 72cd 58bd 25e1 0b3c 5fff a73c 7a75 043d
00000020: 2efb 413d e6e8 f83a ade2 99bc 2a79 2f3a
00000030: b66b af3c b6b8 c73c a88a 1dbd b301 8ebd
00000040: a4d9 133c 05c4 b4bb 821e 82bd 727a 2fbc
00000050: a485 f93b 72c0 c0bc 12fe cd3b 9951 713b
00000060: 7c42 003d 6d94 893c fc83 86bb ccd8 13bd
00000070: d05c 34bd 8aed 2a3c fc9c 103d 10dc df3c
00000080: 5d55 68bb 9b27 97bc 6072 443d bd55 de3b
00000090: d084 833b d6d9 2b3a 28e4 b93c b3c6 393b
000000a0: c5ca 0b3c d2de 05bd e71f 00bd 3b15 9f3b
000000b0: 7c9d 333c 31ea 9dbc 6d5b 8f3c fa71 f2bc
000000c0: 4cc1 c33c c8fc c5bb 957c 78bd 26ea 2c3d
000000d0: 4d76 55bc a51a 8cbd c97a a63b e91a 543d
000000e0: 3d8c d33b a521 78be a159 87bd ee40 8a3d
000000f0: b317 313c 7b13 d8bd e11c 99bc 586f 613d
00000100: 059a c03c e9eb fdbb f8fa 99bd 352c 043d
00000110: e2c8 83bd 118e efbd d08f 22bd 110f 69bc
00000120: 1b0d 5bbd 510b 093d 4f3d e13c b66d 45bd
00000130: c535 85bd 3df2 42bc 9209 13bd 287c 5bbb
00000140: 0541 daba eb72 5abc 38eb 9dbd 4998 d2bc
00000150: c937 fc3c 7903 443d fa03 6a3c 34fa 35bd
00000160: 607d 4dbb 6099 553d 4d67 68ba 70fb cabc
00000170: 4b2f 8d3c 8fc3 063d a4f0 6dbd cab6 0a3c
00000180: 0a8a 7ebb 5c7f 26bc 8289 51bd c6f9 c5bc
00000190: 3315 35bd bc9a 413d f50b 32bc be6a 63bd
000001a0: 2dc7 803d 9b9d 96bb 4898 90bd 51f4 c03c
000001b0: 18a0 f73c 0a87 5ebc b1a8 95bd d5ed 2ebc
000001c0: 0a7e 90bc 5c79 6e3d 310d 483c 25ad 32bd
000001d0: 55a2 14bd 0eaa 06bd 9b5b 8fbc 2c52 fbbc
000001e0: 380b 113d 1442 613d 601c d6bb 167c d4ba
000001f0: 62db 023c c868 6abd 0867 11bd 3a1f ef3c
00000200: 2067 543b 6574 8f3b b753 673d 4d18 0fbd
00000210: a14f 043c 9ec4 4fbd bc1d bc3b e748 733c
00000220: 7b8f a23c 042c 553d 6dbb c53c dc93 3d3c
00000230: 345c 14bd 3416 04bc 0678 1abc 50f8 e1bb
00000240: 77bb 413d 07ce b6ba 3bf7 953c 3cfd 08bd
00000250: 497c 19bd 5959 c03b c2a1 fdbb 4bf5 803b
00000260: 77bc bbbc 96cd 4abc 1c4d 123d 4eca c2bc
00000270: d909 0fbd fd79 8d3c 72f2 5dbd 8eae e1bc
00000280: 1dfd 93bd 886a 033c f4d2 7b3c 7b13 86bc
00000290: f31a 8c3c c84f 1fbd 81b3 65bc b050 c7b8
000002a0: c126 33bb 1f4c 3e3d 0a6c 8cbd 3f39 efbb
000002b0: bc71 7d3d dc2c 94bd 4d01 933b bd8e 5f3d
000002c0: a0b9 da3c dee5 be3c 9d62 123c 2517 923c
000002d0: 18cc 9dbb e8f9 64bb cfa8 693c c0bb d1bc
000002e0: e801 903b c3da 113d 90ba 503b 8fc4 7abd
000002f0: cc67 81bd 0359 a03b aecd 9d3b 948c 0dbc
00000300: 85ef 2cbd cc2d 793c db88 14bd c64c 093e
00000310: d212 043d 4ac5 46bd afde 14bd c47f d1bd
00000320: 08b7 1cbd 7835 cdbb f11b 633c e7dc 263d
00000330: 9c6b 48bd 7d84 5e3c f517 2cbd 9f75 1c3d
00000340: b2f0 bb3a 109e 6c3d 1b12 6fbd ea40 d03c
00000350: 1fe1 8ebd 7792 a3bc 776d f6bc 1a84 213d
00000360: 4b6a acbc e73e c23a 9f6a 3dbb 5e69 9a3c
00000370: 117e 543d e29d 8e3d cdbb ffbb a2a4 a03b
00000380: d9b3 473d cc8d 243c 6366 953c 33b4 6fbd
00000390: 1387 053b 1f15 26bd 3b62 14bd f980 af3c
000003a0: 4444 533c 8d3e 51bd e1bc cbbb 2811 75bd
000003b0: deb3 0cbd 1faa 03bd c4fd 8e3c 3a46 d739
000003c0: 05ad 90bc 360f b23c 35a4 1cbd d584 583d
000003d0: 05f1 abbc 36e6 b73c 8e3e 38bc cfd6 f8bc
000003e0: 8cd0 6fbd d60b cb3b a40a 543c 4e81 56bc
000003f0: ab07 d93c 33f1 773d 2fe7 3bbd dc55 ea3b

encoder.0.linear.bias f4 [64]
0.4870693 0.5428547 0.6967514 0.6525215 0.7452727 0.8887888 0.9187327 0.45947
0.24075052 0.78439707 0.7482243 0.6818587 0.7504716 0.70517087 0.6031919 0.91625035
0.47907543 0.6564022 0.58528894 0.3582289 0.539263 0.62362045 0.7164129 0.5227877
0.17338601 0.82645506 -0.89556867 0.79135257 0.6826525 0.6568219 0.88645864 0.7140114
0.7418141 0.38616684 0.8241887 0.46122363 0.7473338 0.17128623 0.7476253 0.5785857
0.5657306 0.42937967 0.7649157 0.7817758 0.6020845 0.8879736 0.7883827 0.7618999
0.5582742 0.7750359 0.6114223 0.7744339 0.7418032 0.6836905 0.44693372 0.49467558
0.720011 0.8951319 0.76176405 0.89112145 -0.012732831 0.7693773 0.7013567 0.70200515
00000000: 2661 f93e 87f8 0a3f 4d5e 323f a60b 273f
00000010: 31ca 3e3f aa87 633f 1132 6b3f a73f eb3e
00000020: 4e87 763e 3fce 483f a18b 3f3f 4b8e 2e3f
00000030: e81e 403f 1486 343f c96a 1a3f 628f 6a3f
00000040: 6049 f53e f909 283f 7fd5 153f c769 b73e
00000050: 240d 0a3f 97a5 1f3f d666 373f 6ad5 053f
00000060: 1a8c 313e 8f92 533f fd43 65bf 1596 4a3f
00000070: 50c2 2e3f 7b25 283f f4ee 623f 73c9 363f
00000080: 87e7 3d3f a9b7 c53e 08fe 523f 8125 ec3e
00000090: 4551 3f3f a865 2f3e 5f64 3f3f 311e 143f
000000a0: b8d3 103f a7d7 db3e 84d1 433f 7522 483f
000000b0: 3622 1a3f 3d52 633f 73d3 493f df0b 433f
000000c0: 0feb 0e3f c168 463f 2c86 1c3f 4d41 463f
000000d0: d1e6 3d3f 5706 2f3f 7fd4 e43e 1e46 fd3e
000000e0: a452 383f 5d27 653f f802 433f 8920 643f
000000f0: 5d9d 50bc e9f5 443f 1d8c 333f 9cb6 333f

encoder.1.linear.weight f4 [32, 64]
0.008066957 0.022084009 -0.07881035 0.010049944 0.047633413 -0.039659526 -0.037439767 -0.006343503
-0.028363166 0.029441409 0.056092743 -0.018293146 0.046366386 0.0031963654 -0.016948864 0.025078578
-0.04120842 0.02660302 0.02099984 0.05502441 0.0011566423 0.021738293 -0.0039308686 0.018055325
-0.048996378 -0.03711706 0.027437001 0.0068082307 -0.045707434 -0.0038739883 -0.019865809 -0.041719276
0.00017014041 -0.027453216 -0.083805434 0.01896119 -0.047775023 0.00077747536 0.044232998 -0.029864535
0.027069878 -0.008345637 0.038848035 -0.059740443 0.0033012833 -0.020415502 -0.01983022 0.10982494
0.039549977 0.006360067 0.06341706 -0.0116310585 -0.06879743 0.0058099786 0.029984372 -0.027946187
-0.0037360357 0.060275823 0.009451293 0.02730252 0.19684221 0.016990116 0.021025399 0.030335564
-0.06711808 -0.013924104 -0.015389021 0.022910805 0.081038386 -0.013584366 -0.0073207086 -0.031378634
0.046241857 -0.03515451 0.016662328 -0.06477539 -0.011654402 0.005499575 -0.020810617 -0.0029458515
-0.13465023 0.0060848473 0.0006603965 -0.022440672 0.08172853 0.020346502 -0.00124552 -0.026450887
0.05266883 -0.03206541 0.008103478 -0.030386582 0.028887924 -0.010662278 0.005544923 -0.07354095
0.013575558 -0.045509513 0.008658837 -0.07998481 0.059527386 0.026663998 -0.034346946 -0.06912566
-0.020498557 -0.0017426845 -0.10513748 -0.010978301 -0.021667037 0.054798715 0.0058444124 -0.008283692
-0.03400549 0.19711371 0.12166627 -0.006544425 -0.024969447 0.0005735749 -0.0117259165 -0.033619512
-0.016914798 -0.02315535 0.010420169 -0.025745407 -0.100856796 0.027019078 0.030608429 0.007934624
-0.0007549883 -0.032935277 -0.0022475081 0.020303419 -0.006662671 -0.028451834 -0.031999845 0.016123714
0.067792475 -0.055858277 -0.08072587 0.033437997 -0.03610578 -0.030557435 -0.0137186395 -0.014344433
-0.008578098 -0.079754055 -0.014783939 0.059360985 -0.08787768 -0.009118887 0.00566105 0.02342897
0.1265221 -0.0073129563 0.6385703 -0.021816196 0.056409564 0.012125637 -0.047605805 0.03762597
-0.03719366 -0.10675537 -0.0057733217 -0.02781012 -0.033579797 -0.087907255 -0.07173641 -0.09537232
-0.0026190677 0.028970826 -0.07369021 -0.03346061 -0.07237752 -0.002116494 0.06437589 -0.025881803
-0.002118949 -0.034315314 0.041478455 -0.0017393567 -0.015102816 -0.014305783 -0.023553932 -0.0055814153
-0.056471925 -0.044170782 0.0009953703 0.1582231 -0.030934194 -0.02413591 0.04995783 0.049059913
-0.41935554 0.044883076 -0.014669463 -0.014020637 0.03327657 -0.027407117 0.05618032 0.3561707
-0.111689426 0.0021958 0.05275993 -0.029349187 0.027380344 0.0074579655 0.031578876 0.015525367
0.016449532 -0.07054318 -0.034308776 -0.22985984 -0.14165068 -0.015159888 0.031543527 -0.041272223
-0.19864872 0.03822719 0.19747084 -0.05270818 -0.004781877 0.027245678 -0.040250633 0.011011201
-0.036262363 -0.19923443 -0.036510207 0.04206663 -0.060953602 0.08031961 0.05630788 -0.012562485
0.0035342253 0.01992647 -0.037493505 0.34919444 -0.03954642 -0.0027483641 -0.040935013 0.043203384
-0.021817273 -0.0949473 0.012951871 -0.08145376 0.07651058 -0.043341767 0.01471717 0.050399218
-0.0012133705 -0.09138824 0.012714234 -0.043197874 -0.12855382 -0.030532347 -0.008479466 0.02687808
00000000: 452b 043c 86e9 b43c 5267 a1bd 85a8 243c
00000010: 411b 433d 0772 22bd 715a 19bd 29dd cfbb
00000020: df59 e8bc 1c2f f13c 81c1 653d 82db 95bc
00000030: aeea 3d3d 1d7a 513b 58d8 8abc 9771 cd3c
00000040: 29ca 28bd 94ee d93c db07 ac3c 4761 613d
00000050: 7a9a 973a 8114 b23c 84ce 80bb c3e8 933c
00000060: 6db0 48bd 0f08 18bd 90c3 e03c 9417 df3b
00000070: b837 3bbd bde2 7dbb 9fbd a2bc d5e1 2abd
00000080: b867 3239 91e5 e0bc 2fa2 abbd 7f54 9b3c
00000090: beaf 43bd 7dcf 4b3a a92d 353d 78a6 f4bc
000000a0: a6c1 dd3c 23bc 08bc 1e1f 1f3d 65b2 74bd
000000b0: 585a 583b 693e a7bc fc72 a2bc e6eb e03d
000000c0: 28ff 213d 1c68 d03b cee0 813d 3290 3ebc
000000d0: abe5 8cbd a261 be3b c9a1 f53c 67ef e4bc
000000e0: 47d8 74bb c8e3 763d 99d9 1a3c 89a9 df3c
000000f0: 0191 493e db2e 8b3c 753d ac3c 4a82 f83c
00000100: 3475 89bd ed21 64bc 3b22 7cbc 71af bb3c
00000110: 74f7 a53d f690 5ebc 8ee2 efbb e286 00bd
00000120: 1a68 3d3d 2dfe 0fbd 6f7f 883c f6a8 84bd
00000130: 1bf2 3ebc c735 b43b 077b aabc 300f 41bb
00000140: c0e1 09be 6663 c73b 751e 2d3a 80d5 b7bc
00000150: 4a61 a73d b5ad a63c b740 a3ba 88af d8bc
00000160: 45bb 573d 0557 03bd 73c4 043c 48ed f8bc
00000170: 5ea6 ec3c d6b0 2ebc 2fb2 b53b a39c 96bd
00000180: 046c 5e3c 2f68 3abd cbdd 0d3c 13cf a3bd
00000190: fdd2 733d 756e da3c 62af 0cbd c191 8dbd
000001a0: 97ec a7bc ca6a e4ba 5252 d7bd 55de 33bc
000001b0: 127f b1bc 9e74 603d 7c82 bf3b 53b8 07bc
000001c0: 5749 0bbd 2dd8 493e 2a2c f93d 9e72 d6bb
000001d0: ba8c ccbc f65b 163a 0f1e 40bc 9db4 09bd
000001e0: e790 8abc 4ab0 bdbc 5bb9 2a3c 08e8 d2bc
000001f0: 028e cebd 1d57 dd3c 87be fa3c 3a00 023c
00000200: 68ea 45ba 24e7 06bd ee4a 13bb 5b53 a63c
00000210: 8952 dabb d213 e9bc 4512 03bd e115 843c
00000220: c8d6 8a3d a6cb 64bd 9b53 a5bd 48f6 083d
00000230: a8e3 13bd 9653 fabc 25c4 60bc ea04 6bbc
00000240: 278b 0cbc 1856 a3bd 5638 72bc 8124 733d
00000250: 37f9 b3bd 6267 15bc 5480 b93b 1cee bf3c
00000260: 028f 013e 86a1 efbb 5879 233f e1b7 b2bc
00000270: b70d 673d 9caa 463c 4efe 42bd b01d 1a3d
00000280: 6158 18bd 8fa2 dabd 222e bdbb 0cd2 e3bc
00000290: f88a 09bd b808 b4bd 8aea 92bd 9052 c3bd
000002a0: aaa4 2bbb 3a54 ed3c e5ea 96bd fe0d 09bd
000002b0: aa3a 94bd e1b4 0abb 82d7 833d 1306 d4bc
000002c0: 11de 0abb 378e 0cbd 50e5 293d 20fb e3ba
000002d0: cd71 77bc ce62 6abc 2df4 c0bc 4ee4 b6bb
000002e0: 1b4f 67bd 6cec 34bd 1677 823a 3c05 223e
000002f0: b569 fdbc acb8 c5bc 95a0 4c3d 0cf3 483d
00000300: c5b5 d6be 51d7 373d 3058 70bc d0b6 65bc
00000310: 034d 083d e484 e0bc 561d 663d 025c b63e
00000320: 6dbd e4bd 69e7 0f3b cc1a 583d b56d f0bc
00000330: be4c e03c f361 f43b da58 013d 1c5e 7e3c
00000340: 2bc1 863c f178 90bd 5c87 0cbd 6160 6bbe
00000350: e00c 11be 2e61 78bc c933 013d 100d 29bd
00000360: 926a 4bbe 1d94 1c3d cc35 4a3e 88e4 57bd
00000370: 4bb1 9cbb 5432 df3c d9dd 24bd 5368 343c
00000380: d887 14bd 1c04 4cbe ba8b 15bd 0f4e 2c3d
00000390: 7caa 79bd 9c7e a43d 17a3 663d e2d2 4dbc
000003a0: 769e 673b d63c a33c ca92 19bd 9dc9 b23e
000003b0: 6dfb 21bd e61d 34bb 79ab 27bd 08f6 303d
000003c0: 23ba b2bc bb73 c2bd 1634 543c 3bd1 a6bd
000003d0: 94b1 9c3d 2387 31bd 4920 713c 696f 4e3d
000003e0: f509 9fba c229 bbbd 5d4f 503c 41f0 30bd
000003f0: 9da3 03be f91e fabc 75ed 0abc 6b2f dc3c

encoder.1.linear.bias f4 [32]
-0.40099183 -0.24462609 -0.117358625 -0.06361887 -0.4088411 -0.041648384 -0.12005914 -0.055847548
-0.030276127 0.08697093 -0.045267373 -0.15384912 0.03640329 0.034577314 -0.047898583 -0.11530376
-0.12821148 -0.07189276 -0.41723302 -0.22990176 0.08475271 0.073347576 0.03158665 0.03083408
-0.25762215 -0.26399872 -0.2796254 -0.07937956 -0.070383415 -0.0833683 -0.20273785 0.03218771
00000000: cd4e cdbe 437f 7abe b859 f0bd 9c4a 82bd
00000010: 9f53 d1be 7f97 2abd 91e1 f5bd 66c0 64bd
00000020: a405 f8bc d11d b23d 486a 39bd a08a 1dbe
00000030: 9e1b 153d f1a0 0d3d 4e31 44bd 6124 ecbd
00000040: df49 03be 833c 93bd 919f d5be 5e6b 6bbe
00000050: d492 ad3d 4137 963d 0161 013d c197 fc3c
00000060: 0de7 83be d72a 87be 0f2b 8fbe c091 a2bd
00000070: 2e25 90bd 00bd aabd 839a 4fbe 43d7 033d

assignment.cluster_centers f4 [11, 32]
-0.65456665 -0.5821001 -0.84638286 -0.99469835 0.55622256 -0.9424311 -0.69377387 -0.013223283
-0.27650967 -1.0027049 0.3320947 -0.9998131 -0.11591938 0.3227101 0.16777162 -0.7921416
-0.943814 -0.85913736 -0.92821574 -1.0052807 -0.19748662 1.0098323 0.16058716 0.8756457
0.9680497 -1.0061476 -1.0091882 1.029264 0.3366762 -0.36335576 -1.0086114 0.9646037
-0.30898032 -0.40309486 -0.73321176 -0.45759642 0.15068361 0.05859862 0.93467593 0.23602787
0.98400176 -1.0013598 -0.6587817 -0.9999876 0.15475619 0.5001585 -0.87865734 -0.28828472
0.51464564 -0.97404736 -0.9684094 1.013212 -0.30161023 -1.0122015 -0.21663533 -0.26299077
-1.006909 1.0179306 0.9841586 -1.0088782 1.0011692 0.113579065 1.0257384 1.0082744
-0.42281023 -0.3737967 0.27679843 -0.9862704 -0.29678524 0.96683085 -0.07593161 0.8050897
-0.27759284 -0.9973537 -0.82446015 -0.9998918 0.08107839 0.14141473 -0.005407076 -0.71635604
0.81934375 -0.5762469 0.6310526 -0.98582697 0.22896783 -1.0093204 -0.48988786 0.73583466
-0.9856526 1.0055734 1.0100044 -1.0073565 1.0015255 0.50620335 -1.0099198 -1.0105587
-0.5015788 -0.5754556 -0.5694217 1.0215012 -0.16009958 -0.76440233 0.035715237 -0.183126
0.4795068 -1.0013075 -0.7779665 -0.99897015 0.7714443 0.77385503 -0.6921594 0.27558386
-0.9490979 -0.50215596 -0.9855692 -0.9679839 0.12643121 1.0224247 0.36489558 0.72876084
-1.0045745 -0.9997363 -1.0134389 -1.0298951 -0.9783295 -0.3788773 -1.0032465 0.99090827
0.49215162 -0.6617038 -0.42730764 -0.59011257 -0.56814235 -0.06965183 -0.47005433 -0.6191967
-0.33071494 1.2762406 0.5465606 -0.9971989 0.23909086 -0.1572058 -0.15270437 0.69288796
-0.59130114 1.091105 -0.7480992 -0.3718925 -0.15810281 0.8179142 -0.072694525 -0.57870305
-0.9023813 -0.6964835 -0.90006804 -1.0683386 -0.8984432 0.26973122 -0.69228154 -1.0434759
-0.16673923 -0.43499836 1.0213686 1.0118334 0.5619104 -0.9620981 1.0130743 -0.9864763
1.00148 -1.0067141 0.93970054 -0.99864334 -0.01610212 -0.84059656 -0.13140318 -0.34120953
0.9633499 -0.9980021 -0.99284744 -0.97765917 -0.5365677 1.0126863 0.9949136 -0.93297166
-1.0058329 -1.0087912 -1.0045404 -1.0143213 -1.0067675 -0.66989714 1.0412345 1.0184405
-0.13373004 -0.2622612 -0.5425298 -1.020214 0.4631504 -0.50440675 -0.2852828 0.13677657
-0.74456704 -1.0105519 0.05551055 -0.999808 -0.3104171 -0.3534545 0.68682975 -0.76903313
0.058721833 -0.5133733 -0.54552984 -0.9939808 -0.01845555 -1.1109235 -0.28663394 -0.028117787
1.0797223 -0.9899005 -0.9877594 1.0905774 0.530423 -0.17304313 -1.0206288 -0.12752609
-0.16821419 -0.8549718 -0.5802584 -1.0335852 -0.48660254 -0.8247696 -0.4431378 -0.6991843
-0.985764 -1.0030403 0.19892123 -1.0000005 -0.48465863 -0.2638362 0.09608088 -0.5421132
0.9871525 -0.81211287 1.1109961 -0.74853575 0.49358618 -0.29640883 0.0947559 -0.8696953
-0.9685633 -0.97808725 1.1066759 -1.0426805 -1.0300164 0.261113 -1.0277747 -1.081917
00000000: ae91 27bf 8304 15bf 8cac 58bf 8da4 7ebf
00000010: 9a64 0e3f 2a43 71bf 2a9b 31bf 78a6 58bc
00000020: ad92 8dbe a258 80bf 5108 aa3e c0f3 7fbf
00000030: 2467 edbd 423a a53e 53cc 2b3e cbc9 4abf
00000040: cb9d 71bf 6df0 5bbf 8c9f 6dbf 0aad 80bf
00000050: ef39 4abe 2f42 813f f670 243e 512a 603f
00000060: 1bd2 773f 72c9 80bf 142d 81bf ecbe 833f
00000070: d360 ac3e c409 babe 2e1a 81bf 45f0 763f
00000080: ab32 9ebe 7362 cebe c4b3 3bbf 144a eabe
00000090: ce4c 1a3e 1b05 703d ec46 6f3f 4ab1 713e
000000a0: 8ae7 7b3f 8f2c 80bf eba5 28bf 30ff 7fbf
000000b0: 6878 1e3e 630a 003f b0ef 60bf 0e9a 93be
000000c0: d1bf 033f 2b5b 79bf aee9 77bf eeb0 813f
000000d0: a86c 9abe d28f 81bf a7d5 5dbe baa6 86be
000000e0: 65e2 80bf 8d4b 823f d1f1 7b3f ec22 81bf
000000f0: 5026 803f 249c e83d 654b 833f 230f 813f
00000100: 957a d8be 4862 bfbe 86b8 8d3e 387c 7cbf
00000110: 3cf4 97be 3a82 773f 0882 9bbd 5c1a 4e3f
00000120: a620 8ebe 9252 7fbf d20f 53bf e9f8 7fbf
00000130: 6d0c a63d 06cf 103e d72d b1bb 1c63 37bf
00000140: 83c0 513f eb84 13bf aa8c 213f 285f 7cbf
00000150: 8b76 6a3e 6931 81bf 95d2 fabe a95f 3c3f
00000160: bb53 7cbf a1b6 803f d347 813f 0ff1 80bf
00000170: fd31 803f 8b96 013f 0d45 81bf fd59 81bf
00000180: 7867 00bf 0f51 13bf 9fc5 11bf 8dc0 823f
00000190: 25f1 23be dfaf 43bf 244a 123d 6285 3bbe
000001a0: ea81 f53e d82a 80bf d028 47bf 82bc 7fbf
000001b0: 607d 453f 5d1b 463f 5c31 31bf 5419 8d3e
000001c0: 14f8 72bf 4b8d 00bf 434e 7cbf cbcd 77bf
000001d0: 2f77 013e d0de 823f 98d3 ba3e 1290 3a3f
000001e0: e695 80bf b8ee 7fbf 5eb8 81bf 9ad3 83bf
000001f0: cd73 7abf 35fc c1be 626a 80bf 2aac 7d3f
00000200: 4cfb fb3e 6c65 29bf 11c8 dabe 9e11 17bf
00000210: c771 11bf 9ea5 8ebd f6aa f0be ad83 1ebf
00000220: 7853 a9be da5b a33f 65eb 0b3f 6d48 7fbf
00000230: 3cd4 743e 8ffa 20be 895e 1cbe 1b61 313f
00000240: 835f 17bf 54a9 8b3f 6e83 3fbf b268 bebe
00000250: b4e5 21be d362 513f dee0 94bd e225 14bf
00000260: 7602 67bf be4c 32bf dc6a 66bf 52bf 88bf
00000270: 6000 66bf 361a 8a3e 5d39 31bf 9e90 85bf
00000280: b0bd 2abe 1bb8 debe 35bc 823f c283 813f
00000290: 5cd9 0f3f 104c 76bf 6bac 813f b689 7cbf
000002a0: 7f30 803f 02dc 80bf 3790 703f 17a7 7fbf
000002b0: 98e8 83bc 5631 57bf 8e8e 06be 04b3 aebe
000002c0: 199e 763f 117d 7fbf 402b 7ebf df47 7abf
000002d0: 805c 09bf b49f 813f a8b2 7e3f 3bd7 6ebf
000002e0: 22bf 80bf 1220 81bf c894 80bf 48d5 81bf
000002f0: c2dd 80bf 617e 2bbf 2c47 853f 425c 823f
00000300: 87f0 08be 1a47 86be 3ce3 0abf 5f96 82bf
00000310: 0d22 ed3e cd20 01bf 9610 92be 280f 0c3e
00000320: f29b 3ebf c459 81bf 085f 633d 6bf3 7fbf
00000330: fdee 9ebe fdf7 b4be 13d4 2f3f 5bdf 44bf
00000340: 4e86 703d 6f6c 03bf d8a7 0bbf 8775 7ebf
00000350: 1830 97bc be32 8ebf afc1 92be 4657 e6bc
00000360: 5734 8a3f 1f6a 7dbf cddd 7cbf 0a98 8b3f
00000370: cdc9 073f 3832 31be f7a3 82bf 3396 02be
00000380: 5740 2cbe 6fdf 5abf d18b 14bf 854c 84bf
00000390: f823 f9be 1a24 53bf f5e2 e2be befd 32bf
000003a0: 085b 7cbf a063 80bf 02b2 4b3e 0400 80bf
000003b0: 2d25 f8be 8a15 87be 0dc6 c43d eec7 0abf
000003c0: 07b6 7c3f a1e6 4fbf 1f35 8e3f 0aa0 3fbf
000003d0: 54b7 fc3e e6c2 97be 620f c23d 5aa4 5ebf
000003e0: c4f3 77bf ed63 7abf 8ea7 8d3f 8e76 85bf
000003f0: 94d7 83bf 9ab0 853e 1f8e 83bf 427c 8abf
