pbmc_result/dec_weight.pth (torch, 523355 bytes, 5 tensors)

encoder.0.linear.weight f4 [64, 2000]
0	0x3a80e0c0	0.0009832606
1	0xbc5d3263	-0.013500783
2	0xbc2eb7af	-0.010663911
3	0xbc65c6a2	-0.0140244085
4	0xbc1becf6	-0.009516945
5	0x3c0606d0	0.008180335
6	0xbbd2599f	-0.006419375
7	0xbc10d020	-0.008838683
8	0xba23e886	-0.0006252605
9	0xbbb9ffbe	-0.005676239
10	0x3b2c6b46	0.0026309057
11	0x39dcdf98	0.0004212826
12	0xbce65bf5	-0.02812002
13	0x3d37e16f	0.044892725
14	0x3c05526b	0.008137326
15	0xba002c96	-0.00048894563
16	0x3bdff834	0.006835008
17	0x3d284674	0.041082814
18	0xba1a3c3a	-0.0005883608
19	0xbc27d164	-0.010242794
20	0xbb1bc610	-0.0023769177
21	0xbbc5db5a	-0.0060381116
22	0x3bc8b93f	0.0061255987
23	0x3afbc9ef	0.0019209961
24	0xbb71eb80	-0.003691405
25	0xbbae8bce	-0.0053267246
26	0xbba6469a	-0.0050743343
27	0x3c470a1e	0.012148408
28	0x3b935702	0.004496456
29	0x3c0679c1	0.008207739
30	0xbba14ed3	-0.0049227267
31	0xbacef3fc	-0.0015789266
32	0xb9663220	-0.00021953182
33	0x3be92733	0.0071152686
34	0xbb8e5949	-0.0043441397
35	0xbcac8e34	-0.021063901
36	0xbbd8c48f	-0.0066152285
37	0xbc427488	-0.0118686035
38	0x3c68407e	0.014175532
39	0x3c0a0684	0.008424405
40	0xbb0c7645	-0.0021432799
41	0xbc9c0fba	-0.019050468
42	0x3c75e1cf	0.01500745
43	0x3b168916	0.0022969893
44	0x3b58a5d6	0.003305783
45	0x3bda5509	0.006662969
46	0xbb251c0f	-0.0025193726
47	0xbc108252	-0.008820133
48	0x3ba77aa2	0.0051110545
49	0xbcdef04a	-0.027214188
50	0xbc2b93a6	-0.010472214
51	0x3c57d056	0.01317223
52	0xbbcdc0d2	-0.0062790895
53	0x3ae0a092	0.0017137697
54	0x3bf18ede	0.0073717674
55	0xbcb111aa	-0.021614868
56	0xbd18c23c	-0.03729461
57	0xbc6e0d2d	-0.014529509
58	0x3c0c65b2	0.008569168
59	0x3bcd8c70	0.006272845
60	0xbd10573d	-0.035239447
61	0xbc705026	-0.014667546
62	0x3afc9371	0.0019270015
63	0xbbce205b	-0.006290478
64	0x3b9b827e	0.0047457805
65	0xbceea927	-0.029133392
66	0xbcc00ee5	-0.023444602
67	0xbc718551	-0.014741258
68	0xbb7a3ed5	-0.0038184423
69	0xbc20a67e	-0.00980532
70	0x3ca82111	0.02052358
71	0xbc702185	-0.014656429
72	0x3d044f3e	0.032302134
73	0xbc02a46b	-0.007973771
74	0xbba20e60	-0.0049455613
75	0xbaa1b847	-0.0012338244
76	0x3b66dffb	0.0035228718
77	0x3ced2704	0.028949268
78	0xbc9ddd40	-0.01927054
79	0x39e91683	0.00044457996
80	0xbc66b068	-0.014080144
81	0x3c2a5483	0.010396126
82	0xbc061cb0	-0.008185551
83	0xbc0b70db	-0.008510794
84	0xbb00e76a	-0.0019669184
85	0xbc2928a9	-0.010324636
86	0xbc236ad0	-0.009974197
87	0xbc35460d	-0.011064065
88	0x3cfdddc6	0.030989539
89	0xbb86d252	-0.0041144276
90	0x3a675580	0.0008824691
91	0x3c796594	0.015221972
92	0xbbdc3f58	-0.0067214184
93	0xbc4eb8f6	-0.01261734
94	0xbbde75f0	-0.0067889616
95	0xb984cb2f	-0.00025328386
96	0xbc4f8930	-0.012666985
97	0x3be541ea	0.006996383
98	0x3d0e128b	0.034685653
99	0xbb8a4be1	-0.0042204713
100	0x3b4e5c05	0.0031487953
101	0x3ba8426d	0.0051348717
102	0xbb8f642a	-0.004375954
103	0xbbd196ac	-0.0063961353
104	0x3c300d65	0.010745381
105	0xba75079f	-0.0009347144
106	0xbd3de6e4	-0.046362773
107	0xbc2f2b61	-0.010691495
108	0x3cf384f6	0.029726487
109	0xbb72f6cf	-0.003707338
110	0x3b9ed92f	0.0048476676
111	0x3c1114ce	0.008855058
112	0x3c34f047	0.011043615
113	0xbc732f09	-0.014842757
114	0x3bdaf82f	0.006682418
115	0xbac8882a	-0.0015299369
116	0x3b1d3a9c	0.0023991233
117	0x392165e6	0.00015392117
118	0x3c4501dc	0.012024369
119	0xb9218c3d	-0.000154064
120	0xbd0eb699	-0.034842107
121	0xbcdb189e	-0.026745137
122	0x3b9ce9a3	0.004788594
123	0xbb86be65	-0.0041120523
124	0xbca1117c	-0.019661658
125	0xbca88ce0	-0.020574987
126	0x3bc9dc44	0.006160291
127	0xbc2e6962	-0.010645242
128	0xbca9d48a	-0.02073123
129	0xbcbe0c94	-0.023199357
130	0xbc06e93c	-0.008234318
131	0xbc90ac5c	-0.017660312
132	0xbbe0ee21	-0.0068643247
133	0xbb07b6dc	-0.0020708358
134	0xbc118543	-0.00888187
135	0x3c2a746e	0.010403736
136	0xba97545b	-0.0011545526
137	0xbc93c4e6	-0.018038224
138	0x3b80fd66	0.0039364574
139	0xbc10a165	-0.008827542
140	0xbbdd55d9	-0.0067546186
141	0x3ad13f8c	0.0015964373
142	0xbbdb8e86	-0.0067003397
143	0x3ba16d6f	0.0049263756
144	0xba417ad0	-0.0007380666
145	0xbcf54bb8	-0.029943332
146	0x3c063b7c	0.008192893
147	0x3b93c28d	0.0045092762
148	0xbc9b4258	-0.018952534
149	0x3b813067	0.0039425376
150	0xbb2bcb2b	-0.0026213627
151	0xbb1e0b98	-0.0024115797
152	0x3c1c5a27	0.009542978
153	0xb6feb983	-7.5913863e-06
154	0xbbcced85	-0.0062539005
155	0x3bec1bc3	0.007205458
156	0xbbbbca91	-0.005730935
157	0xbc8c2349	-0.017106669
158	0xbd04bff1	-0.032409612
159	0x39a54f7d	0.00031530476
160	0xbbdc0f98	-0.006715726
161	0xbc264bd2	-0.010149913
162	0xbb99a6f2	-0.004689091
163	0xbc7e7b0c	-0.015532266
164	0xb993e845	-0.0002821108
165	0xbbae92a9	-0.005327542
166	0xbb767c36	-0.0037610657
167	0xbc0ec310	-0.008713499
168	0xbb845499	-0.004038405
169	0xbca95107	-0.02066852
170	0x3bf052ed	0.0073341043
171	0xbc2aa01a	-0.010414148
172	0xbbf11348	-0.007357035
173	0xbb4bcbce	-0.003109682
174	0xbc1c8f93	-0.009555715
175	0x3c0789f3	0.008272636
176	0xbc724591	-0.014787094
177	0xbad40743	-0.001617648
178	0xbc9a9028	-0.018867567
179	0xbd152e1d	-0.03642093
180	0xbca3c40b	-0.019990942
181	0xbb9320b4	-0.0044899825
182	0xbc5346c5	-0.012895291
183	0xbc27494d	-0.010210347
184	0xbb8fadb9	-0.004384723
185	0xbbe80a5f	-0.0070813145
186	0xbb46827d	-0.003029018
187	0xbc0fcca3	-0.008776817
188	0xbc62355f	-0.01380667
189	0xbce58ee9	-0.028022246
190	0xbc3eba90	-0.01164116
191	0xbbdbda1b	-0.00670935
192	0x3a49d01f	0.0007698554
193	0x3bfdf81a	0.0077505233
194	0xbb722960	-0.003695093
195	0x3bc0ebb9	0.0058874753
196	0xbc47b634	-0.012189437
197	0xba42aec1	-0.0007426553
198	0xbc70e63c	-0.01470333
199	0xbbd84f61	-0.0066012596
200	0x3c21b1e8	0.009869076
201	0x3ba5a56f	0.0050551216
202	0xbae8be7e	-0.0017756966
203	0x3c974da7	0.018469645
204	0xbc7cb855	-0.015424808
205	0xbb53a1b7	-0.0032292434
206	0xbb9aedc1	-0.0047280495
207	0x3bbd879c	0.005783988
208	0x3c9ebd4b	0.019377371
209	0x3a489119	0.0007651016
210	0xbb5de85f	-0.0033860428
211	0xbbc5edb9	-0.0060403016
212	0xbca5a8e9	-0.020222144
213	0xbc213862	-0.009840103
214	0xbbd5efa5	-0.006528812
215	0x3bce34e4	0.006292926
216	0xbd368396	-0.044559084
217	0x3c877bb5	0.01653848
218	0xbd0631d1	-0.032762352
219	0xbc2e06a3	-0.0106216995
220	0xbc7715c4	-0.015080873
221	0x3c5d0d50	0.0134919435
222	0xbcd04bb0	-0.025426716
223	0x3c5f7270	0.013638124
224	0xbb9de5a3	-0.0048186346
225	0xbb950814	-0.004548082
226	0xbb262ce2	-0.0025356342
227	0x3a965caa	0.0011471708
228	0x3c030476	0.007996669
229	0xbc37f230	-0.011227176
230	0xbd406dc2	-0.046979673
231	0xbbbd9b8d	-0.0057863654
232	0xbd09ffea	-0.033691324
233	0x3bb25bdc	0.0054430794
234	0xbc2b88ec	-0.010469656
235	0x3d0be88f	0.034157332
236	0x3c43ff6f	0.011962756
237	0x3c356b7b	0.011072989
238	0x3bec19a1	0.0072052036
239	0x3bbdc456	0.0057912273
240	0xbc639ea9	-0.013892808
241	0xbb067547	-0.002051668
242	0xbacd8df5	-0.0015682565
243	0xbc34b753	-0.011030036
244	0x3cab6404	0.020921715
245	0x3ca84b2e	0.020543661
246	0x3b4297c2	0.0029692505
247	0xbd407930	-0.046990573
248	0xbbe04594	-0.006844232
249	0xb9a7c0c4	-0.00031996344
250	0xbbce17cb	-0.0062894574
251	0xbc3dd51f	-0.011586457
252	0xbc616f48	-0.013759442
253	0xbc966423	-0.018358296
254	0xbc0a4205	-0.008438592
255	0xbc9bc287	-0.019013656

encoder.0.linear.bias f4 [64]
0	0x3f4a5fe1	0.7905255
1	0x3daefbec	0.08544144
2	0x3f3240f4	0.6963036
3	0x3ec86427	0.3913891
4	0xbd3227e6	-0.04349508
5	0x3e80d79c	0.25164497
6	0x3f047efd	0.5175627
7	0x3e8f6981	0.2801018
8	0xbba77962	-0.0051109055
9	0x3f2c7108	0.6735997
10	0x3eb0ec4b	0.34555277
11	0x3df04d29	0.11733467
12	0x3e0a7412	0.1352084
13	0x3ef598ff	0.4796829
14	0x3f1728ea	0.59046805
15	0xbe8d345a	-0.27579004
16	0x3ebc25c5	0.36747566
17	0x3f379993	0.7171871
18	0xbdfe7491	-0.12424577
19	0xbe3da3da	-0.18519536
20	0x3d172eef	0.036909994
21	0x3ee8bc99	0.4545639
22	0x3ec626c4	0.3870145
23	0x3ec76665	0.38945308
24	0xbdbaa5e6	-0.09113674
25	0xbf24aba4	-0.643244
26	0xbd9fd863	-0.07804944
27	0x3e0d176b	0.13778464
28	0x3f149b5e	0.5804957
29	0x3d2737f9	0.040824864
30	0x3f0dd93f	0.55409616
31	0x3b6472a8	0.003485838
32	0x3e44b5c0	0.19209957
33	0x3e130aeb	0.14359634
34	0xbeccbff1	-0.3999019
35	0x3f552538	0.83259916
36	0xbebac0a7	-0.36475107
37	0x3eaaa107	0.3332598
38	0xbf3f782f	-0.7479276
39	0x3db872ce	0.09006272
40	0x3f286e84	0.65793633
41	0x3db62b6b	0.08895
42	0x3ed3d503	0.41373453
43	0x3eeb0a1f	0.4590616
44	0x3f14200d	0.57861406
45	0x3f069c65	0.5258239
46	0x3f1750c5	0.5910762
47	0x3eb4c7fb	0.35308823
48	0x3debcca6	0.11513643
49	0xbd64e570	-0.05588287
50	0x3e1e1c4d	0.15440483
51	0x3d9989b8	0.07496971
52	0x3e96d362	0.29458147
53	0x3f162743	0.5865366
54	0xbed3af5d	-0.4134473
55	0xbc3bebae	-0.011469765
56	0x3f09fd50	0.5390215
57	0x3de7fb86	0.11327271
58	0xbde99130	-0.114046454
59	0xbda6beac	-0.081418365
60	0x3f244189	0.641625
61	0xbe47a442	-0.19496253
62	0x3e69048f	0.22755645
63	0x3e12cc5c	0.1433577

encoder.1.linear.weight f4 [32, 64]
0	0xbe0a8a90	-0.1352942
1	0xbd4d8809	-0.05017856
2	0xbe0cb637	-0.13741384
3	0xbc37f62c	-0.011228126
4	0x3c1c649b	0.009545471
5	0x3db40bfa	0.08791347
6	0x3dee7437	0.1164326
7	0xbe05fa6d	-0.13083811
8	0x3e5e0652	0.21682099
9	0x3ca7145d	0.020395452
10	0xbd2ddc14	-0.04244621
11	0xbd1ce258	-0.038301796
12	0xbdd9459c	-0.1060898
13	0xbd738ae1	-0.059458617
14	0x3c2201cc	0.009888124
15	0xbe2ff6f4	-0.17184049
16	0xbd3b7248	-0.045763284
17	0x3c727fde	0.014800994
18	0x3f00b9b2	0.5028335
19	0xbe546662	-0.20742181
20	0x3e019fe1	0.12658645
21	0x3dfc13f0	0.1230849
22	0xbc5aa01b	-0.013343836
23	0xbccb27da	-0.024799276
24	0xbd9cc105	-0.07654003
25	0x3e9537ae	0.29144043
26	0xbe35f2e3	-0.17768435
27	0x3e55a56f	0.20863889
28	0xbc66ebb1	-0.014094279
29	0x3e6cc6f8	0.23122776
30	0xbd24b7da	-0.040214397
31	0x3e702338	0.23450935
32	0xbcb991d1	-0.022652538
33	0xbe8af827	-0.2714245
34	0xbdfd1a99	-0.12358589
35	0xbde234db	-0.11045238
36	0xbdd801df	-0.10547232
37	0xbe1408e3	-0.14456515
38	0xbe55aae7	-0.20865975
39	0x3cad622e	0.02116498
40	0xbdadf3b0	-0.08493745
41	0x3e289151	0.16461684
42	0x3cb5b11a	0.022179175
43	0x3ea43cc6	0.32077616
44	0xbdfddf1d	-0.12396071
45	0x3cf31d16	0.029676955
46	0xbdf56c00	-0.1198349
47	0xbd704c0e	-0.05866628
48	0xbc2a17b5	-0.010381629
49	0xbaf1a644	-0.0018436392
50	0x3d06fa55	0.03295358
51	0xbd847478	-0.06467527
52	0xbdbecf3f	-0.09316873
53	0x3d38616d	0.045014787
54	0x3de9455b	0.11390182
55	0x3ea69227	0.3253338
56	0xbe1d0ba2	-0.15336469
57	0x3d5a943d	0.053364027
58	0xbd5797d8	-0.052635044
59	0xbe977218	-0.29579234
60	0xbd57aaf5	-0.05265327
61	0xbdde533d	-0.1085572
62	0xbc1e44a1	-0.009659917
63	0x3c0b3b78	0.008498065
64	0xbe47b84d	-0.19503899
65	0xbce709be	-0.028202888
66	0xbdba266d	-0.090893604
67	0xbd20dbfa	-0.039272286
68	0x3c63d4c2	0.013905706
69	0x3d1ed6a0	0.0387789
70	0x3d1bbdb0	0.038022697
71	0x3d520098	0.051270097
72	0xbd2f37d4	-0.04277785
73	0xbca129f9	-0.019673334
74	0x3c058efe	0.008151768
75	0xbc1e2742	-0.0096529145
76	0xbdc35a70	-0.09538734
77	0xbdcf1d1e	-0.101129755
78	0xbb3b2ffa	-0.0028562532
79	0x3ed682b8	0.41896605
80	0xbced56d2	-0.028972063
81	0xbda074dc	-0.07834789
82	0xbc5fbaf6	-0.013655415
83	0x3f071644	0.5276835
84	0x3d4ee408	0.050510436
85	0xbd193281	-0.03740168
86	0x3c95398a	0.018215913
87	0x3cb68e88	0.022284761
88	0x3d3de67e	0.046362393
89	0x3c485e11	0.012229458
90	0xbec345bd	-0.38139144
91	0x3d8ff7ba	0.07029672
92	0xbdc596a6	-0.096478745
93	0xba180207	-0.0005798642
94	0xbd8d462b	-0.06898149
95	0x3c3c8828	0.011507072
96	0xbd17b6cd	-0.037039567
97	0xbeaf65da	-0.34257394
98	0x3f0b9899	0.5452972
99	0x3d4bd7da	0.0497664
100	0x3c200d8c	0.009768855
101	0xbc083dfc	-0.0083155595
102	0xbac5c2ce	-0.0015087964
103	0xbd01ce10	-0.031690657
104	0xbd7fe992	-0.06247861
105	0xbd29119c	-0.04127656
106	0xbd42ef22	-0.047591336
107	0xbdafeeab	-0.08590444
108	0xbd065d89	-0.032804046
109	0xbd7250e0	-0.05915916
110	0xbd7a7bd8	-0.061153263
111	0x3d12baf9	0.035822842
112	0x3d03d548	0.032185823
113	0x3db8d691	0.090253
114	0xbda4ad5d	-0.08040879
115	0xbddda245	-0.10821966
116	0xbd808dec	-0.062770694
117	0x3d2d9d3b	0.042386275
118	0xbd32a8cd	-0.043618012
119	0x3ac836ff	0.0015275179
120	0x3cc0c57d	0.02353167
121	0xbd467c77	-0.048458543
122	0xbcb0f38d	-0.021600509
123	0x3e2c379d	0.1681809
124	0xbdaf0c93	-0.0854732
125	0xbdadc882	-0.084855095
126	0x3c2fe481	0.010735632
127	0xbc320cd3	-0.010867315
128	0xbc93b3f5	-0.018030146
129	0xbc0bcef7	-0.008533231
130	0x3ce7843e	0.0282613
131	0x3bb02280	0.0053752065
132	0x3be4abe1	0.0069784974
133	0x3b7a071d	0.0038151213
134	0x3c4c0349	0.012451955
135	0x3d1c9c28	0.03823486
136	0xbd246191	-0.04013211
137	0x3ad879b0	0.0016515758
138	0xbb89d27e	-0.004206001
139	0xbd129f8d	-0.03579669
140	0x3d285398	0.041095346
141	0x3c9326c2	0.017962817
142	0x3c9223f2	0.017839406
143	0x3da4aa88	0.08040339
144	0x3a097a3f	0.00052443513
145	0xbc6da71f	-0.014505177
146	0xbd361d05	-0.04446127
147	0x3e4ce7d7	0.20010315
148	0xbc0eeb68	-0.008723117
149	0xbda2b7b0	-0.07945192
150	0x3ce0a361	0.027421655
151	0xbc201f18	-0.009773038
152	0xbd0408f8	-0.032235116
153	0x3c219105	0.0098612355
154	0x3cc55f4c	0.024093293
155	0xbca8f784	-0.020625837
156	0x3cea36e7	0.028590633
157	0x3bfb318f	0.00766582
158	0x3d17bf45	0.037047643
159	0xbd15fcb3	-0.036617946
160	0xbd7f1120	-0.06227219
161	0x3e30e06c	0.1727311
162	0x3d22824d	0.039675046
163	0x3d42ec66	0.04758873
164	0x3c8554dc	0.016275816
165	0xbd34433d	-0.044009436
166	0x3c86aa9e	0.016438778
167	0xbc56ccd7	-0.013110361
168	0x3cd005d0	0.025393397
169	0xbd8ab35c	-0.06772491
170	0x3cedddc9	0.02903642
171	0xbdebd74f	-0.11515676
172	0x3d1f7cdf	0.038937446
173	0xbc550835	-0.013002445
174	0xbdcd4d23	-0.10024478
175	0xbc5ab954	-0.01334985
176	0x3c95fb42	0.018308286
177	0x3e0c3a48	0.13694108
178	0xbca98d4f	-0.020697264
179	0xbcf03326	-0.029321264
180	0x3caafb37	0.020871742
181	0x3bf11fe2	0.007358537
182	0xbdf1fc6c	-0.11815724
183	0xbcd97fc9	-0.02655019
184	0xbb361797	-0.0027785057
185	0xbc80032a	-0.015626509
186	0x3bba147a	0.0056787105
187	0x3db02ba5	0.086020745
188	0xbce09ee1	-0.02741951
189	0xbb0188c2	-0.0019765352
190	0x3c8695de	0.016428884
191	0xbc919ae4	-0.017774053
192	0xbd417f24	-0.04724039
193	0xbd10b5a4	-0.035329476
194	0x3de241ac	0.11047682
195	0xbdd1156b	-0.10209163
196	0x3d78a9e4	0.060708895
197	0xbd987e94	-0.07446018
198	0x3d9247f5	0.07142631
199	0xbde4a940	-0.111650944
200	0xbda13343	-0.078711055
201	0xbe2d7ea5	-0.16942842
202	0xbd89f2a8	-0.06735736
203	0xbddbe088	-0.10736185
204	0xbe3c84f2	-0.1841009
205	0xbd4d000c	-0.050048873
206	0x3d98a2da	0.074529365
207	0x3ea6ab0f	0.32552382
208	0xbe8c6be3	-0.2742606
209	0x3cb73438	0.022363767
210	0xbe8c3de4	-0.2739097
211	0x3ea87192	0.32899147
212	0x3f03e686	0.51523626
213	0x3e192c04	0.14958197
214	0x3e51ca96	0.20487437
215	0xbde8247d	-0.113350846
216	0xbd1b0484	-0.037846103
217	0xbeacab94	-0.33724654
218	0xbe47bac4	-0.19504839
219	0x3e526069	0.2054459
220	0xbe749977	-0.23886667
221	0xbdbf4e2c	-0.09341082
222	0xbda47a02	-0.08031084
223	0xbd84f3a7	-0.064917855
224	0xbe20af98	-0.15691984
225	0xbe4cbe9c	-0.19994587
226	0x3f144e53	0.57932013
227	0xbdb7cdb6	-0.08974783
228	0xbdede337	-0.116156034
229	0x3a2fe924	0.0006710461
230	0xbe826e56	-0.25474805
231	0xbe675b6a	-0.22593465
232	0x3bc57372	0.006025725
233	0xbcd95765	-0.02653093
234	0x3ccdd1b2	0.025124405
235	0x3e74a713	0.23891859
236	0xbe00d720	-0.12582064
237	0x3dfe5753	0.124189995
238	0xbd8afbc6	-0.06786303
239	0x3d80a4c8	0.062814295
240	0x3dfa5051	0.122223504
241	0x3e7c2f7a	0.24627486
242	0xbdfbc300	-0.12293053
243	0xbe89d2c5	-0.26918617
244	0xbe10c4da	-0.14137593
245	0xbe1f30ec	-0.15546006
246	0x3c10193a	0.008795077
247	0x3d22c25e	0.039736144
248	0xbe1bade5	-0.15203054
249	0xbe308397	-0.17237698
250	0xbd557a6b	-0.0521187
251	0xbd922c27	-0.07137328
252	0x3c7778f5	0.015104522
253	0xbd5bad39	-0.053631995
254	0xbd79804d	-0.060913373
255	0xbe3e762c	-0.18599766

encoder.1.linear.bias f4 [32]
0	0x3aea7a92	0.0017889312
1	0x3e0391ce	0.12848589
2	0xbddc3719	-0.107526965
3	0x3e69c8b3	0.22830467
4	0xbe18d872	-0.14926317
5	0x3e00a4b2	0.12562826
6	0x3dc94a0a	0.09828575
7	0xbe027b3d	-0.12742324
8	0xbe8deb15	-0.27718416
9	0xbe318af1	-0.17338158
10	0xbdb64f2b	-0.08901819
11	0x3d01628e	0.03158813
12	0xba96d901	-0.0011508764
13	0xbc612aa4	-0.0137430765
14	0xbe125cc1	-0.14293195
15	0xba02bb9b	-0.0004987062
16	0xbe3ae816	-0.18252596
17	0x3e6db32d	0.23212881
18	0x3e2ff27a	0.17182341
19	0xbdeeb5d2	-0.11655773
20	0xbead6a51	-0.33870175
21	0xbd816c61	-0.063195
22	0x3c81cb7e	0.015844103
23	0xbe0a2b76	-0.13493142
24	0xbe08aca4	-0.13347107
25	0xbd082fbc	-0.033248648
26	0x3d205349	0.039141927
27	0x3d7c2875	0.06156202
28	0x3a20fd93	0.0006141301
29	0x3d59ee8b	0.053206008
30	0x3df750bb	0.12075945
31	0x3bda2a4e	0.006657875

assignment.cluster_centers f4 [7, 32]
0	0x3f807c72	1.0037978
1	0xbf3e3420	-0.74298286
2	0xbf545294	-0.82938504
3	0xbf7efe8b	-0.9960715
4	0x3f7d8a96	0.9903959
5	0x3f7c01c5	0.984402
6	0xbf7d9f00	-0.9907074
7	0x3f7b6611	0.98202616
8	0x3d224eaa	0.0396258
9	0xbf0a8d23	-0.5412161
10	0x3f7a6bb7	0.9782061
11	0x3f7e47da	0.99328387
12	0xbf80045e	-1.0001333
13	0x3f808e6b	1.0043463
14	0x3f7ecd26	0.9953178
15	0x3f7ca6ad	0.9869183
16	0x3f2fa87a	0.6861645
17	0x3f0b63b3	0.54449004
18	0xbf7fb99a	-0.9989258
19	0x3f77f1e7	0.9685349
20	0xbf4bf6ad	-0.7967327
21	0x3f79c1c3	0.9756128
22	0xbf7ea4fc	-0.99470496
23	0xbf7bd5ca	-0.9837309
24	0xbf5dbd81	-0.86617285
25	0x3f80d398	1.0064573
26	0x3f7c214e	0.9848832
27	0x3f7e3d3d	0.9931219
28	0x3f801548	1.0006495
29	0xbf76ada3	-0.963587
30	0xbf7f7dd0	-0.9980135
31	0x3f7de483	0.99176806
32	0xbf806a67	-1.0032471
33	0x3f80c806	1.0061042
34	0x3f7fb6f0	0.99888515
35	0x3f805166	1.0024841
36	0xbf803c30	-1.0018368
37	0x3f80939d	1.0045048
38	0x3f80c62e	1.006048
39	0xbf8085a3	-1.0040783
40	0xbf19aaf6	-0.6002649
41	0xbf7e7f90	-0.99413395
42	0xbf8093f7	-1.0045155
43	0xbf80acca	-1.0052731
44	0x3f80fb2e	1.0076654
45	0xbf8067b6	-1.003165
46	0xbf80c604	-1.006043
47	0xbf80a008	-1.0048838
48	0xbf732043	-0.949711
49	0xbf80c464	-1.0059934
50	0x3f760611	0.96103007
51	0xbeb65350	-0.35610437
52	0xbe387239	-0.18012322
53	0xbf80779f	-1.0036505
54	0xbf7fac49	-0.9987226
55	0x3f6acb7a	0.9171673
56	0x3f7e963f	0.9944801
57	0xbf805590	-1.0026112
58	0xbf80bf8c	-1.0058455
59	0xbf808944	-1.004189
60	0xbf80889e	-1.0041692
61	0x3e9639a1	0.29340842
62	0x3f80df71	1.0068189
63	0xbf80971d	-1.0046116
64	0xbf80cd5a	-1.0062668
65	0xbf81ed97	-1.0150632
66	0xbea2e63c	-0.3181628
67	0xbf81fa1b	-1.0154451
68	0x3f83e96b	1.0305609
69	0xbf831bd9	-1.0242873
70	0xbf80fd9e	-1.0077398
71	0xbd894ef2	-0.06704511
72	0x3d2259f6	0.039636575
73	0xbf56f722	-0.83970845
74	0xbf83959f	-1.0280036
75	0xbf84839d	-1.0352665
76	0xbf819dff	-1.0126342
77	0xbf834b65	-1.0257384
78	0x3f82d216	1.0220363
79	0x3f838d13	1.0277427
80	0xbecc49ab	-0.39899954
81	0x3f6c1874	0.9222481
82	0x3f84e58e	1.0382555
83	0xbe8daeb8	-0.27672362
84	0xbf66a5e5	-0.90096885
85	0x3edbf120	0.429574
86	0x3f8711dc	1.0552325
87	0xbf79609b	-0.97413033
88	0xbeb9a682	-0.36259848
89	0xbf83b441	-1.0289384
90	0x3f8294c9	1.0201656
91	0xbe020306	-0.12696466
92	0x3e44f1f3	0.19232921
93	0x3f80d364	1.0064511
94	0xbf816a1b	-1.0110506
95	0x3ec993f9	0.39370707
96	0xbf8136e9	-1.0094882
97	0xbf2c8ddb	-0.67403954
98	0xbf1bdda3	-0.60885066
99	0xbf813f8f	-1.0097522
100	0xbf82cab0	-1.0218105
101	0xbf83d76d	-1.0300118
102	0xbe2544f4	-0.16139585
103	0xbe9cfbb4	-0.30660784
104	0x3f0a7aad	0.5409344
105	0x3f83b94a	1.0290921
106	0x3f829e6e	1.0204599
107	0x3f829525	1.0201765
108	0xbf8167a3	-1.0109752
109	0xbf8340a7	-1.0254105
110	0x3e9b5b00	0.30342865
111	0xbf3a5a8c	-0.72794414
112	0x3f820b95	1.0159785
113	0x3f74ea3f	0.9566993
114	0xbf826213	-1.018618
115	0xbf81ec9e	-1.0150335
116	0x3f82ac23	1.0208782
117	0xbec4e354	-0.38454688
118	0xbf7e0468	-0.99225473
119	0xbec748c3	-0.389227
120	0xbde17f45	-0.11010603
121	0xbf834268	-1.025464
122	0x3f81b680	1.013382
123	0x3f8046c5	1.0021597
124	0xbf83fd83	-1.0311741
125	0xbf81061f	-1.0079993
126	0xbf81847d	-1.0118557
127	0xbe95bb34	-0.29244387
128	0xbf823546	-1.0172508
129	0xbf89b40b	-1.075807
130	0x3f6afc61	0.9179135
131	0xbf82ae1c	-1.0209384
132	0x3f896ea3	1.0736889
133	0xbf8b8078	-1.089858
134	0x3f7a5aa5	0.9779456
135	0xbf7aff72	-0.9804603
136	0xbecf476e	-0.40484184
137	0xbf347a72	-0.70499337
138	0xbf8167f8	-1.0109854
139	0xbf81715f	-1.0112723
140	0xbf8995ef	-1.0748881
141	0xbf81d979	-1.0144492
142	0xbf84eb31	-1.0384275
143	0xbf83a344	-1.02842
144	0xbf6df437	-0.9295077
145	0xbf81e35f	-1.0147513
146	0x3f5d970d	0.8655861
147	0xbf2b5f24	-0.6694205
148	0x38db9c5a	0.000104718565
149	0xbf82c92b	-1.0217642
150	0x3f8bb75a	1.091533
151	0x3f330e77	0.69943947
152	0x3f7ddeb3	0.9916794
153	0xbf818a0b	-1.0120252
154	0xbf80d6f9	-1.0065604
155	0xbf82bcf5	-1.0213915
156	0xbf82f1ab	-1.0230001
157	0x3eb3a416	0.35086125
158	0x3f857d5e	1.0428884
159	0xbf81e3bf	-1.0147628
160	0x3f83b380	1.0289154
161	0xbf52f2aa	-0.82401526
162	0xbf65a365	-0.89702445
163	0xbf743df5	-0.9540704
164	0xbf850822	-1.0393107
165	0xbf7b50af	-0.9816999
166	0xbf7bd288	-0.9836812
167	0x3f7a5982	0.9779283
168	0x3f0680a8	0.52540064
169	0xbf46d9f7	-0.7767634
170	0x3db44c0d	0.08803568
171	0x3f4d4c78	0.8019481
172	0xbf817730	-1.0114498
173	0x3f83076a	1.0236638
174	0x3f80cd98	1.0062742
175	0xbf82459b	-1.0177492
176	0xbf06d494	-0.5266812
177	0x3f0aae5b	0.54172295
178	0xbf806380	-1.0030365
179	0xbf08540b	-0.5325324
180	0xbf2b3fb9	-0.6689411
181	0xbec996bf	-0.39372823
182	0xbf7d37ed	-0.9891346
183	0x3f79bf12	0.97557175
184	0xbf4d85b5	-0.80282146
185	0x3f7b01aa	0.98049414
186	0xbf844eb6	-1.0336521
187	0xbf83c106	-1.0293281
188	0x3f80cdb6	1.0062778
189	0xbf41873f	-0.75596994
190	0xbf80e7da	-1.0070755
191	0x3f447e5d	0.76755315
192	0x3f878150	1.0586338
193	0xbf250c80	-0.644722
194	0xbf438043	-0.76367587
195	0x3f8fde2e	1.1239679
196	0xbf71ff81	-0.94530493
197	0xbdcbb4b4	-0.09946576
198	0x3e903964	0.28168786
199	0xbf3941c7	-0.72365993
200	0x3f32db1f	0.698656
201	0xbf23e9d1	-0.6402865
202	0x3f725ffc	0.9467771
203	0xbe7f2547	-0.24916564
204	0xbf774587	-0.96590465
205	0xbf80ed3d	-1.0072399
206	0xbf8a29a5	-1.0793959
207	0x3f04b780	0.518425
208	0xbf575285	-0.8411029
209	0x3ead0eed	0.3380045
210	0xbf84abb9	-1.0364906
211	0xbe905e09	-0.28196743
212	0xbed397b2	-0.41326672
213	0x3f76ae44	0.9635966
214	0x3f29b4f5	0.66291744
215	0xbf3215f8	-0.6956477
216	0xbf0300f9	-0.5117336
217	0x3f8d661f	1.104679
218	0xbf7d922a	-0.99051154
219	0x3f7033a0	0.93828773
220	0xbf4ee42d	-0.8081692
221	0xbf22d5fa	-0.6360775
222	0xbf47b396	-0.780084
223	0xbf5fc832	-0.8741485
