macaque_result/ae_weights.pth (torch, 535695 bytes, 8 tensors)

encoder.0.linear.weight f4 [64, 1000]
-0.06965831 0.06097837 -0.055246204 0.0060853893 -0.051893927 0.0136535205 0.03240243 0.03364651
0.05425369 0.0022091435 -0.01572817 0.009034492 0.024297995 0.027235188 -0.03884062 -0.06674836
0.01772482 -0.0009707322 0.00081902725 -0.011623387 0.013460989 0.0054060067 0.0017557299 0.0019629707
0.032205805 0.00235788 -0.0005997411 -0.03245103 -0.03786883 0.003927439 0.029387288 0.022578297
-0.007595971 -0.011771793 0.045573212 0.015726812 0.007974497 0.018632691 -0.0063691325 0.010784557
-0.019583058 0.0014146201 -0.030415967 -0.014495176 0.0098729255 -0.015425073 0.02409084 0.013384436
0.024071554 -0.0068459827 -0.05610956 0.024925932 -0.004715636 -0.066587895 0.0047635087 0.060682718
0.0012310053 -0.047847666 -0.07083949 0.039424405 0.013180208 0.015977325 0.0072467946 0.050017577
0.025766082 -0.0073399004 -0.07188223 0.029286137 -0.06810129 0.012827137 -0.03878744 -0.020578448
-0.05113065 0.037395123 0.022553613 -0.063455306 -0.06377323 -0.015700072 -0.039650913 -0.011289345
-0.00042110655 -0.013540316 -0.073745064 -0.0068333657 0.034285974 0.0224943 0.012341748 -0.041057207
0.00023336867 0.047372025 -0.005851796 0.02273472 0.02192315 0.036746107 -0.05780285 0.008221596
-0.0038822023 0.013466685 -0.046473023 -0.024224166 -0.039237786 0.051380754 0.0054228017 -0.053047106
0.059541862 -0.002749395 -0.06782217 0.023665393 0.033638082 -0.021760875 -0.07540817 -0.013577369
-0.012854091 0.029894987 0.009806083 -0.048119664 -0.031541366 -0.02627251 -0.016809 -0.025273368
0.03861416 0.051168673 -0.00082717807 0.011187168 0.008297408 -0.056258213 -0.03517475 0.03663008
0.01984699 0.018238144 0.061866716 -0.02605338 0.0072759087 -0.049888458 0.012794215 0.009751943
0.018971505 0.042720806 0.019944435 -0.0070720543 -0.036629483 -0.0047087907 -0.0036893792 0.0030627807
0.043481443 -0.0040853987 0.014522451 0.015729317 0.0070912903 0.0023162852 0.0045462344 0.009488556
0.0120137455 -0.0049594673 0.034769397 -0.0258635 0.0005141242 0.012607055 -0.00023584312 -0.0221859
-0.07601309 0.008979351 0.006541707 0.0069362847 -0.0062689455 -0.026548577 -0.009597404 -0.0028231223
-0.004602995 0.04937062 -0.06836247 9.227392e-05 0.055710334 -0.07364863 0.019105943 0.040851172
0.027418619 0.027752014 -0.0034909397 0.021398349 0.0149548715 -0.0049932394 0.004600917 -0.025257615
0.0037522295 0.036680497 -0.005144273 -0.065542445 -0.059822317 0.009926958 0.010089576 -0.006813029
-0.0057719015 -0.011908682 0.021692222 0.025291702 0.036989562 -0.006155964 -0.0053822417 0.004025868
-0.0020262378 -0.0050774184 0.015799738 -0.015681596 -0.040697742 0.013987784 -0.052594688 0.044713262
0.003047707 0.061177637 0.007732492 0.030249966 -0.013200612 0.004461954 0.023698322 0.018126566
-0.024705725 0.0029816239 -0.0048996145 0.023386905 0.05287334 0.0694123 0.009133963 0.0038828063
0.04475375 0.0044199903 0.022780923 -0.058791235 -0.006818244 0.009010089 0.015547904 0.022219349
0.023918835 0.010501914 -0.015362993 -0.056466784 -0.035766967 -0.02780501 0.019613381 -0.0036870234
-0.014076856 0.009225419 0.029185044 0.053649046 -0.017624957 0.023012146 -0.008942347 -0.03602295
-0.06230161 0.013966454 -0.0072111725 -0.008120452 0.026406243 0.04541407 -0.043709036 0.0055950396
00000000: 04a9 8ebd 75c4 793d d849 62bd f267 c73b
00000010: ba8e 54bd 04b3 5f3c 69b8 043d ecd0 093d
00000020: 1e39 5e3d 47c7 103b 5dd8 80bc 6805 143c
00000030: 970c c73c 541c df3c 5817 1fbd 5db3 88bd
00000040: a433 913c bc78 7eba fdb3 563a 0570 3ebc
00000050: 7b8b 5c3c df24 b13b 8520 e63a 2fa5 003b
00000060: 3cea 033d a986 1a3b f237 1dba 5feb 04bd
00000070: 591c 1bbd bfb1 803b 9cbd f03c 1ff6 b83c
00000080: a0e7 f8bb 7ade 40bc faaa 3a3d 84d5 803c
00000090: 77a7 023c 96a3 983c 28b4 d0bb b6b1 303c
000000a0: a66c a0bc c66a b93a e82a f9bc 2d7d 6dbc
000000b0: 0dc2 213c 72b9 7cbc 275a c53c 654a 5b3c
000000c0: b531 c53c 4454 e0bb 23d3 65bd 7831 cc3c
000000d0: 9f85 9abb 3c5f 88bd 3517 9c3b 718e 783d
000000e0: af59 a13a eafb 43bd 4b14 91bd 7c7b 213d
000000f0: cdf1 573c e1e2 823c 8576 ed3b 3bdf 4c3d
00000100: 6413 d33c 8c83 f0bb fe36 93bd 7be9 ef3c
00000110: b078 8bbd e928 523c 94df 1ebd 2294 a8bc
00000120: 5f6e 51bd a12b 193d 5bc2 b83c dbf4 81bd
00000130: 8a9b 82bd 709d 80bc ff68 22bd f2f6 38bc
00000140: f7c7 dcb9 34d8 5dbc a707 97bd 6dea dfbb
00000150: 736f 0c3d f745 b83c 0b35 4a3c 9a2b 28bd
00000160: 6db4 7439 2b09 423d 6cc0 bfbb 2a3e ba3c
00000170: 2e98 b33c 1683 163d aec2 6cbd dfb3 063c
00000180: 8c6c 7ebb 5fa3 5c3c 7f5a 3ebd c271 c6bc
00000190: cdb7 20bd a074 523d c2b1 b13b ec47 59bd
000001a0: 2be2 733d 322f 34bb 5ae6 8abd eddd c13c
000001b0: 16c8 093d dd43 b2bc 996f 9abd 9d73 5ebc
000001c0: f799 52bc 55e6 f43c b1a9 203c 2019 45bd
000001d0: 8531 01bd 7239 d7bc 07b3 89bc 180a cfbc
000001e0: e229 1e3d 3e96 513d fbd6 58ba 624a 373c
000001f0: daf1 073c 036f 66bd 6613 10bd 6c09 163d
00000200: 2896 a23c 2968 953c f467 7d3d e66d d5bc
00000210: bf6a ee3b d757 4cbd d49e 513c 9dc6 1f3c
00000220: 216a 9b3c 03fc 2e3d 8362 a33c b1bc e7bb
00000230: cc08 16bd 334c 9abb 83c9 71bb efb8 483b
00000240: 9919 323d cfde 85bb 93ef 6d3c c5da 803c
00000250: 0e5e e83b d1cc 173b 94f8 943b e375 1b3c
00000260: 4dd5 443c 0783 a2bb 5b6a 0e3d b1df d3bc
00000270: 4bc6 063a d28d 4e3c a84c 77b9 34bf b5bc
00000280: c0ac 9bbd 211e 133c d15b d63b c649 e33b
00000290: ba6b cdbb 677c d9bc 6e3e 1dbc 2204 39bb
000002a0: b8d4 96bb d938 4a3d 9f01 8cbd 2f83 c138
000002b0: 8530 643d 18d5 96bd 1184 9c3c 8f53 273d
000002c0: 039d e03c 3158 e33c 40c8 64bb 974b af3c
000002d0: 4705 753c 549e a3bb 4ac3 963b 0fe9 cebc
000002e0: f7e7 753b 4a3e 163d 4a91 a8bb 1e3b 86bd
000002f0: 3f08 75bd aea4 223c c04e 253c d43f dfbb
00000300: 3822 bdbb a21c 43bc e3b3 b13c 8b30 cf3c
00000310: 5e82 173d f8b7 c9bb 845d b0bb 6eeb 833b
00000320: a1ca 04bb 7960 a6bb 746e 813c b176 80bc
00000330: adb2 26bd 052d 653c 876d 57bd 4125 373d
00000340: 0abc 473b 6795 7a3d d860 fd3b c7ce f73c
00000350: 6147 58bc 9535 923b fc22 c23c 2a7e 943c
00000360: a963 cabc 5967 433b f28c a0bb e595 bf3c
00000370: b791 583d 0928 8e3d 9ea6 153c ae76 7e3b
00000380: b54f 373d 91d5 903b 0f9f ba3c 14cf 70bd
00000390: 936b dfbb 0d9f 133c a3bc 7e3c 5a05 b63c
000003a0: 6ff1 c33c 3810 2c3c 10b5 7bbc b749 67bd
000003b0: 6280 12bd 55c7 e3bc 3eac a03c fda1 71bb
000003c0: 9da2 66bc 3626 173c 7915 ef3c 1abf 5b3d
000003d0: 3762 90bc f883 bc3c ec82 12bc cd8c 13bd
000003e0: f92f 7fbd 8ed3 643c b34b ecbb a50b 05bc
000003f0: e851 d83c 1b04 3a3d 3f08 33bd 9856 b73b

encoder.0.linear.bias f4 [64]
0.5152292 0.552898 0.71481055 0.67057973 0.764682 0.87592727 0.911529 0.7024661
0.49861935 0.77827466 0.7333359 0.6833525 0.7506204 0.70393133 0.5912354 0.9168918
0.64382464 0.8774849 0.6195507 0.63810474 0.6757926 0.68205553 0.74115103 0.58311975
0.47002587 0.8263849 -0.26222938 0.7981339 0.7737694 0.70814764 0.8681301 0.720313
0.73098856 0.5228428 0.8255782 0.60589725 0.7411615 0.45312956 0.7243448 0.6693302
0.65207887 0.33200365 0.7836175 0.83492553 0.6749659 0.89206797 0.7910111 0.76382685
0.5859601 0.8153528 0.7080746 0.7621745 0.7887901 0.70168966 0.4112536 0.45974016
0.72454816 0.8701669 0.75871855 0.9021115 0.6744331 0.76100117 0.69380486 0.71563256
00000000: 10e6 033f b98a 0d3f d3fd 363f 1dab 2b3f
00000010: 33c2 433f c53c 603f f759 693f d1d4 333f
00000020: 094b ff3e 023d 473f e7bb 3b3f 30f0 2e3f
00000030: a928 403f d834 343f 345b 173f 6cb9 6a3f
00000040: b1d1 243f daa2 603f e09a 1e3f d55a 233f
00000050: be00 2d3f 319b 2e3f 13bc 3d3f 5647 153f
00000060: 3ba7 f03e f68d 533f ee42 86be 8152 4c3f
00000070: c015 463f 2a49 353f c63d 5e3f 6f66 383f
00000080: 1122 3b3f 07d9 053f 1859 533f 151c 1b3f
00000090: c3bc 3d3f 9900 e83e a96e 393f 3959 2b3f
000000a0: a4ee 263f 62fc a93e 289b 483f aebd 553f
000000b0: 91ca 2c3f 915e 643f b47f 4a3f 288a 433f
000000c0: 7b01 163f f6ba 503f 6144 353f de1d 433f
000000d0: 26ee 493f efa1 333f d58f d23e 1063 eb3e
000000e0: fd7b 393f 42c3 5e3f 613b 423f c7f0 663f
000000f0: a6a7 2c3f f9d0 423f 329d 313f b233 373f

encoder.1.linear.weight f4 [32, 64]
0.023465449 -0.023662949 0.016946774 0.046120863 0.099457346 -0.064100556 -0.069558635 0.018593999
0.0043672225 0.040023863 0.13697018 -0.061544187 0.08284622 0.02986244 -0.047053568 0.024125943
0.034179956 0.03156353 0.049748693 -0.028030396 -0.010246939 0.023774117 -0.033610858 0.0039199693
0.0023203949 -0.053376403 0.015767979 0.02904923 0.022707155 0.0039075753 -0.10615408 -0.056711808
-0.053120185 -0.0081015015 -0.09818328 0.13173945 -0.05274148 -0.043118443 0.025047647 0.029979628
-0.005964043 -0.0027563241 -0.028489258 -0.0295255 0.0149226235 -0.07153822 -0.017812455 0.22665358
-0.045284245 -0.024516415 0.0625664 -0.031656325 -0.05588986 0.08047523 0.034997556 0.0033354214
-0.021859786 0.1284574 0.001065329 0.051302038 0.01792279 0.042109355 0.028602429 -0.0014218797
-0.0326156 -0.039223697 -0.028344383 0.05512334 0.108845174 -0.029379483 0.081117615 -0.032720756
-0.01414087 -0.058050726 0.051062103 -0.0942685 -0.0035967866 0.038706586 0.041462038 -0.004579987
-0.035921328 -0.036630046 -0.025566978 -0.044231802 0.011890059 0.011863651 0.025721947 0.005319775
0.030480789 -0.07645092 0.009754461 -0.03737357 0.019097582 -0.01539853 -0.007274432 -0.15320687
0.014002081 -0.00080847373 0.026059039 -0.013530542 0.12984143 -0.017379167 -0.024114307 -0.0046024406
0.00084556185 0.013810225 -0.05371757 -0.042514723 -0.029098647 0.012261987 0.001405346 0.016841201
-0.05985134 0.21630642 -0.04695695 -0.013275954 0.036732607 -0.028238645 -0.027758094 0.014744268
0.04234874 -0.109276265 0.0024785774 0.0050728684 -0.030828083 0.023367971 0.019182947 -0.01036395
-0.052491248 -0.072325565 -0.05839491 0.074691005 -0.030777838 -0.043118834 0.029984511 -0.009162684
0.0034678015 -0.049228247 -0.011145916 0.06922961 -0.0051449216 -0.0337539 0.011099396 -0.01463126
-0.042514548 -0.092710346 -0.020621967 -0.016597765 -0.05821205 -0.056065053 -0.013655905 -0.014826816
-0.044662274 0.028376473 0.31078157 -0.019876704 -0.010836525 0.027949255 0.013672425 0.03381741
-0.08317361 -0.040140368 0.09576623 -0.031544227 -0.0021185477 -0.017095797 -0.008788982 -0.044701047
-0.037173174 0.04740101 -0.027511962 -0.023848113 -0.026951427 -0.00050506607 -0.05151729 0.02686739
-4.362487e-05 -0.014167528 0.0091686575 -0.020329759 -0.09778493 -0.0038928806 0.07496033 0.025021689
-0.06197558 -0.0027640439 0.04277099 0.376759 -0.00044877443 0.009734176 0.029996488 0.011066102
-0.064451456 0.03552388 -0.035054717 -0.0125325965 0.10673062 -0.02834815 0.015281515 0.14631273
-0.011718923 -0.054369498 0.023741331 -0.042692374 -0.009216782 0.039983965 0.04658287 -0.007809706
0.0058882874 -0.03530785 -0.04533607 -0.07405724 -0.05383002 -0.0205964 0.0103907455 0.063317366
0.0073209694 0.024468753 -0.0504628 -0.06957824 -0.02176276 -0.022268094 -0.048227224 0.04103192
-0.0586475 -0.014872355 -0.042616904 0.0010491839 -0.10778827 -0.008198499 0.012679444 -0.02540161
-0.019728117 0.029455014 -0.024064822 0.25145772 0.03834776 -0.024270745 -0.054690566 0.025190575
-0.036848065 -0.043902103 -0.01838196 -0.06493389 0.0678582 0.013351199 0.015710358 0.014795398
-0.008231153 -0.08190068 0.014894994 -0.009560966 -0.054297097 -0.022696968 0.05906941 0.04840156
00000000: 9d3a c03c cdd8 c1bc f6d3 8a3c 3be9 3c3d
00000010: 4bb0 cb3d 2747 83bd c274 8ebd 7152 983c
00000020: eb1a 8f3b 10f0 233d e941 0c3e c215 7cbd
00000030: 47ab a93d 13a2 f43c 3ebb 40bd c5a3 c53c
00000040: 4800 0c3d c348 013d 49c5 4b3d 00a0 e5bc
00000050: c7e2 27bc f0c1 c23c 8aab 09bd 1673 803b
00000060: c411 183b 37a1 5abd d92b 813c a7f8 ed3c
00000070: 5b04 ba3c 1e0b 803b 4f67 d9bd a44a 68bd
00000080: 8d94 59bd 29bc 04bc 5114 c9bd b5e6 063e
00000090: 7307 58bd f79c 30bd b930 cd3c d697 f53c
000000a0: 056e c3bb 72a3 34bb 4e62 e9bc 76df f1bc
000000b0: 057e 743c a182 92bd 6deb 91bc e017 683e
000000c0: f97b 39bd a6d6 c8bc d022 803d 10aa 01bd
000000d0: c4ec 64bd 33d0 a43d 9959 0f3d 1697 5a3b
000000e0: 4b13 b3bc 568a 033e 82a2 8b3a 1622 523d
000000f0: d1d2 923c dc7a 2c3d a44f ea3c 5e5e baba
00000100: ef97 05bd 07a9 20bd 7b32 e8bc 03c9 613d
00000110: 38ea de3d 3ead f0bc fe20 a63d 3306 06bd
00000120: 1caf 67bc 99c6 6dbd 7f26 513d d80f c1bd
00000130: 11b8 6bbb cc8a 1e3d 19d4 293d b713 96bb
00000140: 3e22 13bd 6309 16bd d771 d1bc 682c 35bd
00000150: 86ce 423c c25f 423c d5b6 d23c 8251 ae3b
00000160: d9b2 f93c 4d92 9cbd 2dd1 1f3c 0715 19bd
00000170: 8872 9c3c 1e4a 7cbc 5c5e eebb 43e2 1cbe
00000180: fc68 653c c1ef 53ba c479 d53c 35af 5dbc
00000190: 27f5 043e c15e 8ebc 5e8b c5bc 12d0 96bb
000001a0: b2a8 5d3a 4844 623c f406 5cbd eb23 2ebd
000001b0: 4960 eebc 80e6 483c 9633 b83a 8ff6 893c
000001c0: ae26 75bd 6e7f 5d3e ee55 40bd 6383 59bc
000001d0: ee74 163d bb54 e7bc f164 e3bc f191 713c
000001e0: df75 2d3d 3ccc dfbd a16f 223b 4e3a a63b
000001f0: 2d8b fcbc 306e bf3c 8e25 9d3c 8fcd 29bc
00000200: 1001 57bd 6d1f 94bd 802f 6fbd 99f7 983d
00000210: ce21 fcbc 609d 30bd 14a2 f53c 151f 16bc
00000220: 0e44 633b 8fa3 49bd 5c9d 36bc 41c8 8d3d
00000230: bb96 a8bb 8841 0abd 3eda 353c f4b7 6fbc
00000240: bc23 2ebd ecde bdbd 66ef a8bc 09f8 87bc
00000250: c26f 6ebd 78a4 65bd 04bd 5fbc 2cec 72bc
00000260: caef 36bd c775 e83c c31e 9f3e 78d4 a2bc
00000270: ae8b 31bc d6f5 e43c 4f02 603c 2084 0a3d
00000280: ed56 aabd 3a6a 24bd 1621 c43d 8534 01bd
00000290: 55d7 0abb 7c0c 8cbc aaff 0fbc 7218 37bd
000002a0: e642 18bd 9027 423d c460 e1bc 1e5d c3bc
000002b0: 3dc9 dcbc 6966 04ba cb03 53bd 0019 dc3c
000002c0: d9f9 36b8 eb1e 68bc 2338 163c 988a a6bc
000002d0: 7743 c8bd b31f 7fbb cd84 993d 49fa cc3c
000002e0: 1bda 7dbd f624 35bb a230 2f3d 8ee6 c03e
000002f0: 7c49 ebb9 187c 1f3c 32bb f53c 994e 353c
00000300: 20ff 83bd 7d81 113d 8995 0fbd 8555 4dbc
00000310: 9595 da3d 613a e8bc 525f 7a3c 01d3 153e
00000320: ba00 40bc 8db2 5ebd 2e7d c23c 33de 2ebd
00000330: fc01 17bc 3ac6 233d aecd 3e3d 90e8 ffbb
00000340: 89f2 c03b f79e 10bd 51b2 39bd 52ab 97bd
00000350: de7c 5cbd c8b9 a8bc f23d 2a3c 89ac 813d
00000360: bee4 ef3b b272 c83c 15b2 4ebd 097f 8ebd
00000370: d147 b2bc 946b b6bc e989 45bd 1611 283d
00000380: 5c38 70bd 2eab 73bc 108f 2ebd c584 893a
00000390: 19c0 dcbd ff52 06bc 71bd 4f3c 0a17 d0bc
000003a0: dc9c a1bc a44b f13c 9723 c5bc 11bf 803e
000003b0: 8a12 1d3d 71d3 c6bc 3703 60bd 775c ce3c
000003c0: ffed 16bd b1d2 33bd c495 96bc 0ffc 84bd
000003d0: 3df9 8a3d fdbe 5a3c 02b3 803c 6668 723c
000003e0: f5db 06bc 8bbb a7bd 220a 743c 99a5 1cbc
000003f0: a266 5ebd feee b9bc c4f2 713d b740 463d

encoder.1.linear.bias f4 [32]
-0.41684085 -0.22628406 -0.044914313 -0.076029 -0.4862367 -0.02423677 -0.11323632 -0.05522186
-0.018346155 0.14154924 -0.0016378303 -0.1534321 0.03487004 0.029842773 -0.028474893 -0.10568336
-0.16657406 -0.048286296 -0.40140378 -0.19442673 0.10383061 0.07999175 0.057555765 0.042529214
-0.24601293 -0.22955213 -0.26719365 -0.0384551 -0.06678928 -0.107264824 -0.16738886 0.012583126
00000000: 2a6c d5be 02b7 67be 12f8 37bd 18b5 9bbd
00000010: 04f4 f8be 318c c6bc 72e8 e7bd 5130 62bd
00000020: ad4a 96bc 49f2 103e 77ac d6ba 4e1d 1dbe
00000030: e3d3 0e3d d578 f43c 2e44 e9bc 8470 d8bd
00000040: 6492 2abe dac7 45bd cc84 cdbe cd17 47be
00000050: 25a5 d43d b7d2 a33d 98bf 6b3d 1d33 2e3d
00000060: d0ea 7bbe b70f 6bbe 9bcd 88be 1883 1dbd
00000070: d1c8 88bd a9ad dbbd fc67 2bbe 7529 4e3c

decoder.0.linear.weight f4 [64, 32]
-0.04640673 -0.099897705 -0.22036004 -0.5601143 0.14119947 -0.19848998 -0.22874907 -0.21564052
-0.4635198 -0.1876959 0.31631637 0.2578114 -0.06558917 -0.12741493 0.17412432 -0.21573825
0.23269758 -0.07597935 -0.021502094 -0.15520802 0.11937555 0.248041 0.019727074 -0.10371461
1.0444409 -0.53707033 -0.013038212 0.718396 0.06403874 0.15829578 -0.3459274 -0.265297
-0.17226392 0.09822902 -0.34444508 -0.09755641 0.08738127 0.6876903 -0.22596526 -0.19514331
0.08526454 -0.15731782 0.021297514 0.19233114 -0.13761744 -0.0051618586 0.43338114 -0.18588021
-0.3595186 -0.027332833 -0.1703992 -0.039098375 -0.12606344 -0.119445674 0.29077053 -0.12334779
-0.28835154 -0.13985738 -0.057334617 -0.2690536 0.11749713 0.09975735 0.025450941 0.07262051
0.24502388 -0.44519633 -0.025307385 -0.166398 0.42987916 -0.09266594 -0.113244504 -0.088005796
-0.17194468 0.14850813 -0.12797062 -0.36089092 0.30172378 0.07127229 -0.045538407 0.113627106
-0.004777887 -0.13995844 0.977938 0.13905606 0.34438667 0.2804887 0.2886219 -0.30743104
-0.13896799 -0.18031523 0.1196745 -0.011989548 0.06384311 0.48633686 -0.09996219 0.2864338
0.12607186 0.12258145 0.44965687 -0.050075036 0.22143391 -0.17247443 0.09383162 -0.060778625
-0.13484758 0.029807232 -0.26787305 -0.23345314 -0.12346185 -0.029516581 -0.018452715 -0.03666558
0.27036658 -0.108786434 -0.044107776 -0.28632808 -0.0665191 0.17371638 0.060815107 -0.32559878
-0.07246894 0.5689846 -0.16663115 -0.08138925 -0.02559282 0.47487646 0.20854098 0.27353466
0.3313691 0.85175776 -0.12736554 0.2679591 0.29737592 -0.21596049 -0.09916061 -0.27589542
-0.1932959 -0.22492236 0.020087484 -0.52340883 -0.30529085 -0.3250985 0.08211945 0.0106347315
-0.22854805 0.116152465 0.76298314 -0.030297782 0.42937508 -0.37883595 -0.28575104 0.18062964
-0.36718643 -0.16860226 -0.16119257 -0.18414338 0.17776416 0.43439236 -0.015704961 -0.023930982
-0.42029834 -0.2348846 -0.107235186 -0.2776048 0.65461785 -0.016381778 -0.48670125 -0.16259705
-0.11776523 0.22841646 -0.018370887 -0.31772903 -0.22323354 0.5594905 0.25476685 0.9906105
0.2995507 0.004107448 -0.18108156 0.016526463 0.04329858 -0.4324459 0.069734104 0.1665423
-0.14505085 0.03427005 -0.20630737 -0.15963945 -0.06920313 -0.083351955 0.07925708 -0.33052874
-0.19589554 0.09312945 0.015795337 -0.059895027 -0.06051447 -0.16844001 0.18981166 -0.5843845
-0.19768727 -0.16089 -0.24096324 -0.48060498 -0.08894653 0.10395275 -0.012536473 0.0083567565
-0.19744848 -0.02464081 -0.32734674 -0.24638769 0.27767986 -0.10418454 -0.24719232 -0.43772924
-0.084550634 0.0429575 1.8338382 -0.030541027 0.15122373 -0.14478432 -0.13879746 0.11155386
0.26885444 -0.14263703 -0.12707087 1.3568871 0.08176224 -0.33567128 -0.32226342 -0.22070055
-0.20480111 -0.23013099 -0.4376535 0.06791687 -0.22154395 0.11926287 -0.13592187 -0.28355095
-0.08473172 -0.14284235 -0.2035295 -0.064643145 0.05491679 0.4369918 0.15161481 0.004771376
-0.054521784 -0.37259364 -0.23819226 -0.41574782 -0.075712025 -0.20284274 0.08430541 -0.051097598
00000000: fc14 3ebd 2b97 ccbd 10a6 61be a763 0fbf
00000010: 9896 103e f540 4bbe 323d 6abe ded0 5cbe
00000020: 7852 edbe 5b33 40be 38f4 a13e dbff 833e
00000030: 9d53 86bd 0f79 02be a54d 323e 7dea 5cbe
00000040: 4648 6e3e 109b 9bbd 2925 b0bc daee 1ebe
00000050: 2b7b f43d 76fe 7d3e ac9a a13c 5368 d4bd
00000060: 3db0 853f 717d 09bf 3a9e 55bc cde8 373f
00000070: be26 833d 4a18 223e 651d b1be 02d5 87be
00000080: f465 30be 4c2c c93d 1b5b b0be a8cb c7bd
00000090: f4f4 b23d 790c 303f 7063 67be a6d3 47be
000000a0: 2d9f ae3d ec17 21be 2078 ae3c 74f2 443e
000000b0: 96eb 0cbe cf24 a9bb 22e4 dd3e 6257 3ebe
000000c0: d212 b8be 1be9 dfbc 217d 2ebe 9e25 20bd
000000d0: c616 01be ef9f f4bd e0df 943e c49d fcbd
000000e0: d0a2 93be c636 0fbe b4d7 6abd 65c1 89be
000000f0: 56a2 f03d 954d cc3d 7e7e d03c 10ba 943d
00000100: 8ae7 7a3e c6f0 e3be 6f51 cfbc 3d64 2abe
00000110: 1f19 dc3e a4c7 bdbd bcec e7bd 623c b4bd
00000120: 4412 30be 8412 183e bb0a 03be b2c6 b8be
00000130: 8a7b 9a3e 35f7 913d 7b86 3abd 54b5 e83d
00000140: d28f 9cbb 4451 0fbe 255a 7a3f b664 0e3e
00000150: 7353 b03e 379c 8f3e 40c6 933e 9a67 9dbe
00000160: a04d 0ebe 8ea4 38be e717 f53d cf6f 44bc
00000170: 2dc0 823d 2501 f93e fab8 ccbd 73a7 923e
00000180: fb18 013e fc0b fb3d 6d39 e63e 7b1b 4dbd
00000190: 92bf 623e 239d 30be cb2a c03d 02f3 78bd
000001a0: 7c15 0abe 4c2e f43c a826 89be 570e 6fbe
000001b0: 91d9 fcbd c2cc f1bc 262a 97bc a62e 16bd
000001c0: 7d6d 8a3e 6ccb debd 5baa 34bd 9899 92be
000001d0: 2a3b 88bd b5e2 313e 4319 793d e2b4 a6be
000001e0: 986a 94bd faa8 113f 5ba1 2abe 68af a6bd
000001f0: 09a8 d1bc 0223 f33e c48b 553e bc0c 8c3e
00000200: 36a9 a93e cc0c 5a3f 1d6c 02be ef31 893e
00000210: a841 983e bf24 5dbe b814 cbbd 2a42 8dbe
00000220: 5cef 45be 0c52 66be 828e a43c 1ffe 05bf
00000230: 154f 9cbe 5073 a6be 3e2e a83d 4c3d 2e3c
00000240: 8008 6abe 58e1 ed3d dd52 433f 0e33 f8bc
00000250: 0dd7 db3e c9f6 c1be f64d 92be faf6 383e
00000260: dcff bbbe 12a6 2cbe aa0f 25be 1590 3cbe
00000270: cf07 363e ad68 de3e b1a7 80bc e80a c4bc
00000280: 5831 d7be 9785 70be 1f9e dbbd 3722 8ebe
00000290: 0995 273f 1433 86bc e830 f9be d77f 26be
000002a0: e62e f1bd 01e6 693e 8b7e 96bc 61ad a2be
000002b0: 5597 64be c53a 0f3f cd70 823e a698 7d3f
000002c0: b65e 993e c597 863b 726d 39be 8162 873c
000002d0: da59 313d 8d69 ddbe c1d0 8e3d 118a 2a3e
000002e0: 3688 14be c05e 0c3d 3d42 53be 8678 23be
000002f0: 5fba 8dbd 6eb4 aabd 8951 a23d 103b a9be
00000300: d798 48be a7ba be3d 3965 813c 7d54 75bd
00000310: 05de 77bd 8a7b 2cbe fd5d 423e 399a 15bf
00000320: 886e 4abe 59c0 24be 11bf 76be db11 f6be
00000330: 9929 b6bd 2ee5 d43d c765 4dbc c7ea 083c
00000340: ef2f 4abe 86db c9bc fe99 a7be 0e4d 7cbe
00000350: 0e2c 8e3e b45e d5bd fc1f 7dbe 0c1e e0be
00000360: e228 adbd 34f4 2f3d 36bb ea3f 2d31 fabc
00000370: 65da 1a3e 5742 14be ec20 0ebe 5a76 e43d
00000380: 4aa7 893e 710f 12be de1e 02be 7aae ad3f
00000390: f672 a73d 1bdd abbe b6ff a4be 53ff 61be
000003a0: 62b7 51be 75a7 6bbe 1f14 e0be 0018 8b3d
000003b0: 6bdc 62be 1740 f43d 1a2f 0bbe 972d 91be
000003c0: d387 adbd 4445 12be 0a6a 50be a063 84bd
000003d0: 6ef0 603d 64bd df3e ea40 1b3e 3459 9c3b
000003e0: 3c52 5fbd 98c4 bebe ace8 73be e6dc d4be
000003f0: e80e 9bbd 02b6 4fbe 51a8 ac3d b74b 51bd

decoder.0.linear.bias f4 [64]
0.2585688 0.4106548 0.45272338 0.3841554 0.4661795 0.40591434 0.6882749 0.4973303
0.060925733 0.5388156 0.47478652 0.47367448 0.5842175 0.6075626 0.5861545 0.62343186
0.33347788 0.53222513 0.3365464 0.097456016 0.7932471 0.47140718 0.4332752 0.701005
0.15986176 0.7034932 -0.2856067 0.39448828 0.48261714 0.5143375 0.540464 0.6188109
0.32427245 0.70514154 0.6208101 0.60447884 0.60290277 0.06725844 0.16062912 0.61947083
0.5843498 0.19185853 0.31237543 0.72442156 0.5245601 0.4712077 0.4026378 0.3412287
0.4300419 0.61880255 0.7618325 0.4396456 0.7728612 0.30938104 0.605248 0.5508014
0.32945666 0.18642983 0.54752195 0.7044925 0.5113861 0.43997103 0.58506113 0.505648
00000000: 2163 843e 5941 d23e 5ccb e73e 04b0 c43e
00000010: 14af ee3e 01d4 cf3e c932 303f 14a2 fe3e
00000020: 438d 793d d2ef 093f 3817 f33e 7685 f23e
00000030: 478f 153f 3989 1b3f 390e 163f 3b99 1f3f
00000040: 9dbd aa3e e83f 083f cf4f ac3e 0597 c73d
00000050: 3e12 4b3f 485c f13e 3fd6 dd3e 1075 333f
00000060: cdb2 233e 2118 343f 0b3b 92be 5efa c93e
00000070: 9819 f73e 9fab 033f d95b 0a3f 646a 1e3f
00000080: 0a07 a63e 2884 343f 69ed 1e3f 20bf 1a3f
00000090: d657 1a3f cbbe 893d f67b 243e a495 1e3f
000000a0: f397 153f 9076 443e acef 9f3e b173 393f
000000b0: 9249 063f 2342 f13e 8b26 ce3e 87b5 ae3e
000000c0: 742e dc3e d869 1e3f 7407 433f 3a19 e13e
000000d0: 3bda 453f 3167 9e3e 88f1 1a3f 5201 0d3f
000000e0: 8bae a83e 76e7 3e3e 662a 0c3f 9f59 343f
000000f0: 33ea 023f e243 e13e 91c6 153f 2672 013f

decoder.1.linear.weight f4 [1000, 64]
0.0010648841 0.0036781125 0.0034773834 -0.005041489 0.0022843797 1.005214e-06 0.0014548856 -0.0015581826
-0.005658093 -0.0006538718 0.00044331118 0.00029903388 0.0012687555 -0.0007904588 0.0034427468 0.0011501638
-0.0033376652 -0.00042717098 -0.002092857 -0.0017621425 -0.0017597475 0.0024194098 -0.00020810941 -0.004391404
-0.0018432759 -0.0022182185 0.0027613763 0.0017755573 0.00089715683 0.0006115634 -0.0009072297 0.0025444692
0.0024542746 -0.005925355 0.0020889835 -0.002440016 0.00054619013 7.2153685e-05 -0.00058774365 0.0014176315
0.0019695738 -0.0014095022 0.002837376 0.00030026716 -0.00083533936 -0.0004120043 0.0026809194 0.0022365297
-0.0029901732 0.0022666343 -0.00042175245 -0.0011619519 0.004153996 -0.001230961 0.004542471 -0.0003270536
-0.0043812767 -0.0008672328 0.0029275627 -0.0002651586 0.0018950679 -0.0020625268 0.0003441715 -0.0005527633
-0.0038935551 0.0055775465 -9.493867e-05 0.00040293 0.00087310065 -0.0003223897 -3.689585e-05 -0.00089480577
-0.0028251957 -0.0017140604 -0.00011033385 0.001460385 -2.2726103e-06 0.001744333 -0.00031108383 -0.00045117363
0.0006327106 -0.0023381792 -0.0037075488 0.0052443705 0.003025331 -0.000828638 -0.0027809753 0.004074434
0.0024331708 -0.0012824116 0.0001926142 -0.0038034255 0.0020442482 0.0008430561 0.0017153057 -0.0015825607
-0.00016638279 0.0014364186 0.0013243193 0.00012641052 -0.0025924284 5.0140738e-05 0.0012615386 0.004806867
-0.0018965312 -0.00051481416 -0.0025817528 0.00024943164 0.004255977 -0.0011367399 0.0013326178 0.0002993752
0.0028683774 0.0010468668 0.0011741931 0.0011208154 -0.00079719076 0.0033364198 -0.0020152256 0.0023308333
-0.00025184007 0.001325398 -0.0012343092 0.0009514178 -0.0027669878 -0.002082509 -0.0016917576 0.0017567169
-0.0031525139 0.0035240948 0.0020820368 0.0006442198 0.0042741452 0.0020962395 0.0015003347 -0.0017817232
-0.007884947 0.0034012075 0.0031708342 0.00038364995 -0.00017803993 -0.0018208658 -0.00056468666 0.0038980877
0.0022611856 -0.0023284766 -0.0051515163 0.0004889689 0.0035996165 -8.5904874e-05 -0.0012112085 0.0029785146
0.00081904075 -0.00042394578 0.0031642346 -0.0003267823 0.00061780674 -0.0002423873 -0.004244505 -0.00019527464
0.0005309303 -0.0009059993 -0.0034149748 -0.0023619672 9.52032e-05 0.0014744747 8.489007e-05 0.00067360315
-0.0016292568 -0.00014941407 -0.0024712891 0.0008480792 -0.0032148573 -0.0005721112 0.0016946531 -0.0025411583
0.0023339768 0.0019868647 0.0008082091 0.00050527643 0.004399598 -0.0007944941 -0.0014973534 -0.0025750783
0.0007224798 0.0010320126 0.00012547715 0.0011342996 -0.0012072355 0.0014416912 0.00035161132 0.0020748547
0.115389645 -0.055750817 -0.034136225 -0.0064970413 0.058526255 0.053045563 0.0041390182 -0.113533966
0.09824952 -0.053778093 -0.048009902 -0.15930556 -0.07491599 -0.097942054 0.009459715 -0.10365366
0.029757235 -0.05124469 0.07715626 -0.10964243 0.08716737 0.02351546 -0.0008372369 -0.09591655
-0.031550203 -0.04529514 0.046801094 -0.0137907015 0.020608159 0.068149 0.06787308 -0.20253979
-0.009207428 0.28152117 -0.13687871 0.108480975 0.044066913 -0.12871283 0.015718497 0.24427436
-0.03685169 0.009717807 0.08166179 0.093262576 0.050002314 -0.13275588 0.032494113 -0.04190382
0.136196 0.08441563 -0.113530226 0.021264527 -0.013484935 0.11051543 0.07608889 0.06540319
-0.07850514 -0.15959553 0.013279435 -0.012528621 -0.035083752 0.066485025 0.17001043 0.027007122
00000000: 9593 8b3a 7d0c 713b d0e4 633b 1333 a5bb
00000010: 88b5 153b e4ea 8635 dcb1 be3a ef3b ccba
00000020: 8667 b9bb 9868 2bba 386c e839 a6c7 9c39
00000030: 5f4c a63a cb36 4fba b59f 613b 18c1 963a
00000040: bbbc 5abb ebf5 dfb9 5028 09bb b1f7 e6ba
00000050: 54a7 e6ba f68e 1e3b f237 5ab9 c4e5 8fbb
00000060: 139a f1ba 885f 11bb 35f8 343b d1b9 e83a
00000070: 2d2f 6b3a 5351 203a 28d3 6dba 1cc1 263b
00000080: e5d7 203b 7b29 c2bb 54e7 083b ade8 1fbb
00000090: 332e 0f3a 3751 9738 cf12 1aba d2cf b93a
000000a0: f713 013b 0cbf b8ba 45f3 393b 2d6d 9d39
000000b0: adfa 5aba 4802 d8b9 5db2 2f3b be92 123b
000000c0: c8f6 43bb d08b 143b a81e ddb9 a34c 98ba
000000d0: 3e1e 883b 3258 a1ba 02d9 943b 6478 abb9
000000e0: d090 8fbb 0257 63ba 5adc 3f3b fc04 8bb9
000000f0: ed63 f83a 752b 07bb eb71 b439 51e7 10ba
00000100: 042b 7fbb dac3 b63b cf19 c7b8 5940 d339
00000110: cbe0 643a 6a06 a9b9 9ec0 1ab8 6691 6aba
00000120: eb26 39bb 53aa e0ba 0963 e7b8 646a bf3a
00000130: 2683 18b6 1aa2 e43a f718 a3b9 808b ecb9
00000140: 7ddc 253a 233c 19bb 59fa 72bb f8d8 ab3b
00000150: a244 463b f438 59ba 0641 36bb d482 853b
00000160: d575 1f3b 9816 a8ba 7bf8 4939 e442 79bb
00000170: cbf8 053b 8a00 5d3a 1cd4 e03a ed6d cfba
00000180: 0a77 2eb9 3646 bc3a c894 ad3a 118d 0439
00000190: bbe5 29bb 354e 5238 365a a53a ec82 9d3b
000001a0: 0795 f8ba 98f4 06ba a032 29bb 26c6 8239
000001b0: b975 8b3b a9fe 94ba 3cab ae3a 76f5 9c39
000001c0: 63fb 3b3b 0537 893a 62e7 993a 53e8 923a
000001d0: 91fa 50ba d6a7 5a3b e011 04bb e5c0 183b
000001e0: 6709 84b9 fab8 ad3a 8bc8 a1ba 9168 793a
000001f0: 5a56 35bb b47a 08bb f7bd ddba a341 e63a
00000200: 689a 4ebb 80f4 663b c872 083b dce0 283a
00000210: 210e 8c3b 1061 093b e1a6 c43a b688 e9ba
00000220: dd2f 01bc cbe6 5e3b c5cd 4f3b a024 c939
00000230: 3bb0 3ab9 1eaa eeba 7b07 14ba 0f77 7f3b
00000240: 6630 143b 5b99 18bb 0dce a8bb 262e 003a
00000250: 8be7 6b3b d427 b4b8 6ac1 9eba 2f33 433b
00000260: e5b4 563a 0a45 deb9 0c5f 4f3b fa53 abb9
00000270: 4ff4 213a 5829 7eb9 7d15 8bbb a3c2 4cb9
00000280: 212e 0b3a 9580 6dba c5cd 5fbb 3ccb 1abb
00000290: d4a7 c738 2943 c13a 0207 b238 be94 303a
000002a0: c98c d5ba 09ac 1cb9 5af5 21bb a251 5e3a
000002b0: 5bb0 52bb bcf9 15ba 1f1f de3a 9089 26bb
000002c0: a2f5 183b 0f36 023b ffdd 533a 8774 043a
000002d0: 812a 903b 9945 50ba d842 c4ba a5c2 28bb
000002e0: cc64 3d3a 9944 873a 8492 0339 c7ac 943a
000002f0: 1a3c 9eba 21f7 bc3a 7958 b839 49fa 073b
00000300: 6851 ec3d f85a 64bd 6dd2 0bbd 22e5 d4bb
00000310: 3ab9 6f3d 4e46 593d 9aa0 873b 7f84 e8bd
00000320: 0b37 c93d 6b46 5cbd 08a6 44bd ff20 23be
00000330: 8e6d 99bd d895 c8bd ecfc 1a3c 5f48 d4bd
00000340: 72c5 f33c f4e5 51bd 1a04 9e3d 368c e0bd
00000350: ce84 b23d 7ea3 c03c 047a 5bba e56f c4bd
00000360: c93a 01bd 6687 39bd 81b2 3f3d 65f2 61bc
00000370: 71d2 a83c b491 8b3d 0b01 8b3d 9766 4fbe
00000380: c1da 16bc 8b23 903e ef29 0cbe 462b de3d
00000390: 827f 343d 4ccd 03be 14c4 803c 0f23 7a3e
000003a0: ccf1 16bd 7037 1f3c 4c3e a73d 7300 bf3d
000003b0: 3acf 4c3d 28f1 07be 8c18 053d 57a3 2bbd
000003c0: f776 0b3e 1ae2 ac3d 8982 e8bd f232 ae3c
000003d0: ebef 5cbc ea55 e23d 7ed4 9b3d 1cf2 853d
000003e0: 4ec7 a0bd 036d 23be fd91 593c d844 4dbc
000003f0: fbb3 0fbd 4d29 883d 3717 2e3e 0a3e dd3c

decoder.1.linear.bias f4 [1000]
-0.014592662 -0.01029709 -0.018845325 0.019405097 -0.0010177965 -0.021140251 -0.09022554 -0.001564683
0.00859233 0.003731868 -0.0016300832 0.0020130856 -0.008149135 0.02055557 -0.010343693 4.6918223e-05
-0.07390091 0.01043874 -0.020530513 -0.025364581 0.010407451 -0.11114644 -0.013623933 0.031296622
0.01785324 -0.08238439 -0.017018346 -0.005226243 -0.0110134175 -0.01526509 -0.0045218817 -0.019087808
0.0050530396 0.053315517 -0.008367626 -0.08374839 -0.017871132 -0.1410494 -0.067953855 0.010835675
-0.07584244 -0.03826492 -0.014807132 -0.024436198 0.0038850384 -0.009217329 -0.079987824 -0.09214868
0.011850514 -0.0014812072 0.0015188868 0.043197937 -0.055329368 -0.0101208985 -0.0011270752 0.0054242774
-0.011534572 0.014964089 0.00329159 -0.10602817 -0.0069832 -0.017279673 -0.028601063 0.009605611
0.0023028743 -0.07300452 -0.010849558 -0.012596441 0.0092772925 -0.113941684 -0.0056786733 0.010368545
0.02262505 0.010620034 -0.058452483 -0.0030186593 -0.00959984 0.004287311 -0.00834106 0.0070938063
-0.009434142 -0.0016679218 0.012120463 -0.029142648 0.0006691021 -0.053645246 -0.001862926 0.0008448504
-0.0055378415 0.012094317 -0.011379946 -0.008122803 -0.00016041443 -0.0029357022 0.0022021993 -0.060231294
-0.003081698 -0.036828797 0.006265792 -0.012189089 -0.001038056 -0.009243934 -0.08129477 -0.0033291436
-0.0017959233 0.0024810126 -0.004309203 -0.0054190024 -0.0062034405 -0.0824636 -0.0063323313 0.008938497
0.014812494 -0.036671475 0.0036059874 -0.018437257 0.008183041 0.00560327 -0.017938077 -0.009479308
-0.0025330735 -0.005642142 -0.0057769567 0.0046293987 -0.018884584 -0.0031424211 -0.005796029 0.0068420838
0.002284274 -0.19922778 -0.0286507 -0.0013113306 0.0038789627 0.008465674 -0.022957902 0.006156612
0.0027876066 -0.025119144 0.016557122 -0.08231666 0.002215214 -6.546512e-05 0.0092689525 -0.017936168
0.005875863 -0.013720546 -0.014957279 -0.017589936 -0.09036904 0.0030688501 -0.003790344 -0.12420337
-0.10519599 -0.014144306 -0.014196043 -0.07882394 -0.053373132 -0.006629309 -0.051952485 0.005027064
0.018511696 -0.09598409 -0.020809514 -0.031350642 -0.028305583 -0.033772 -0.018842207 -0.013837842
0.015517837 -0.010344745 -0.012471066 0.0016906337 -0.00030391617 0.007228002 -0.024165222 -0.0075795855
-0.001864273 -0.090077266 -0.06862481 0.008986149 -0.15064888 0.0034887916 -0.080688015 0.019557059
0.001254645 0.00923736 -0.067964144 0.012788829 -0.011572255 -0.06067757 -0.12632288 -0.14945407
-0.07754086 -0.017932191 -0.095785595 -0.058567747 0.0041154954 -0.10246576 -0.1371157 -0.05827832
-0.07282124 -0.10491623 -0.033277646 -0.034186337 0.0006904529 -0.13579533 -0.008726529 -0.0108918855
0.0087745655 -0.011211203 -0.092254035 0.0046675536 -0.07935329 -0.11457984 -0.101516135 -0.02514906
-0.019561626 0.019147443 0.021324221 0.005688728 -0.01456802 -0.004702116 -0.12621084 -0.018310508
0.0030374106 -0.06370872 -0.13354237 -0.010374695 0.010424265 -0.07056429 -0.08924328 -0.019283399
-0.014497575 0.02147535 -0.05861195 -0.017928565 0.0073915967 0.0043705977 -0.0020104907 0.0042389715
-0.0014662393 -0.008422669 0.034042086 -0.006652759 -0.0036657087 -0.060670614 -0.0065712766 0.0014705674
-0.0040341145 -0.0266074 -0.046454363 -0.011117723 0.01386485 0.014771901 0.015271824 0.0034818307
00000000: 1016 6fbc 20b5 28bc 8361 9abc 70f7 9e3c
00000010: 9567 85ba 522e adbc 2bc8 b8bd 0d16 cdba
00000020: d8c6 0c3c 5b92 743b 84a8 d5ba f9ed 033b
00000030: f383 05bc 2864 a83c 9878 29bc 0fca 4438
00000040: 5c59 97bd 4007 2b3c 9b2f a8bc 62c9 cfbc
00000050: 0384 2a3c bfa0 e3bd eb36 5fbc e330 003d
00000060: f540 923c 26b9 a8bd 0f6a 8bbc e740 abbb
00000070: 9f71 34bc 6e1a 7abc 4b2c 94bb 095e 9cbc
00000080: f893 a53b 5f61 5a3d 5e18 09bc 4784 abbd
00000090: 7b66 92bc 416f 10be 642b 8bbd 1d88 313c
000000a0: 4853 9bbd adbb 1cbd 9d99 72bc 6c2e c8bc
000000b0: 219c 7e3b 4804 17bc a8d0 a3bd 72b8 bcbd
000000c0: a928 423c 1125 c2ba 6215 c73a 52f0 303d
000000d0: 0ca1 62bd 20d2 25bc 5eba 93ba 23be b13b
000000e0: 80fb 3cbc f02b 753c b7b7 573b 4c25 d9bd
000000f0: 54d3 e4bb 1a8e 8dbc c74c eabc da60 1d3c
00000100: d2eb 163b 6583 95bd 58c2 31bc 4e61 4ebc
00000110: c9ff 173c 425a e9bd 2a14 babb d4e0 293c
00000120: 2b58 b93c a7ff 2d3c df6b 6fbd b3d4 45bb
00000130: a648 1dbc 927c 8c3b f1a8 08bc 2973 e83b
00000140: a991 1abc 2b9e daba e894 463c 90bc eebc
00000150: af66 2f3a 1ebb 5bbd 6c2d f4ba f378 5d3a
00000160: c876 b5bb 3e27 463c f472 3abc 8115 05bc
00000170: ec34 28b9 e964 40bb c652 103b 17b5 76bd
00000180: 50f6 49bb cbd9 16bd 4651 cd3b bfb4 47bc
00000190: 610f 88ba df73 17bc df7d a6bd c32d 5abb
000001a0: 3065 ebba 7c98 223b 3734 8dbb e391 b1bb
000001b0: 3b46 cbbb ade2 a8bd 727f cfbb c672 123c
000001c0: 1ab0 723c d434 16bd 6e52 6c3b bb09 97bc
000001d0: 2912 063c a39b b73b e0f2 92bc 194f 1bbc
000001e0: ec01 26bb b8e1 b8bb a04c bdbb 36b2 973b
000001f0: d8b3 9abc 14f1 4dbb 9eec bdbb 8f33 e03b
00000200: c2b3 153b 5e02 4cbe dfb4 eabc f4e0 abba
00000210: 3236 7e3b 9cb3 0a3c 3612 bcbc 68bd c93b
00000220: 47b0 363b aac6 cdbc cda2 873c a395 a8bd
00000230: 202d 113b 524a 89b8 cedc 173c dfee 92bc
00000240: 508a c03b 24cc 60bc 600f 75bc c518 90bc
00000250: 6713 b9bd c31e 493b 6c67 78bb 565e febd
00000260: ff70 d7bd 85bd 67bc 8596 68bc 726e a1bd
00000270: c99d 5abd ad3a d9bb 21cc 54bd 12ba a43b
00000280: d7a5 973c 4e93 c4bd b778 aabc 8869 00bd
00000290: 1ce1 e7bc 8254 0abd f95a 9abc 1eb8 62bc
000002a0: 873e 7e3c 017d 29bc 7153 4cbc 4198 dd3a
000002b0: f056 9fb9 e0d8 ec3b 25f6 c5bc 2c5e f8bb
000002c0: 9f5a f4ba 6e7a b8bd 2a8b 8cbd a43a 133c
000002d0: b343 1abe 36a4 643b c23f a5bd 2036 a03c
000002e0: e672 a43a 4c58 173c c930 8bbd 3d88 513c
000002f0: 8e99 3dbc 0b89 78bd c95a 01be 7d0a 19be
00000300: becd 9ebd 88e6 92bc 3d2b c4bd bce4 6fbd
00000310: 47db 863b 92d9 d1bd 0f68 0cbe 3fb5 6ebd
00000320: 4d23 95bd 52de d6bd 244e 08bd f906 0cbd
00000330: 82ff 343a ee0d 0bbe b7f9 0ebc e173 32bc
00000340: 32c3 0f3c 32af 37bc afef bcbd 47f2 983b
00000350: fa83 a2bd d6a8 eabd b1e7 cfbd 6705 cebc
00000360: b43f a0bc 19db 9c3c 22b0 ae3c 8268 ba3b
00000370: b4ae 6ebc 3514 9abb 6a3d 01be ebff 95bc
00000380: 4b0f 473b b879 82bd 55bf 08be a0fa 29bc
00000390: 89ca 2a3c 0384 90bd 2ec5 b6bd 38f8 9dbc
000003a0: 3d87 6dbc 13ed af3c 1613 70bd edde 92bc
000003b0: 3535 f23b 3b37 8f3b 70c2 03bb 12e7 8a3b
000003c0: d42e c0ba 3cff 09bc b76f 0b3d 63ff d9bb
000003d0: 633c 70bb c081 78bd dd53 d7bb 0ec0 c03a
000003e0: 9b30 84bb c3f7 d9bc ee46 3ebd 1c27 36bc
000003f0: 6529 633c d805 723c ac36 7a3c 6d2f 643b
