pancreas_result/ae_weights.pth (torch, 535695 bytes, 8 tensors)

encoder.0.linear.weight f4 [64, 1000]
00000000: 56d5 edbc 47d4 833c 51ec e4bc 9e55 78bd
00000010: 1009 16bd e7d0 a03c ab4d fc3b 49c1 cd3c
00000020: 0d13 ef3c e92b e73c d563 05bc 8f34 bdbc
00000030: a98a 8e3c 8a80 513b d7d1 b7bc 2418 20bd
00000040: 7769 663d e471 263d d599 f5bb 0574 7c3b
00000050: 55b3 3d3c 1b3d d1bb c98a 99bc d556 003d
00000060: ca6d f93b 3cb3 28bc e159 d83c fb8a 313b
00000070: f91e 47bd 284a 96bb 2b7e 3e3a e51a 3bbc
00000080: fd00 18bd c00c 41bd 986e 2e3d 2690 1b3c
00000090: 1097 cb3c d83a 043d 4c90 b83c 2135 873c
000000a0: 1689 b63b f1cb f63c 6cb4 103b 647f d83c
000000b0: e3a0 8a3c 7b44 dd3b cddd 8ebc 6f64 a33c
000000c0: 9a11 ae3c f270 92bb e27d 48bd 4711 6e3c
000000d0: daf3 35bd 4e5f febc 69de f7bb 599b 6f3c
000000e0: a9f6 a43c 14a2 cebb a937 47bd 0d03 b9bc
000000f0: 7a92 c73c 3c39 b23c ba5d 043d 4fda 6b3d
00000100: 1181 eebc 095a 393c f530 c0bc 4f44 88bc
00000110: e070 72bd 35c1 8e3b 6815 65bc a115 4ebd
00000120: ea8f 54bc 0325 293d 3367 523c 77a5 8ebd
00000130: 399d 97bc d09f 85bb c2a0 08bc 346f 103d
00000140: 3049 203c 3e4e 8dbd 86aa 21bd 9e49 84bd
00000150: f6bf 003d 6a2b 683c e6ac 473c 6cc3 87bd
00000160: fe81 183c e9ea 113b e4cf 503c 9da8 52bb
00000170: ea5c bb3c 0a12 a23c 32d4 5dbd f05c 1ebd
00000180: 8045 2bbd d011 0a3c a722 f4bc 13c5 a73c
00000190: 08fc 9fba 8000 c83c da71 b4bb fadd 8d3b
000001a0: 7378 b73b bcc1 863c 7386 89bd 1d17 55bd
000001b0: a646 0f3c 46ab 5dbb b28e 9cbd b30b 52bc
000001c0: c42a 12bc 0e46 dc3c 6509 643c a625 343d
000001d0: f75f 9d3c 9bd0 80bd 8c26 52bc 9b11 4c3c
000001e0: 354e 443d 4711 5f3c 0d8c 953c 738a 95bb
000001f0: f95c 83bc 1821 1fbd e385 77bd 004d 063d
00000200: d5a2 253d a680 013d 40dc 103d 0ffc 57bc
00000210: 6139 98bb c9d1 8bbd 482f 06bc 2537 c03c
00000220: 8d28 233d 6bf7 233d 30ac 393d 039c 263c
00000230: 7e1e 0dbd 5a07 34bb 10ca 55bc 1426 1dbd
00000240: 9f9d c33b 5049 063c e77e 14bb 5243 39bd
00000250: c8e9 c43c 4d35 d0bb 6b9f 0c3d eab0 a1bc
00000260: 2fce 00bc 82ca 34bc 7452 133d 5f87 c1bc
00000270: 436a 28bc 9216 c33c 1d07 c2bc 115e aebc
00000280: 9487 09bd 7676 483d c85b 3dbd 83a4 03bd
00000290: f2c8 d1bc 8c12 58bd fed3 16bc 6de4 2f3d
000002a0: 5801 12bc e2ad 4abc af89 9fbd 6f2b 5d3c
000002b0: 4153 843b d85f 6ebd 763b 44bb 2f48 7b3c
000002c0: bcc8 83ba 6d46 9bbb fffa 383d 470c 0a3d
000002d0: ddbe 0dbd 1dff f73c cb76 2f3b f2c6 483c
000002e0: 57fa f03b b90b 6d3d 0433 f43c 1851 e43a
000002f0: c62d 80bc ca7f 48bc f9ed 8b3c e838 b83b
00000300: 50db 6cbd a7f5 053b 8686 3c3b 5c2c febc
00000310: f347 ff3c 81cc 92bc 5655 193d 8fce 15bd
00000320: be47 8bbd 4723 2cbc 77bd 89bc f542 a3bc
00000330: 5f0c 853c 01b3 9cbc 1741 85bc 4d5d 823d
00000340: 90b7 94bc af5f 8cbb 079f 65bd 4c0e 573c
00000350: 37b1 53bd abaf 0ebc e52c 7bbc 03e8 023d
00000360: a0a7 3dbd 133c 3dbc 21a2 1cbb 4954 223d
00000370: 5200 be3c ccfd 7f3d ca9c ad3c 52ca 96bc
00000380: b6d4 603d 4961 48bc b65e 183d 0549 15bd
00000390: 1ddf e4bc b091 2ebc 4656 4abc d843 7bba
000003a0: a1ef 4bbc c215 b8bc 5bb7 9abd 30b7 2a3b
000003b0: 3c98 61bc 1564 023d 5695 e93c 8072 063d
000003c0: 8df0 27bd b9bc 233d b8fd 313c fb55 683d
000003d0: 7cd4 b4bb a24c 25bd 8ff7 e1bb a905 58bd
000003e0: 46c0 593a 0bd3 80bb 2c24 18bc 902b e8bb
000003f0: accd 353d e819 01bc ad2e 0ebc d757 b33b
-0.02903239 0.016092433 -0.027944716 -0.060628526 -0.036629736 0.019630862 0.0076996884 0.02511658
0.029183889 0.02821918 -0.008141478 -0.023096351 0.017400103 0.0031967484 -0.022438927 -0.039085522
0.056252923 0.04063596 -0.007495145 0.0038521301 0.011578401 -0.006385458 -0.018742936 0.03133281
0.007611965 -0.010296639 0.026410045 0.0027090895 -0.048613522 -0.004586477 0.00072667253 -0.011419986
-0.037110317 -0.0471313 0.04258594 0.009494817 0.024852306 0.03228268 0.022529744 0.016504826
0.005570541 0.030126544 0.0022080196 0.026427932 0.01692242 0.0067525483 -0.017439747 0.019945351
0.021248627 -0.0044690305 -0.048948176 0.014530486 -0.044422008 -0.031051304 -0.007564355 0.01462444
0.020137148 -0.0063059423 -0.048637066 -0.022584463 0.024361838 0.021755807 0.032315947 0.057581242
-0.029114278 0.01131297 -0.023460845 -0.016634135 -0.059189677 0.004356528 -0.013982154 -0.050313596
-0.012973765 0.041295063 0.012841987 -0.06965154 -0.018507587 -0.004077889 -0.008339109 0.0352623
0.009783074 -0.06899689 -0.039469264 -0.06459354 0.03143307 0.014170507 0.012187218 -0.06629071
0.009308336 0.0022265262 0.0127448775 -0.0032143958 0.022871453 0.019783992 -0.054157443 -0.03866285
-0.041814327 0.008427098 -0.02980168 0.020479714 -0.0012205848 0.0244143 -0.005506736 0.00432944
0.0055990755 0.016449802 -0.06715097 -0.052023996 0.008744871 -0.003382401 -0.076444045 -0.012820172
-0.008921329 0.026888873 0.013918255 0.043981217 0.019210799 -0.06289788 -0.012826573 0.012455369
0.047926147 0.013614959 0.018255258 -0.0045636236 -0.016035544 -0.03884992 -0.06043042 0.032788277
0.04043849 0.03161683 0.035366297 -0.013182654 -0.004645512 -0.06827123 -0.008189984 0.023463795
0.039833594 0.040030878 0.045330226 0.010169032 -0.034452908 -0.0027470202 -0.013048664 -0.038366392
0.0059697176 0.00819619 -0.0022658648 -0.045230217 0.024037257 -0.00635401 0.03433172 -0.01973768
-0.007861658 -0.01103461 0.035967305 -0.02362412 -0.010279241 0.023814473 -0.023685033 -0.021285089
-0.033576563 0.0489411 -0.046230108 -0.032139312 -0.025608514 -0.052752063 -0.009205816 0.042942453
-0.008911453 -0.012370558 -0.07789933 0.013499125 0.004038245 -0.058196872 -0.0029942668 0.015337034
-0.001005433 -0.00473862 0.045161244 0.033703115 -0.03460585 0.030273015 0.0026773687 0.0122544635
0.0073540616 0.057872508 0.029809482 0.0017419187 -0.015646826 -0.012237499 0.017081248 0.005622018
-0.05782634 0.002044061 0.0028766706 -0.031027012 0.031162238 -0.01791978 0.0374349 -0.036573943
-0.06800793 -0.010506458 -0.016813977 -0.019929389 0.01624125 -0.019128324 -0.016266389 0.06365452
-0.018153936 -0.0042838673 -0.056059863 0.013125967 -0.051682677 -0.008708875 -0.015330528 0.031959545
-0.046302438 -0.011549967 -0.0023900347 0.03963116 0.023193512 0.0624979 0.021192927 -0.01840702
0.054890357 -0.012230226 0.0371997 -0.03644659 -0.02793842 -0.010654852 -0.012349671 -0.00095849996
-0.012447269 -0.022471312 -0.075545035 0.002604913 -0.013769206 0.031833727 0.028513592 0.03282404
-0.04100089 0.0399749 0.010863714 0.056722622 -0.005518494 -0.040356286 -0.0068959664 -0.052739773
0.0008306544 -0.0039314083 -0.009285968 -0.007085271 0.044385597 -0.007879712 -0.008678121 0.005473118

encoder.0.linear.bias f4 [64]
00000000: 6465 5bbe 2c05 48be 911c 36be 0431 ccbd
00000010: e34c 78be bc32 edbc 613c a0be 39cf 9d3d
00000020: dd86 a5bd f407 e9bd 7343 20be 3521 993d
00000030: f46c aabe fab6 47be c7f7 48be fb78 67be
00000040: aa35 75be 4aa7 2dbe 5b07 113d 2e6f bfbc
00000050: bc7b 3a3c dd77 fabd 3fde 39be fd89 50be
00000060: 56c2 59bd fb87 e8bd 4708 03be 785b 743d
00000070: 2ef0 a33c 22af 40be 3d90 f0bd 00e6 58bd
00000080: e131 3ebe 9219 3dbd 8de1 4bbd 16ab 8fbd
00000090: beeb 78be f0db a73d 5ced 84be 56f4 49be
000000a0: aacc a0bc 905f 6dbe c22d db3c a691 05be
000000b0: 62d0 abbd 416a 2e3d f8aa 61bd b03a 833d
000000c0: faa4 36be 25cc 3cbe 8fd1 97bd 2bef 273b
000000d0: 659c 31bc bed4 4dbb 1d65 8bbd 4a50 56be
000000e0: 527c f63c 729a edbd c41f 24be f563 e8bd
000000f0: 4ecd 1dbe d074 00bd 4d32 b2bd 0d0d f3bc
-0.21425396 -0.19533223 -0.17784335 -0.099702865 -0.2424808 -0.028954856 -0.31296065 0.0770554
-0.08082364 -0.1137847 -0.1565073 0.07477037 -0.3328625 -0.19503394 -0.1962577 -0.22604744
-0.23946252 -0.16958347 0.035407405 -0.023368444 0.01138204 -0.12229893 -0.18151186 -0.20365138
-0.05316385 -0.11354061 -0.12796126 0.059657544 0.020011988 -0.18816808 -0.11746261 -0.05295372
-0.18573715 -0.046166964 -0.04977565 -0.07015054 -0.24308679 0.081962466 -0.2596234 -0.19722113
-0.019628841 -0.23180985 0.026755217 -0.13043842 -0.08389355 0.0425818 -0.05509469 0.06407678
-0.17836371 -0.1843725 -0.07413017 0.0025624733 -0.01084051 -0.0031407322 -0.06806395 -0.20929065
0.030088577 -0.11601724 -0.16027743 -0.1134719 -0.15410349 -0.0313614 -0.08701 -0.029669309

encoder.1.linear.weight f4 [32, 64]
00000000: 5397 b43b ae2d d6bd 857d 8e3d 5adf b2bc
00000010: 9228 d0bd e740 b1bd 0bb2 1fbe 0f5c d93d
00000020: 3ee3 1e3e 6c93 85bd 954b c93d 78cb 643e
00000030: adc1 43bc d74d a23d 867a 90bd cfd8 473e
00000040: 5410 9cbd 7ce5 0e3e 559d dabd eec0 9dbe
00000050: 434f 0e3e 1f1f 27be 1b98 473d 3b52 513d
00000060: f802 bd3d e27d 73be abd8 a43c e454 783d
00000070: 13f3 c23b 2d68 b4bd 8498 9e3d 8511 af3d
00000080: 2ac2 fe3d aa0c ae3d 7d55 9f3b efea 223e
00000090: d187 8d3e a824 f73d 4337 983e c7be 26bc
000000a0: 22e6 04bd de16 e73d bf13 12be 2fb5 e03c
000000b0: ceed 04be 220e 98bd 4b82 60bc 76b3 45bd
000000c0: 4f53 95bd d9c6 51be 8e68 ef3d 6b64 97bd
000000d0: ff4c f33c 6857 d3bc 6564 ba3c bf6d e5bc
000000e0: 28a2 70bd 34a1 4abd 2a1b c2bd 0e37 b43c
000000f0: 94d5 7cbc c93e 683e 2644 483c 6ea4 19be
00000100: b04a 75be 6318 7dbd 4851 b3bd 6ad1 3ebe
00000110: 4349 4abd ef26 ac3d ec86 813b 59c9 df3d
00000120: 8c8a babd 4046 383d fd0e bc3d 86be f8bd
00000130: 51f1 8e3d 8fc1 30be 9e8e 45be bbe7 35be
00000140: a900 423e 4361 63bd 79ad 833d c306 1dbe
00000150: 1869 2dbe b4fa 923d 8508 8b3e 4e29 eebd
00000160: 4ad9 993d d944 9ebd 8506 9c3c 8a7c 24be
00000170: 84b6 a33e 6cf7 ac3c 828a 963d 3aac aa3d
00000180: 3025 d23c bde9 153e f553 293e d638 13be
00000190: daea 173e 7516 c43c a936 56bd 2454 e83d
000001a0: 984a 3dbe 7419 783e b57a fe3d dd0b b1bd
000001b0: 93d6 4cbe a4d9 583c 5478 863d 5e93 93bc
000001c0: ca79 8b3c 1f1e 403c db88 db3d cb1c 63ba
000001d0: ce33 c63d b9a4 e7bd 5c48 133e c1ec b7bd
000001e0: 1f7a 3fbe 5a7a 50be caa4 26be a21d f8bd
000001f0: eb0d 72bd 6129 9abd 4bdc 803e ff71 1e3d
00000200: 2126 1cbd ba89 973d d361 54bd 4ff5 47be
00000210: a298 80be e49c 463d 0168 41be ac4f b53e
00000220: 00f1 95bd a1b4 4abe ed32 78be 0fba c5bc
00000230: 2f76 c43c df0c bf3d f2d3 533d 9c68 f23d
00000240: 21a5 48bc 3501 ff3d 98dd 163e a22d 813d
00000250: 7f3d dc3d 161f 39bc 3d34 8cbd 50c1 eebc
00000260: 8515 17be bfee e6bd eff3 06be f6fd f5bd
00000270: 65b9 be3d 69ea 323e e763 d23d 317e 6dbe
00000280: e449 d83d 2505 cabd ccdf e03d da79 60be
00000290: b57f 29be fe8f 38bd c0d9 96bb bfa9 3f3e
000002a0: c146 dcbd 7fb1 0bbe fb40 56bc 22ec ae3d
000002b0: 82dc 04be 687e a63d 3969 0e3e 98c2 013e
000002c0: 1f3c 85be ff7f d03d a932 73bc 8536 c8bd
000002d0: f6c8 013e df94 0ebe 36f4 8a3d f159 33be
000002e0: 0aad 463d 9c06 b23d 3a04 623e 8fd6 ebbd
000002f0: 3648 0dbc 1a86 7a3d 2c90 af3d 3ada d43c
00000300: e141 163d 55dc 4fbe 51ad 003d 7514 3b3e
00000310: 876f bb3d d691 fc3b 7414 ea3c 4697 bcbd
00000320: a085 20be bf7d 97be fd19 1a3e 8ba8 203c
00000330: 2a90 8f3d a6dc 7dbe 1f35 833d f9d5 a5bd
00000340: 9feb 74be 50c6 6639 f018 e8bd 78e7 393e
00000350: 9cab ba3d a074 44be bf47 39bd 06b6 70be
00000360: 48aa 80bd 6508 1ebe c4f6 2abe 0887 92bd
00000370: e8d9 40bc 79d7 2c3b f5b4 f03b 003a bdbc
00000380: 26c7 8a3d e22e 143e 2ca7 94bd d228 213c
00000390: 3c82 533d e446 07bc 008b f8bd c0d8 1abe
000003a0: b5cf 873d 81e9 0a3d 1aaa 0c3c 4d6f 59bd
000003b0: eb3c d0bd dc3f 273d d74e 62bd 1b08 333e
000003c0: d10b 173e 369e 48be 2f6f 0fbe 00f2 2d3d
000003d0: 567e 9bbc b0a5 60bd a1e7 a33e bf5d 533d
000003e0: 11de 16bd cd6e 3f3e 9ca2 383e fa03 edbd
000003f0: ba63 73bd ac00 59be f3fe 97bd e582 35bd
0.0055112033 -0.104579315 0.06957535 -0.021835018 -0.10163988 -0.08654957 -0.15595262 0.10613262
0.15516374 -0.06522259 0.09828869 0.22343242 -0.011948031 0.07925003 -0.070546195 0.195163
-0.07620302 0.13954729 -0.1067454 -0.30811256 0.13897423 -0.16320466 0.048729043 0.05110381
0.09229082 -0.23778489 0.020122847 0.060627833 0.005949387 -0.088089325 0.07743934 0.085482635
0.124393776 0.08498509 0.004862486 0.15909933 0.27642682 0.120675385 0.2972966 -0.010177321
-0.032446034 0.112836584 -0.14265345 0.027430145 -0.1298134 -0.074245706 -0.013702939 -0.04826685
-0.072912805 -0.2048601 0.11689864 -0.073922 0.0296998 -0.025798514 0.02275295 -0.028006433
-0.058748394 -0.04947014 -0.094778374 0.021998908 -0.01543178 0.226802 0.012223279 -0.15004131
-0.23954272 -0.061790835 -0.087557375 -0.18634573 -0.049386274 0.084058635 0.0039528515 0.10927076
-0.09108457 0.04498887 0.09182546 -0.121457145 0.06979621 -0.17261337 -0.19292685 -0.1776418
0.18945564 -0.055512678 0.06429572 -0.1533461 -0.16934621 0.07176724 0.27154937 -0.11628972
0.07512148 -0.077279754 0.019046078 -0.16063133 0.31975186 0.021114074 0.07350637 0.08333631
0.025652498 0.14639945 0.16535933 -0.1437715 0.14835683 0.02393649 -0.05229822 0.113441736
-0.18485487 0.2422846 0.12425748 -0.08644841 -0.20003729 0.013235483 0.065659195 -0.018014606
0.017025847 0.011725931 0.107194625 -0.0008663653 0.0967785 -0.11310715 0.14383072 -0.08980704
-0.18698929 -0.20359173 -0.162738 -0.12115027 -0.059095304 -0.07527424 0.2516807 0.038682934
-0.0381223 0.07399316 -0.051851105 -0.19527172 -0.2511645 0.048489466 -0.1888733 0.35412347
-0.07321358 -0.19795467 -0.24238177 -0.024136571 0.023982136 0.09328627 0.0517158 0.11836359
-0.012246401 0.12451402 0.14732969 0.06307532 0.10753917 -0.011298915 -0.06845901 -0.029144913
-0.14754303 -0.11276006 -0.13178991 -0.1201133 0.09312705 0.17472233 0.10272961 -0.2319267
0.105609685 -0.098642625 0.10980186 -0.21921483 -0.16552623 -0.045059197 -0.0046035945 0.18717097
-0.10755683 -0.13641928 -0.013077016 0.085411325 -0.12974742 0.08129579 0.13907327 0.12671888
-0.2602243 0.10180663 -0.014843621 -0.09776024 0.12674317 -0.13923977 0.06784861 -0.17514779
0.048504867 0.08692667 0.22071925 -0.11515533 -0.008623173 0.061163045 0.085724205 0.025982965
0.03668392 -0.20298894 0.031415287 0.18269522 0.091521315 0.0077078147 0.028574206 -0.092085406
-0.15675974 -0.29588124 0.15048976 0.009805809 0.07009919 -0.24791202 0.064066164 -0.08097453
-0.23918007 0.00022008386 -0.113328815 0.18154705 0.09114763 -0.19185114 -0.045234438 -0.23506936
-0.062824786 -0.1543289 -0.16695696 -0.071546614 -0.011770703 0.002637355 0.0073457905 -0.023098946
0.06776266 0.1447101 -0.07258448 0.0098363925 0.051637873 -0.008256648 -0.12135887 -0.15121746
0.06631414 0.033914093 0.008585477 -0.05308466 -0.10167869 0.040832385 -0.05525097 0.1748356
0.14750601 -0.19591603 -0.14007257 0.042467117 -0.01898114 -0.054845512 0.32012656 0.051603075
-0.036832873 0.18694611 0.1803078 -0.11573024 -0.05942128 -0.21191663 -0.074216746 -0.044314284

encoder.1.linear.bias f4 [32]
00000000: 2805 aabe c078 453e 1c1f d53b eb0e f7bc
00000010: 3d64 5e3e 3e59 45be 2b03 003d 53e4 9bbc
00000020: aeaa c93c 0a54 8dbe b1a7 26bd e36a 0dbe
00000030: 8fdf 31be ff69 473d 595e febd 799f 7f3d
00000040: c8a2 c03c bf9c 0abe 5119 3abe da68 45be
00000050: f2a9 e0bd bca4 fdbc ba47 23be 305b e53c
00000060: e9cb d43d 85cc acbd b13e 323c 1be8 07be
00000070: 188a 64bd 9750 683b 735f 88bb f399 e8bd
-0.3320706 0.19284344 0.0065039527 -0.03015848 0.21717925 -0.19272324 0.03125302 -0.019029772
0.02461752 -0.2760318 -0.040687267 -0.13810305 -0.17370437 0.04868507 -0.12420339 0.062407944
0.02351512 -0.13536356 -0.1817372 -0.19278279 -0.109699145 -0.03096234 -0.1594533 0.027997583
0.10390455 -0.084374465 0.010879205 -0.13272135 -0.05579576 0.0035448426 -0.004161769 -0.113574885

decoder.0.linear.weight f4 [64, 32]
00000000: f6da 493e 9c0c 51be d640 5fbe 6e91 a4be
00000010: 54d5 d6be c443 a2be 5230 d8be d72c c93d
00000020: ecfa a0be 6fcc d3be f340 abbc fade 9bbe
00000030: ce3c e3be ba43 8dbe 0275 233d a973 a03d
00000040: 884d 823d 7017 813f aa58 8e3e 1abd 9abe
00000050: a938 db3e 3c6f a73c 2fa9 4ebe a3a9 4abe
00000060: 6a87 873e f017 20bd b460 9abe c51a 023f
00000070: 8e7c a7be 4d70 383f 860c 90be 652c 3c3f
00000080: b94c bd3d e792 883b 5e50 9ebd bbc1 94be
00000090: 0851 c5bd 7945 d63d 44ee 05bd 89db 103d
000000a0: 897a 94bc 02d4 133e 3da4 c53b d831 003e
000000b0: 7e0d aa3e 5f37 a0be cce1 15be 8eca 97bd
000000c0: 8445 8a3e dc60 773c b2c7 95bd 411a 2e3e
000000d0: 535c 8f3b d778 bb3c 2453 d5be 41aa e63e
000000e0: 5b70 55be 5506 a43d 93e2 d6be 7116 493d
000000f0: 6233 093e 3c67 90be 50da 733d b998 7a3b
00000100: 00cc 023e d654 2dbe 2e7f 15be f375 133f
00000110: aaf1 57bf e898 89be c09b cfbe 94cf abbe
00000120: 14e1 683f 888f 943e 6ce0 c0bd 0d2d bdbd
00000130: 652f efbe f4d0 c3be a1b4 40bb 1170 2c3e
00000140: b3cb 10bf 95e9 35bd 9ef5 0e3e ccd6 c33d
00000150: e049 513e f1d7 1ebe b7f1 95be 71c9 f3be
00000160: 6aea 6a3f be8b 58be 66ff 5c3e be9d 7fbd
00000170: 6718 0abd 4a7f 133e a8fc 58be 3124 24be
00000180: 901d ffbd 736e 00bf 9c81 f6be d49e d93c
00000190: b233 ccbd 10de 013e a8c5 a83d 70bf 1a3d
000001a0: b156 633b 42a4 3abe 386f 1dbe fbc5 93bd
000001b0: 4b29 5b3e 31c0 56be adbd 913a 9b6d 933c
000001c0: 48a6 423e 30c3 393e 2a86 b7be 76f9 49be
000001d0: 91ab a8be 3e6e 88be d7f0 d63e f665 e83d
000001e0: 8177 94be 0159 5ebe 32fe 42be aa26 b93e
000001f0: e81c abbe 04e9 74bd fa41 8b3e 2bd8 b33e
00000200: 3183 8fbd a34e 363e 9a1f 0dbe f022 3d3f
00000210: c7aa 49be ec7c 8bbe c609 1d3e a0d5 933d
00000220: ee7a 2d3f 170c 593f 90e1 c9be a0d9 c1be
00000230: fe6a 9fbe 460b cc3d dca6 9cbe 178e 013e
00000240: a5e5 8e3e 9b7a 06be b874 03bd 7205 38be
00000250: 8209 aebd 1328 3fbe 2b50 2dbe 0fb6 f1bd
00000260: 3795 fe3e b96a 81be 4c2c 873f 6b57 72be
00000270: 0c7a cb3c 207d 9a3d f0e6 d9be 2229 05be
00000280: 8725 82be ae8a 91bd 11f1 23be 127a e0bd
00000290: cb16 86be a654 a7bc 5b30 9ebe fa83 4d3d
000002a0: 2018 8cbe e118 3cbe e7fe e63e 7202 a1bd
000002b0: 8b17 5c3b 101c 97be 13f7 073e 6876 04be
000002c0: 0da1 533f cb65 17be 962c cdbe e010 6b3c
000002d0: f025 ae38 b9df aa3c 12f9 313e f744 4ebe
000002e0: 0560 60be c393 a4bc 4763 e33d 1337 36be
000002f0: bc6f 46be f77a c33c 5b51 95bd 6c20 93bd
00000300: 858e afbd 68e7 a53e 7ea6 9abc 2b0a d138
00000310: 48d7 9f3c cce2 09bd 70eb c2bb 603e ddbd
00000320: eef4 edbd 1409 d13e 4055 003f 09b7 6cbd
00000330: 50a7 a33d aa99 adbe b598 e5bd a5e9 973c
00000340: 11ff 6bbe 843d 06be 5884 87be 166b 81bd
00000350: 6735 7cbe 92bd 82bd b783 a13e 33d8 58be
00000360: e82b 67be b5e0 4d3e 5255 c3bd a45c 2fbe
00000370: 0f4c 993d 40b9 a1bd 6b33 543c 1678 dfbd
00000380: 8123 d23e 3b3b 8f3e 6248 163f ab66 08be
00000390: 5d78 7dbd 60ea 7cbe d717 e7bc 57ab 04be
000003a0: fa37 20be 27fc dbbd 77d6 eb3d afe8 393f
000003b0: 678e c7bd 33c9 0a3d 3c2b 63bd a3a5 0e3e
000003c0: d4b0 22bd ab38 503e c249 c5be f3ff 1a3f
000003d0: 3463 a4bd 4cb7 aabe 670e 363e 1c99 cabe
000003e0: 600b 2bbe 561d a1be 1996 f43d 3eff f13e
000003f0: 9590 cdbd 244b 68bb d18d b93c 61d0 983e
0.19712433 -0.20414966 -0.21802077 -0.32142204 -0.4195963 -0.31692326 -0.42224365 0.09823006
-0.31441438 -0.41366908 -0.020904994 -0.30443555 -0.44382328 -0.27590734 0.03990651 0.078345604
0.06362444 1.0085278 0.2780202 -0.30222398 0.42816666 0.020438783 -0.20181726 -0.19791274
0.264705 -0.03908533 -0.30151904 0.508221 -0.32712215 0.7204636 -0.28134555 0.7350524
0.09243149 0.0041679027 -0.077301726 -0.29054055 -0.09634596 0.104624696 -0.03269793 0.035365615
-0.018124836 0.14436343 0.0060315416 0.12519014 0.3321342 -0.31292245 -0.14636916 -0.07411681
0.2700616 0.015098777 -0.073134795 0.17002203 0.0043750196 0.02288477 -0.41664994 0.45051768
-0.20843641 0.0800902 -0.41969737 0.049093667 0.13398507 -0.28203762 0.05953437 0.0038238002
0.12773132 -0.16926894 -0.14599296 0.5760185 -0.84353125 -0.2687447 -0.40548515 -0.33556807
0.9096844 0.29015756 -0.09417805 -0.092371084 -0.46715847 -0.38245356 -0.0029404538 0.16839625
-0.5656082 -0.044412214 0.13960883 0.09562454 0.20438337 -0.15512063 -0.29285976 -0.47614625
0.9176394 -0.21147057 0.21581802 -0.062406294 -0.03371468 0.14404026 -0.2119013 -0.16029431
-0.124568105 -0.5016853 -0.4814576 0.026564993 -0.099707976 0.12682366 0.08240825 0.037780225
0.0034689123 -0.18226722 -0.15374458 -0.07215496 0.21402471 -0.20971753 0.001111915 0.0179966
0.19008744 0.18140864 -0.35844547 -0.19724068 -0.32943395 -0.26646608 0.4198062 0.113475725
-0.28997424 -0.2171364 -0.1904228 0.3616231 -0.3342049 -0.059792534 0.27198774 0.3512586
-0.07007445 0.17803435 -0.13781586 0.73881435 -0.19694053 -0.27243745 0.1533576 0.0721848
0.677657 0.8478407 -0.39429903 -0.37861347 -0.31136316 0.09963088 -0.30596054 0.12651859
0.2790958 -0.13132708 -0.032093734 -0.17970827 -0.08497907 -0.18667631 -0.16925113 -0.11802303
0.49723217 -0.25276735 1.0560393 -0.2366616 0.02483847 0.07543397 -0.42559004 -0.13003972
-0.25419256 -0.07106529 -0.16009928 -0.10960783 -0.26189265 -0.020426106 -0.30896267 0.05017469
-0.27362156 -0.18368866 0.4511635 -0.078617945 0.0033583369 -0.29513597 0.13277845 -0.12935793
0.8266762 -0.14784925 -0.4007308 0.014347285 8.304033e-05 0.020858632 0.17380169 -0.20143496
-0.21911629 -0.02008999 0.1110292 -0.17794447 -0.19378561 0.023862345 -0.07290908 -0.07183918
-0.08572105 0.3240311 -0.018878218 9.9677905e-05 0.019511834 -0.033663556 -0.0059484765 -0.10802913
-0.11618982 0.4082724 0.5013008 -0.057791743 0.07990897 -0.339063 -0.11210767 0.018544028
-0.23046519 -0.13109404 -0.26468158 -0.06319253 -0.24629746 -0.06383814 0.31545803 -0.21176223
-0.22575343 0.2010525 -0.09537758 -0.17125183 0.0748521 -0.07896662 0.012951712 -0.109115764
0.41042712 0.27974877 0.587042 -0.13320415 -0.061882365 -0.24698782 -0.02820961 -0.12955986
-0.15646353 -0.107414536 0.11515515 0.7262067 -0.09743958 0.033883285 -0.055461153 0.13930373
-0.039719418 0.20334117 -0.38532835 0.605468 -0.08026734 -0.3334297 0.17778932 -0.39569938
-0.16703558 -0.31467694 0.11942691 0.47265047 -0.100373425 -0.0035445178 0.022650631 0.2984648

decoder.0.linear.bias f4 [64]
00000000: df97 883d c42d 6e3e 36fd ce3c c402 ac3e
00000010: 5c9c 273e 9530 b23e 84f7 a83e 8276 423e
00000020: 038c 973e c5e0 6e3e 867d 4b3d 9a93 9e3e
00000030: a16b 3c3e 4ea4 ca3d eec0 643e 84a3 de3a
00000040: 5ff4 cd3d 5aa2 453e c401 e23e 61f6 7b3e
00000050: d101 953e b548 823d f8ac 0b3d 8beb c33d
00000060: 88c8 d83e 04b9 853e 0a5e 7b3e 4334 453e
00000070: 23ad 6d3e 9c90 a13e 2b6f 953e 1e5c ac3e
00000080: bbbd ac3d c34f a73e 0f4f bd3e 4a68 943e
00000090: a05d 643d 601a f13e e29c 683d 54aa 8a3e
000000a0: 9a34 e33e 0598 a93d 103c cf3e 99fe 083f
000000b0: 2702 133d b421 ed3e 0061 b33d b5e0 e83e
000000c0: 814b 413e 8a21 fb3d 6137 673e 1976 963e
000000d0: 7e48 e93e ffb1 b43e e27b a63d 21dd 3c3e
000000e0: 9672 cd3e ec0d 833d d254 a03e 171c 683e
000000f0: 2ed5 243e a5f1 8a3e 4be1 393e 04b5 593e
0.06669592 0.23259646 0.025267225 0.3359586 0.1636824 0.3480269 0.3300134 0.1899052
0.29599008 0.2332793 0.049680255 0.30971986 0.18400432 0.0989462 0.22339222 0.0016985987
0.10056376 0.19300213 0.44141972 0.24605705 0.29102948 0.06361524 0.034100503 0.09566411
0.42340493 0.26117718 0.24547592 0.19258218 0.23210578 0.3155564 0.29186377 0.3366403
0.08434626 0.3267804 0.3697438 0.28985816 0.05575335 0.47090435 0.05679024 0.27083075
0.4437607 0.082809485 0.40475512 0.53513485 0.035890725 0.46314776 0.08758736 0.45483938
0.18876459 0.122622564 0.22579719 0.29386976 0.4556312 0.3529205 0.081290975 0.18443729
0.40126485 0.0639914 0.31314713 0.22666965 0.16096947 0.27137485 0.18152349 0.21260458

decoder.1.linear.weight f4 [1000, 64]
00000000: f4a6 6c3e b926 1e3d 14f3 273d 2f14 353c
00000010: a0cd 0abd 5bce 1abd e689 f33c 743e 8a3c
00000020: ad89 513d 4190 cd3d 2d99 f0bc 56f2 d8bb
00000030: 6108 df3d 11e4 a83d 975e b93a f9de 88bd
00000040: 3c9a 6abb f31a a3bc 1df5 9c3b d5fa 7dbb
00000050: 83fb 093c 9c1f 383e b387 e63c ed7a d93d
00000060: 783e 43bd 3040 f23b 914c 85bc 377c 5ebc
00000070: 7fee 73bb 49f2 553c be00 d23b a0b0 f03a
00000080: debd b23d 1554 d63b e487 08bd 6d31 7b3d
00000090: a33c 5cbb 6bfe 883c 07de 053e cc68 913c
000000a0: 0761 08bd c39d 9c3d 3b5a 46bc c458 8d3c
000000b0: a99f 9f3c 6315 b4ba aca6 9cbc 4abd 023c
000000c0: 0651 adbc 8002 253d 594d 0bbd 1bc5 0bbd
000000d0: ad88 313b a1e4 0cbd 8f24 cebb 908e 3c3c
000000e0: e237 12bc 8dec 91bc 732d 863d 5084 363b
000000f0: 697c 3fbd f833 75bc 670e 893d e692 8b3c
00000100: fa07 e53d 2007 643d 1c6a 723d 6745 2abc
00000110: c57f 92bc aee0 39bb d2af e53c 79be caba
00000120: 85a0 8dbd af8e ef3b ae4c d63c 93ae 9b3b
00000130: 7aad 77bd a485 493d c334 04bc 1c80 b23b
00000140: 8eb1 1abd 24ca 7b3b d3cf 1abc 9e1b 8bbc
00000150: fdb3 da3b 7ba1 44bd 3c7c 55bc 9a0a ca3d
00000160: 57e4 143c cef4 683c b206 7c3c b569 653c
00000170: dfd7 e7bc 461b a83b a074 193c 8688 cd3b
00000180: fef0 c33d 1192 c2ba be3b 5a3c 5155 f03c
00000190: 6f90 8fbc 8e00 e13a 5913 393d a1a3 dcbc
000001a0: 0842 deb9 ae35 163e 3083 82bc 1691 febb
000001b0: d3fc 14bc e1e0 16bc 860f d23c d306 84bc
000001c0: 1443 2bbc 7c8a 763b b813 1dbd 2edb d93b
000001d0: adea 9bbc 724b 11bc 79d8 feb9 5770 58bd
000001e0: 2166 c03b 509f 1abd e808 bbbc 7a38 c23d
000001f0: 8f06 8a3c 2522 febc e476 743c 1f39 9cbc
00000200: cc47 05bd 1ab1 583d fd20 243c a493 83bd
00000210: facf d5bc 9f41 4abc b3ea 9f3b 9aa1 d23c
00000220: c0e0 11bd 7382 303d 9deb 0c3d fe54 84bb
00000230: 9ff8 febc d72d e13d efe6 ddbc ed02 e93c
00000240: 2119 e83b 3c72 af3c ae2a 8d3d bfbd 3d3c
00000250: 44d1 243d 65f6 fa3c b47b 103d 7287 693d
00000260: 76c4 18bd c6e3 dbbc f3ec 393d a841 363c
00000270: e9b3 0dbd 28c3 d5bb 7658 8f3c 372e 61bd
00000280: 59fe d33d b209 8c3c 68ae d8bb 482f 683c
00000290: 8137 f03c b348 973b a628 3b3e b383 0ebd
000002a0: bf41 9fbc 8d3d 72bc 20a8 dc3c fbca fb3c
000002b0: cca0 023c fc96 14bc 6d06 2dbd 51a6 32bc
000002c0: e492 84bb fc36 93bb 73ed 95bd 7c0f d53c
000002d0: 55f8 93bc 7cfa 33bd fd3d 5a3b 29ad 683c
000002e0: 76e3 d0bc c63e 74bd 4be3 9cbb fb00 403c
000002f0: f5cf c43c 2c8a 89bc f400 573c e557 76bc
00000300: 641f 2f3d ef9f 463d 6390 333a 50ad 43be
00000310: 1eb1 a3b9 a719 ddbd 1782 ca3b cd46 223e
00000320: bbd7 c23c d977 15bd 1187 86bd 1541 9bbd
00000330: eefe 2fbd d9a9 17bc 6ba9 543d 4b0e 84bd
00000340: 5b22 173d 6eee 733d e4d8 91bd a182 02be
00000350: 1a04 e23c a28f ca3c 20a0 a7bc ced6 923c
00000360: 3e85 85bd f532 89bd 535d 843e 6f24 cf3d
00000370: 1a6e 213d e6df 433d 13e0 06bd 455b e23c
00000380: d237 533b 3a00 533e 9d63 8bbd 4c2e 2bbe
00000390: 7de7 e6bc 8709 833d 8e01 8c3d 2a6d 85bb
000003a0: 24c9 e13d 298c 193d d620 cb3c 9496 d43c
000003b0: 2551 c3bb 7361 0cbb 7c6a 3fbd 7296 9b3c
000003c0: cbfb a73c 1fb7 903d 6a9e 35bd d0f6 93bd
000003d0: 0445 67bd 77e2 123e e9f6 32bd ad3b 2c3d
000003e0: 4fd4 40bd 8367 c63a 40f9 bf3a 4fb5 5fbd
000003f0: b324 c8bc 1765 6f3d 61d2 363d 69f1 9ebd
0.23110563 0.038611148 0.0410033 0.011052175 -0.033887506 -0.037794452 0.029728841 0.016875483
0.05115669 0.1003728 -0.029369915 -0.0066206856 0.1089027 0.08246625 0.001414257 -0.06683154
-0.0035797497 -0.019910311 0.004789962 -0.0038754244 0.0084217815 0.17980808 0.028140878 0.10619149
-0.047666997 0.0073929057 -0.016271861 -0.01357942 -0.0037221012 0.013058254 0.00640878 0.0018363185
0.087276205 0.006540785 -0.03333272 0.061326433 -0.0033605478 0.016722878 0.13072978 0.017750166
-0.033295657 0.07647278 -0.012106474 0.01725424 0.019485312 -0.0013739284 -0.019122444 0.0079797
-0.021156799 0.040285587 -0.03400931 -0.03412352 0.0027089522 -0.034397725 -0.006290979 0.011508599
-0.008924456 -0.017812992 0.065516375 0.002784986 -0.046749506 -0.014966004 0.066922 0.01703782
0.11183162 0.055670857 0.059183225 -0.010392523 -0.01788319 -0.002836268 0.02803794 -0.0015468142
-0.06915382 0.0073107104 0.02615961 0.0047510355 -0.060468175 0.049199715 -0.00806922 0.0054474007
-0.037766986 0.0038420046 -0.009448963 -0.016980942 0.0066742883 -0.048005562 -0.013030108 0.09865303
0.009087644 0.014218522 0.015382456 0.014002253 -0.028301178 0.0051302044 0.0093661845 0.0062723784
0.0956745 -0.0014844557 0.013319908 0.029337557 -0.017524926 0.0017166303 0.045184467 -0.026933493
-0.00042392337 0.14668915 -0.015931696 -0.0077687604 -0.009093481 -0.009208889 0.025642168 -0.016116535
-0.010453004 0.0037619164 -0.038348883 0.0066484427 -0.0190328 -0.008868085 -0.0004860794 -0.05284151
0.0058715497 -0.03774959 -0.022831395 0.09483428 0.01684883 -0.03102214 0.014920924 -0.019070206
-0.032539174 0.052903272 0.010017631 -0.064246446 -0.026100148 -0.012344747 0.0048802732 0.025711823
-0.03561473 0.043093156 0.034404386 -0.004038452 -0.031124411 0.109950714 -0.027087657 0.028443778
0.0070830737 0.021416776 0.06892906 0.0115808835 0.040238634 0.030635068 0.035274222 0.057013936
-0.037296735 -0.02684201 0.045391988 0.011124052 -0.034595404 -0.0065235086 0.017498236 -0.054975715
0.10351247 0.017094467 -0.0066125877 0.014171429 0.029323341 0.0046168207 0.18277225 -0.034793567
-0.01944053 -0.014785183 0.026935637 0.030736437 0.007972907 -0.009069201 -0.042242456 -0.010903911
-0.004045831 -0.0044926386 -0.073206805 0.02600836 -0.01806275 -0.043940052 0.0033301108 0.014201441
-0.025499087 -0.059630178 -0.0047878376 0.011718984 0.024024943 -0.016789518 0.013122786 -0.015035604
0.042754546 0.04849237 0.00068498234 -0.19109082 -0.00031221745 -0.107959084 0.0061800587 0.15847321
0.023784509 -0.03649125 -0.065687306 -0.07580773 -0.04296773 -0.009256803 0.051919382 -0.06448039
0.036898 0.059553556 -0.07121447 -0.12745143 0.027589846 0.024726693 -0.020462096 0.017924692
-0.065195546 -0.066991724 0.2585245 0.10114371 0.03941164 0.047820948 -0.032928538 0.027631411
0.0032229316 0.20605555 -0.06806109 -0.1671688 -0.028186554 0.063983016 0.06836234 -0.0040718513
0.11024693 0.037487183 0.02479593 0.025950707 -0.005960601 -0.002142039 -0.04673241 0.018992636
0.020505806 0.070661776 -0.04434053 -0.0722481 -0.056462303 0.14344202 -0.043692503 0.0420491
-0.047077473 0.001513705 0.0014646426 -0.05461627 -0.024431562 0.058446016 0.044634227 -0.07760889

decoder.1.linear.bias f4 [1000]
00000000: e2eb b6bd aac5 71bd 4837 b4bc d7f6 ec3b
00000010: f0d4 6bba ce32 83bd fdec 3cbd 0c80 ecbc
00000020: 5137 23bd 5ecd 95bd 7a4c 83bd 8a00 3e3c
00000030: 7a54 40bc 7dfd 58bd acce 95bd 68d7 ebbc
00000040: b7a1 0cbd bdd3 debc e793 153e c5e9 b7bc
00000050: 0e87 30bc 08dc 17bc 1a9a 7dbc 3d6c 6d3c
00000060: 7fdb d33a e9ba b8bc 461d 80bd 5202 07bd
00000070: 28ee 53bd 5e43 b4bb 5614 69bc cf1f 40bd
00000080: b7ef 2bbd cebb c2bb 6faa 1abd 9157 033d
00000090: ae0e 54bc 8859 93bc 994f 37bd 4b54 55bc
000000a0: 95df 28bd 3f15 52bc 18ac 63bd b944 1bbc
000000b0: fd1c adbd 4f93 3e3c 8e48 65bd 87ec 7b3c
000000c0: bc88 16bd 6232 3dbd d2e4 01bd e777 413b
000000d0: 2eac c8bc 7cf9 1abc 4a67 3abd ef7f 0e3e
000000e0: 59f2 64bd 8dcd 6ebd 50c8 95bc 525e 59bd
000000f0: eb0d b9bd 6b7d 54bd 7fc2 8dbd 89db d2bc
00000100: 9fc8 ec3b 2870 00bd 8d78 9ebd b731 d136
00000110: 5824 60bc 3820 59bd 6510 38bd 8fc9 5abd
00000120: bb24 bf3c 9cd6 e9bc a0f0 81bd ee69 b9bd
00000130: 9769 233c 2bf9 47bc b2a0 71bd 9a48 90bd
00000140: 0fc8 d3bc 6be1 54bd acfe c73b 8df6 21bd
00000150: 6117 96bc 7522 1cbd 4212 94bd ad4a 85bd
00000160: 0200 42bd f18d 833c f34b 28bd f4e9 19bd
00000170: e893 10bc 92f9 c8bc 02ec 89bd 4196 05bd
00000180: c399 49bd 2ecd 89bc 2933 983c 16cb 83bd
00000190: a7fb 3b3d 9f5c 80bd 9b1c 4d3c 214a 6ebd
000001a0: 39a5 23bc 00b6 a7bd 730c 4cbd 9a45 f63b
000001b0: 04ce 24bc 5e63 6dbd 4d23 173c 0f10 d0bc
000001c0: a360 38bd db6a eabc 7f6f 15bd 8122 abbd
000001d0: 58a5 33bc 472d 09bd 750b 14bc 605d 60bd
000001e0: 3f00 a039 a4b0 52bd 2730 f2bd abbc 28bd
000001f0: 2f98 61bd cef5 283d d97b ccbc d61c 59bd
00000200: 1e7b a83c 9eec efbb a9b3 9bbd be3b d2bc
00000210: c266 3cbd 2252 83bd 4b77 5dbd d616 1dbc
00000220: 3f0b 12bd 0316 92bd b499 ef3d e789 0cbd
00000230: b131 b6bc b8a9 7ebd 14fd 7dbd 2035 2d3c
00000240: 7175 3f3b 0a2c 8ebd d85a 54bd 9e2b 97bc
00000250: 9db9 bfbb 9b45 b2bd 7912 273c c2e5 6ebc
00000260: a085 67bd a6e8 6dbb 640b ebbc afc6 19bd
00000270: 3aa6 aebb 2b09 ddbc 1d0d aabc 18ab b83d
00000280: ac2f 23bc bc2b 8ebc ed96 3e3a c5f6 a0bb
00000290: e1ae bdbb 8a59 8abd 265a 60bd ebe4 10bb
000002a0: b749 91bd 3c12 ad39 7f0c debb 2b44 f53b
000002b0: 101f d3bc 52d1 1ebd b555 abbd 4db5 50bd
000002c0: f151 bdbb cd7d b1bc dab1 0fbd 48c2 96bd
000002d0: 0613 91bd 5553 c4bc e3b6 3fbd eb03 2abc
000002e0: c7a4 fbbb b38e cbbc 613a 3bbd 62d5 633c
000002f0: 3659 ffbc eda2 bcbc b81b a0bc ae1f a9bc
00000300: a56e 3abd 3529 d4bc 233d f6bc 480b b73c
00000310: 0736 6cbc e961 d4bd baa4 3cbd 71f5 e3bc
00000320: d72d 61bc 6e6c 12bd b840 8bbc 9006 80bd
00000330: 47a4 b2bc f866 46bd b311 87bd 5f2f ecbc
00000340: 4f95 053d 99ca eebc b208 37bd b37f cdbb
00000350: 735c 19bd be81 86bd d7f5 8cbd 9dd1 3ebb
00000360: 0729 783c ea7e c4bc d57d 0a3d f5b0 903b
00000370: 8d24 67bd 2eac 5fbd b503 9a3a cc05 f1bc
00000380: 0455 46bd a2c7 ffbc 21e4 89bd 99c5 8dbd
00000390: 2a50 febc 5069 28bd 295a cabc 5fa1 95bc
000003a0: 1cf0 8fbc 89f4 b33d 2724 4fbc 407d 24bd
000003b0: 63ff 25bc 0a97 97bc fbe0 f3bc 7dfa 89bb
000003c0: 671f 67bd 68e7 94bd fa11 7a3c a357 1bbd
000003d0: 167c 3cbd b88a 27bc ba02 1dbc 1a63 21bd
000003e0: cfa4 4e3d 706b c2bd e5e0 27bd 7b67 f9bc
000003f0: c337 c2bc e9d3 853c 63e0 953c 8220 ad3c
-0.0893171 -0.059026398 -0.021999016 0.007231574 -0.0008996269 -0.064061746 -0.046124447 -0.028869651
-0.039847676 -0.07314561 -0.06411071 0.011596808 -0.011738891 -0.05297612 -0.0731481 -0.028789237
-0.03433391 -0.027200574 0.14607202 -0.022450337 -0.010774387 -0.009268768 -0.015478635 0.014491138
0.0016163437 -0.022550063 -0.062555835 -0.032961197 -0.051740795 -0.005501195 -0.01422604 -0.046905335
-0.041976657 -0.005942798 -0.037760194 0.03206593 -0.012942953 -0.017987028 -0.044753645 -0.013020585
-0.04122885 -0.012822448 -0.055584043 -0.009476834 -0.08452795 0.011631801 -0.055977397 0.015376217
-0.036751494 -0.046190627 -0.03171236 0.002952093 -0.024496164 -0.009458896 -0.04550866 0.1391599
-0.055895183 -0.058301497 -0.018283993 -0.053068466 -0.09035858 -0.05187742 -0.06921863 -0.025739448
0.0072260643 -0.03135696 -0.07737837 6.234473e-06 -0.01368054 -0.05300924 -0.04493751 -0.053414878
0.023332944 -0.028544717 -0.06344724 -0.090534076 0.009973905 -0.012205402 -0.05899114 -0.07045098
-0.025852231 -0.051972788 0.0061033573 -0.03954177 -0.018321695 -0.0381188 -0.07230045 -0.06508384
-0.04736329 0.016058894 -0.041088056 -0.03757663 -0.008824326 -0.024533067 -0.06734468 -0.032613996
-0.049218904 -0.01682147 0.018579083 -0.0643522 0.04589429 -0.06267666 0.012519027 -0.058176164
-0.009988123 -0.081890106 -0.04981656 0.0075156214 -0.010058884 -0.057956092 0.009224725 -0.025398282
-0.045014035 -0.028615406 -0.036483284 -0.083561905 -0.010964714 -0.033490445 -0.009035935 -0.05477655
0.00030517761 -0.05143799 -0.118255906 -0.041195553 -0.055076774 0.041250043 -0.024961399 -0.053006016
0.02056652 -0.007321908 -0.07602627 -0.025663253 -0.045996435 -0.0641215 -0.054068845 -0.009587964
-0.035655256 -0.07133105 0.116992384 -0.0343112 -0.022240492 -0.062173575 -0.062008932 0.010571748
0.0029214288 -0.069419935 -0.051844448 -0.018453415 -0.0058509842 -0.087046824 0.010197275 -0.014581146
-0.05652392 -0.0036302 -0.028691955 -0.037542995 -0.0053298743 -0.02698191 -0.020758206 0.090170085
-0.009960096 -0.017354839 0.00072704145 -0.0049122297 -0.0057886695 -0.067553595 -0.054773472 -0.0022109102
-0.07094138 0.00033010717 -0.006776392 0.007484933 -0.025771648 -0.038773842 -0.08365957 -0.050954152
-0.0057775904 -0.021666432 -0.03508172 -0.07361275 -0.070837066 -0.023965517 -0.046805274 -0.010376911
-0.007679555 -0.024848318 -0.04570997 0.013905855 -0.031170469 -0.023026908 -0.019544467 -0.020644989
-0.045515675 -0.025898555 -0.03005845 0.022344247 -0.014417178 -0.103702374 -0.046055533 -0.027826997
-0.013743839 -0.035747938 -0.016998634 -0.06251252 -0.02180685 -0.048438042 -0.06595173 -0.028831182
0.032613095 -0.02914934 -0.044686027 -0.0062713264 -0.037441682 -0.06567715 -0.06882828 -0.0029116638
0.0151465 -0.023986299 0.03381141 0.004415626 -0.056431342 -0.054607563 0.0011750372 -0.02942171
-0.04842092 -0.031223122 -0.06732965 -0.069224544 -0.031044085 -0.04111606 -0.024701195 -0.018265424
-0.017570548 0.08786876 -0.012642897 -0.04015851 -0.01013169 -0.018504638 -0.029770365 -0.0042107687
-0.056426432 -0.072707 0.015263075 -0.037925374 -0.046016775 -0.010225944 -0.00958317 -0.03940115
0.050450142 -0.09493148 -0.04098596 -0.030444851 -0.02370823 0.016336398 0.018295472 0.021133665
